pt_inference/decoder_rgb_best_316.pth (torch, 28234 bytes, 6 tensors)

layers.0.weight f4 [75, 5]
000000 8b 8c 62 be e5 f6 b8 3c 41 44 08 3f 7a 03 7b 3e
       -0.22123925 0.022578666 0.5322915 0.24513045
000010 1c 9e 3a bf 3b 6c e1 be d5 a8 2e bf c0 77 f2 3d
       -0.72897506 -0.44027886 -0.6822637 0.11839247
000020 99 f6 c8 3d b6 e5 38 3e ad 51 ba bf dc 75 e0 bd
       0.0981266 0.18056378 -1.4556175 -0.1095998
000030 91 d3 4f 3e 12 c2 ad be 5d cc 02 3f 9f d4 84 bf
       0.2029555 -0.33937126 0.51093084 -1.0377387
000040 28 c7 3a bd 73 b5 c7 3e 20 68 0e be a2 73 e6 be
       -0.045600086 0.39005622 -0.13906908 -0.45010096
000050 13 77 d4 be 95 23 5d be 16 a8 45 be 2b db d0 be
       -0.41497096 -0.21595605 -0.19302401 -0.40792212
000060 c4 46 07 bf 3e e5 a7 be 28 af e9 3d 40 07 b1 be
       -0.52842355 -0.32792085 0.114103615 -0.34575844
000070 d8 59 17 be 62 1a 6b be 42 e2 0d be 93 e2 e3 be
       -0.14780366 -0.22959283 -0.13855842 -0.445088
000080 9c 34 33 be 99 7a 70 be 8c b9 39 3e 44 3d a2 bf
       -0.17500538 -0.23484267 0.18137187 -1.2674947
000090 e5 6c 4c 3e fe 6f 84 be 26 63 79 3e a3 3f 05 3f
       0.19963415 -0.25866693 0.24354228 0.52050227
0000a0 a8 e5 9d be 4c ec 95 3e 44 36 94 bd be a1 0a be
       -0.30839276 0.29281843 -0.07236913 -0.13538262
0000b0 08 0a e3 bd 94 a6 a8 be 66 d1 9f be 28 fd d1 be
       -0.11085898 -0.3293959 -0.31214446 -0.41013455
0000c0 20 95 85 3d 1f 4b a2 be a2 01 fa be 84 b4 07 be
       0.06522584 -0.31697938 -0.4882937 -0.13252455
0000d0 7e a2 b2 be 0d 9a 1c be d7 60 db 3d 35 28 f1 bc
       -0.34889597 -0.1529314 0.1071183 -0.029438118
0000e0 c9 3c fa bf 6a 20 b7 be 23 10 2f 3e a6 0c 9a bc
       -1.95498 -0.35766917 0.17096 -0.01880486
0000f0 0b be a8 be cf 28 7b bf ba 32 90 bd 8f 4b b1 3e
       -0.3295749 -0.98109144 -0.07040925 0.3462796
000100 1f d4 19 3f 03 12 5d 3e 05 43 89 c0 8d c9 4b be
       0.60089296 0.21588902 -4.289431 -0.19901104
000110 2a 57 25 be e1 1c c7 be 00 32 68 3d af a4 dd be
       -0.16146532 -0.3888922 0.05668831 -0.43289706
000120 ef e3 4b be aa 50 64 be 00 90 8a 3e 90 31 17 c0
       -0.19911169 -0.22296396 0.27062988 -2.3624
000130 a8 86 2c be 4a 03 a4 bd f9 f4 81 3c 7e 5b c5 3e
       -0.16848242 -0.0800844 0.015863882 0.38546365
000140 00 e2 13 3d 4f f5 ff bd 47 25 3d 3e ba d6 ce be
       0.036104202 -0.12497961 0.18471251 -0.40398198
000150 28 65 ea be 7c 74 18 3e 71 d9 c4 3e ed d4 2f be
       -0.457803 0.14888185 0.38447145 -0.17171068
000160 3d ab 29 be cf d0 36 3f e0 fb cb 3e 1c 2a db 3e
       -0.16569228 0.71412367 0.39840603 0.42805564
000170 fe f6 12 bd 0b 02 04 c0 3b c5 91 3e 6c 6f 19 3e
       -0.03588008 -2.0626247 0.28470787 0.1498391
000180 c7 86 25 3e 47 a0 c4 be 20 bb cd be 60 f1 b4 be
       0.16164695 -0.38403532 -0.40181828 -0.35340405
000190 d8 e8 c5 be c0 5f 27 3c 80 92 f8 bb ee 02 25 be
       -0.38654208 0.0102157 -0.0075858235 -0.16114399
0001a0 18 c2 ca 3d 6e 57 d9 3d d2 de 10 c0 8e d5 90 bd
       0.09900302 0.10612379 -2.2635999 -0.07071982
0001b0 e9 db 32 be 19 82 91 3d 13 26 dd be 12 63 2d be
       -0.17466702 0.07104892 -0.4319311 -0.16932324
0001c0 c0 5b 37 bd 60 a6 4d 3c 84 20 9f 3e c5 8b 40 be
       -0.044765234 0.012551874 0.31079495 -0.18803318
0001d0 ac 06 22 be 54 a2 6f bd dc f9 a1 3c b5 67 95 bf
       -0.15822858 -0.058504418 0.019772463 -1.1672274
0001e0 f1 d5 cd 3e aa fc 8d be 32 05 76 be c9 c3 4b bf
       0.40202287 -0.2773183 -0.2402542 -0.7959562
0001f0 c8 3f b6 3e d8 8b e7 bd 6e 09 d4 be c1 a2 8f be
       0.35595536 -0.1130597 -0.41413444 -0.2805386
000200 00 04 cd 3c a8 e8 bb 3e 36 84 4b bf 7d ff 59 bf
       0.025026321 0.3670094 -0.7949861 -0.8515547
000210 09 bb d2 be f1 90 18 be ef 11 23 be 51 92 20 bd
       -0.41158321 -0.14899041 -0.1592481 -0.03920204
000220 ef 64 33 be eb 81 a4 bd ca ab e8 be bb 7c 38 bf
       -0.17518972 -0.080325924 -0.45443565 -0.72065324
000230 e5 92 f9 3e 94 47 fd be 1a 2f 3e bf 03 6c 55 bf
       0.48744884 -0.49468672 -0.7429062 -0.8336794
000240 98 4a 6c bd 13 84 28 3f 95 6e 5d 3e 70 83 0d 3e
       -0.057688326 0.6582653 0.21624215 0.1381967
000250 f7 0e e4 3d 21 b5 45 3e 97 59 04 3f 38 9d 1b bd
       0.11135667 0.19307376 0.51699203 -0.037991732
000260 25 4b 52 3e ac bd 9b 3e 79 a6 1b 3f e4 79 2a be
       0.20536478 0.30418146 0.6080089 -0.1664806
000270 ea 41 54 3e f2 84 21 3d 59 67 04 be 02 c3 a8 3e
       0.20728269 0.039433427 -0.12930049 0.3296128
000280 2d cb b9 bf 79 5e fd bd 89 3c 15 3e 84 63 82 3e
       -1.4515129 -0.12371535 0.14573874 0.2546655
000290 e7 7c e2 3e 57 a5 d3 3a 60 2b 65 bf 77 7b e5 3c
       0.44235918 0.0016147298 -0.8951931 0.028012974
0002a0 b2 20 9e 3e d9 13 5e bf 70 b3 db bf 0f fc 79 3e
       0.3088432 -0.86749035 -1.7164135 0.24412559
0002b0 c4 c5 54 bf 7c 07 06 be 12 b0 0d be 4e 55 ec 3e
       -0.83114266 -0.13088793 -0.13836697 0.46158832
0002c0 22 b7 29 be 38 07 84 bd 2a e5 ea be 52 ce 2f bf
       -0.16573766 -0.06446689 -0.45877963 -0.68674195
0002d0 00 b0 7b bb 76 24 9f be d7 a0 c9 be 4c da 61 3e
       -0.0038404465 -0.31082505 -0.39380524 0.2205593
0002e0 58 a7 4e 3d 32 ee cd be 00 60 15 b9 c0 83 27 bd
       0.05045256 -0.4022079 -0.0001424551 -0.04089713
0002f0 a0 fc b8 3d 3c b9 a7 be 3e 47 c4 bf 64 a6 43 be
       0.090325594 -0.3275851 -1.5334241 -0.19106442
000300 a2 af 07 3e 9e 00 3d bd 26 0d 6d 3e 7a af a6 be
       0.13250592 -0.046143167 0.23149547 -0.32555753
000310 ae d4 ad be 28 5a c0 bd a4 2c 7c 3e 77 f2 dc be
       -0.33951324 -0.09392196 0.24626404 -0.43153736
000320 3c ee 51 be a1 c9 79 c0 1e 87 7a bb 36 36 97 3d
       -0.20501035 -3.9029315 -0.0038227509 0.07383387
000330 b0 54 09 bf 54 48 19 3f 99 0c 09 3f 84 ba a4 3e
       -0.5364485 0.5987599 0.5353485 0.3217355
000340 bb bc 93 be 24 e3 7c 3d bc 07 15 c0 a9 66 61 3e
       -0.28854927 0.061740056 -2.328597 0.22011818
000350 23 1c d7 bc fd 2c e7 3c 17 b2 50 c0 ab 9c ba 3d
       -0.026258534 0.028219694 -3.2608697 0.09111913
000360 be ec 18 3f 0a 71 ad be 40 dd d7 3e 19 a6 28 bf
       0.5973624 -0.33875304 0.42160988 -0.65878445
000370 48 cb 66 3e 88 06 83 3e 3b f3 5e bf 93 21 3f 3e
       0.22538483 0.2559092 -0.8708989 0.18665151
000380 a1 30 25 3e 2a 03 37 be 98 c9 f7 c0 3c 6c e9 3b
       0.16131832 -0.178723 -7.7433586 0.0071234982
000390 66 75 a8 bb 08 fc ae 3b 23 09 e9 3e 53 f6 b8 be
       -0.005140948 0.005340103 0.45514783 -0.3612543
0003a0 9a 16 88 be 53 37 2b bf 1e 00 84 3f 4d b9 44 bf
       -0.26579744 -0.66881293 1.0312536 -0.76845247
0003b0 41 a3 33 bf 03 64 ce be 22 3d b7 3e d8 3f b8 bd
       -0.7017098 -0.40310678 0.35788828 -0.08996552
0003c0 93 7c cf bf 30 49 61 be c2 e5 f8 be de 3b 54 3e
       -1.6209892 -0.22000575 -0.4861279 0.20725963
0003d0 a3 5d aa 3e 9e 5e 83 3d f9 96 70 c0 01 39 15 be
       0.33274564 0.06414531 -3.7592146 -0.14572527
0003e0 82 20 13 bf 59 fa dd 3e 60 ff 67 bf 15 b4 83 bf
       -0.5747148 0.43355063 -0.90624046 -1.0289332
0003f0 4c 5d 3b 3e dc c5 f3 bd 90 c4 03 bf f0 9b 8b 3f
       0.18297309 -0.11902973 -0.51471806 1.0906963

layers.0.bias f4 [75]
000000 9d 5e 00 be fe ba 01 3e f0 85 95 3e c5 ef 68 ba
       -0.12536092 0.12668988 0.2920375 -0.0008885826
000010 1e af d4 3e d0 75 b8 be 0f 2a 69 be 98 be 93 3c
       0.41539854 -0.36027384 -0.2276995 0.018035218
000020 2d 3b cd be c9 60 68 be ee b8 6a 3e 88 ea 76 3e
       -0.4008421 -0.2269317 0.22922108 0.24112904
000030 e3 05 0f be 5a 9b 67 3e fc c5 b9 be 07 42 d1 3d
       -0.1396709 0.22617856 -0.36283863 0.10217672
000040 bd ef 20 3e ab 62 a4 bd 1b 85 80 be 78 9c c2 3e
       0.15716453 -0.08026632 -0.2510155 0.3801
000050 60 11 84 bd 41 b4 97 3e 9a d3 90 be 77 06 90 3e
       -0.064486265 0.2962971 -0.2828644 0.28129932
000060 cf 48 9d bd 0e 40 bf be 62 a1 95 3e 7a 8c c4 3e
       -0.07679903 -0.37353557 0.29224688 0.38388425
000070 2c 97 b6 3e 63 b5 03 bf 7d 86 d4 be 4c 6c e1 be
       0.3566221 -0.5144865 -0.41508856 -0.44027936
000080 e7 e1 a6 be e1 8e 16 3e 99 72 aa 3e 69 c6 d0 3e
       -0.32594225 0.14702941 0.33290556 0.40776375
000090 94 5f d1 be 79 0c 99 be 6b 16 8c 3d 30 fa a9 be
       -0.40893233 -0.29892328 0.068402134 -0.3319869
0000a0 da 7f 6e 3e 8d 29 67 be 5b e2 52 3e 6b 5f 63 bd
       0.23290959 -0.22574444 0.2059416 -0.05551092
0000b0 ee 4b 0a bd f9 4f f5 3d fe ff d4 3d 74 55 99 3e
       -0.03376382 0.11978144 0.10400389 0.29948008
0000c0 ba 79 a9 3d 6e ce 51 3e ee 72 77 3e e8 63 92 3d
       0.082751706 0.20488903 0.24164936 0.07147962
0000d0 46 0a 31 3c a6 9f 34 be 8c 57 4a 3e 2e 8e 54 bc
       0.010805672 -0.17639026 0.19759959 -0.012973351
0000e0 01 37 88 3e 8f 2d 54 be 1f 06 dd be 6d db a4 3d
       0.26604465 -0.20720504 -0.43168733 0.08049665
0000f0 98 54 40 3e a6 5d 09 3e 14 04 85 be ce 97 d2 be
       0.1878227 0.1341463 -0.25979674 -0.41131443
000100 9c d0 53 3d f8 dc cd be df 0b b0 be c0 87 13 bf
       0.051712617 -0.40207648 -0.34384057 -0.57629013
000110 02 f2 83 be bf 79 27 3d b8 a8 a7 be 7e e1 56 3d
       -0.25770575 0.04088759 -0.3274591 0.05246114
000120 b7 13 1c be 9c 75 05 bf 07 50 1d 3d
       -0.15241896 -0.5213258 0.0384064

layers.2.weight f4 [75, 75]
000000 d5 d9 21 bf e4 4a c3 bd c0 f9 d8 bd 43 b1 ee 3e
       -0.6322301 -0.09535769 -0.10594511 0.46619615
000010 42 68 bf 3d de 37 bf bd 28 73 26 3d 77 d0 fd bc
       0.093460575 -0.09336828 0.040637165 -0.030983193
000020 0f 1e d4 bd 4a 88 0e bd bc 6a 8e 3e 2b 6b a3 3e
       -0.10357296 -0.034797944 0.27815807 0.319177
000030 14 f1 17 3e 47 54 39 be 1e 04 aa 3d 8d b2 f1 3d
       0.14838058 -0.18098556 0.083015665 0.11801634
000040 1c fa a6 be 0b 13 7e bf ed e3 33 3f c6 7c a0 be
       -0.32612693 -0.9924781 0.7026966 -0.31345195
000050 65 d0 cc bd ec 84 14 3e d0 43 ec bd e7 94 64 be
       -0.100006856 0.1450383 -0.11536372 -0.22322427
000060 5b 9c c4 3c c0 41 00 bd f0 bb b1 3e 0d 83 6f bd
       0.024000337 -0.031312704 0.34713697 -0.05847459
000070 78 a5 a5 3e 72 5b d6 be 29 64 4b 3d f0 e2 e3 bc
       0.32352805 -0.41866642 0.049656067 -0.027818173
000080 ef 79 3d 3e cc 03 bb bd 25 49 6d 3d fe c6 22 bf
       0.18503545 -0.091315836 0.057931084 -0.6358489
000090 96 6b b0 3d 0a a9 40 bd 98 01 10 be 88 8e aa bd
       0.086142704 -0.04703621 -0.14063108 -0.08327967
0000a0 1e f7 05 be d3 f6 0f be 24 b5 69 3e 4b 2a 3a bf
       -0.13082549 -0.14059 0.22823006 -0.72720784
0000b0 28 18 bc be 2a 25 28 3d f2 4f 11 3e 53 85 51 3e
       -0.3673718 0.041051067 0.14190653 0.20461015
0000c0 a5 71 93 3e 8e b2 98 3e d8 5e 92 bd 73 87 37 bd
       0.2879764 0.29823726 -0.07146996 -0.04480691
0000d0 45 cc 31 bf fc 72 22 3d e3 31 c5 bc 08 1a e1 3e
       -0.69452316 0.03966044 -0.02407164 0.43965173
0000e0 fe 62 b3 3e bb 48 f6 3d 3a cb cf bd 13 19 f6 3f
       0.35036463 0.12025591 -0.10146184 1.9226402
0000f0 d6 2d 9c bd 66 89 2a bf 40 7c aa 3d 2f ba 86 be
       -0.0762593 -0.66615903 0.0832448 -0.26313922
000100 57 d9 5b 3e 2f bf 6d bd b0 25 36 bf e5 88 1a bd
       0.21469627 -0.058043655 -0.71151257 -0.03772821
000110 d7 77 95 3f 91 8e 14 bd fe da 54 3f 8f 05 41 3d
       1.1677197 -0.036268774 0.83146656 0.04712444
000120 bc 54 73 3d 37 41 91 3e fa ad bf be 92 01 8f bd
       0.05940698 0.28370067 -0.3743742 -0.069827214
000130 02 33 26 3e 15 22 dd be 39 a2 78 3e e9 e8 67 bf
       0.16230395 -0.43190065 0.24280633 -0.9058977
000140 f8 0f f8 bc 8a 26 33 bd 58 7d 99 be 39 d0 d1 bd
       -0.030281052 -0.043737926 -0.29978442 -0.102447934
000150 68 b4 64 bc d3 95 85 be ac b6 27 3d c2 12 72 3e
       -0.013959028 -0.2609087 0.040945694 0.23639968
000160 0a f2 b7 be 5e 52 a0 bd 8f a3 35 be 06 12 67 3d
       -0.3592685 -0.0782821 -0.17738174 0.056413673
000170 97 b2 ce 3b 86 6a e8 be 00 9e 27 3e 06 c6 99 3d
       0.0063079107 -0.4539377 0.16368866 0.07508473
000180 90 52 c4 3e 78 12 7f 3d 5f 31 70 bf 0c 25 14 3f
       0.3834424 0.062273473 -0.93825334 0.5786903
000190 78 b0 11 3d 1c 5c 20 be 4d da be bd 1c 06 0d bf
       0.035568684 -0.15660137 -0.09318981 -0.5508745
0001a0 70 12 34 3d aa 07 db be 61 52 6b 3d 0b 35 99 3d
       0.043962896 -0.42779285 0.05745161 0.0748082
0001b0 4a 8d 16 3e 22 55 32 bf 89 40 62 3d 92 86 d2 bd
       0.14702335 -0.6966115 0.055237327 -0.102795735
0001c0 52 28 1e bd 16 f7 e1 3e 90 ac 50 bd c7 56 99 bf
       -0.03861267 0.44133824 -0.05094582 -1.1979607
0001d0 96 a0 ef 3e 8e f5 bc 3e 43 b6 41 bf 8b 17 04 3e
       0.46802205 0.36906093 -0.75668734 0.12899606
0001e0 3d d0 71 bf f9 24 eb 3e 84 25 c9 be c9 3a 3c 3f
       -0.9445837 0.45926645 -0.39286435 0.735272
0001f0 5c b5 87 3e 2d 24 19 bf 64 ec e2 bd aa 6a 27 bd
       0.26505554 -0.59820825 -0.11080244 -0.040873207
000200 68 e4 0b 3d de bc 5f bf 29 ab b1 3e 22 59 83 3e
       0.034153372 -0.87397563 0.34700897 0.2565394
000210 76 d6 d6 be a0 c5 1b bc 96 c5 5c bf 5e 9f 0e be
       -0.41960496 -0.009507567 -0.8623899 -0.13927981
000220 6d b6 f3 bf bc 9c 34 bd 83 92 81 3e 6a 56 5c bf
       -1.9040047 -0.044094786 0.25307092 -0.8606936
000230 03 c1 e7 bd 54 17 b6 be 6f 15 ad 3e 74 78 ae be
       -0.11316111 -0.35564673 0.33805415 -0.34076273
000240 3b 2b 46 be 3d b6 e7 3d 9e d6 56 be b7 53 3b 3f
       -0.19352429 0.11314056 -0.20980307 0.73174614
000250 0d 82 71 be a5 fd e6 bd b1 03 b5 3e cc 26 1f 3e
       -0.23584767 -0.112788476 0.3535438 0.15542144
000260 d3 19 34 be 9b 1f 07 3e e1 78 13 3f fa 55 de 3d
       -0.17587976 0.1319565 0.5760632 0.108562425
000270 00 a6 fc 3c c7 cd 8a be 27 15 89 bd 30 35 f9 3c
       0.030840874 -0.2711012 -0.066934876 0.03042087
000280 0f e5 73 be cc 83 69 bd 5d 9e e2 3b c8 61 94 bf
       -0.23817848 -0.057010457 0.006915851 -1.159234
000290 30 f8 eb 3d 75 1d 68 3e ea 05 2c 3d b8 e0 89 bf
       0.115219474 0.22667487 0.041997828 -1.0771704
0002a0 f9 4d 15 bf 5b 71 5a be f8 9e df bc ae d7 43 3f
       -0.583221 -0.21332304 -0.027297482 0.76500976
0002b0 6a 86 26 bd 21 de 51 bc 3c ea f6 bc 20 2a 9e bb
       -0.04065553 -0.012809307 -0.030140989 -0.004826799
0002c0 65 e9 8c 3d 41 df 4c 3d 6d 2f bf 3d 69 88 fe 3e
       0.06880454 0.0500176 0.093352176 0.49713448
0002d0 88 2b 90 3e ae f6 9a 3d 29 b2 cc 3e e2 6b 66 3e
       0.28158212 0.07566582 0.39979675 0.22502092
0002e0 df aa 0b bf 06 68 ac 3e 38 88 18 3c 00 e0 17 ba
       -0.54557604 0.33673114 0.009309821 -0.00057935715
0002f0 6a 05 a6 bd c4 0b 13 3d 4a 59 d5 be 8f 47 9c bf
       -0.081065014 0.035899892 -0.41669685 -1.2209338
000300 6b 26 58 3f 5b a6 86 3e 34 62 2c bd 0e c1 61 bf
       0.8443362 0.26298794 -0.04208584 -0.88185203
000310 e7 62 15 3e 6e 64 19 3c fb cb 9c 3e c0 4c f4 3d
       0.1458851 0.009362323 0.30624375 0.119287014
000320 1a 8e 0e 3f a8 80 a6 be ad c5 73 bb e0 b5 e5 bd
       0.5568558 -0.32520032 -0.0037196681 -0.112163305
000330 5d 16 bc be 18 2f 13 3e d1 1a c7 bb 00 10 09 bd
       -0.36735812 0.14373434 -0.006076195 -0.033462524
000340 c0 23 0b bb 37 c4 15 3f 79 bd 01 3d 72 28 94 3f
       -0.0021231025 0.58502525 0.031674836 1.1574843
000350 92 88 8e bd 29 a5 fe 3d 17 0d 1b bc b0 12 04 3d
       -0.069596425 0.124338455 -0.00946357 0.032244384
000360 9c 40 f8 bd 6d 37 08 3f ad a1 42 3d 39 6d 37 bd
       -0.12121698 0.53209573 0.047517467 -0.044781897
000370 bb 06 34 bd 40 e0 82 3e 41 a6 e3 3e f7 f5 5e be
       -0.04395173 0.25561714 0.4446278 -0.21773516
000380 a2 a6 1b bf bf 9b 97 be 68 0d ab bd 01 53 5c 3e
       -0.60801136 -0.29611012 -0.083521664 0.21516038
000390 b9 2a 38 be fb a6 d5 be e0 dc c4 3d 28 b7 89 bd
       -0.17985047 -0.41728958 0.09612441 -0.067243874
0003a0 80 64 d5 3c 52 94 c1 bd db ae b7 bd 81 63 9f bc
       0.026048899 -0.09452118 -0.08968898 -0.019456627
0003b0 5d 14 3d bd eb 5f 52 bd c6 7d 21 bf 90 2e 7b bc
       -0.046161998 -0.051361006 -0.6308254 -0.015330926
0003c0 c5 4e c5 3e c4 24 d3 be 74 64 21 3e 14 32 97 bf
       0.3853666 -0.41238987 0.15760976 -1.1812158
0003d0 0d 52 f0 bd b4 de 22 3d fe 25 d1 3d 26 07 14 bd
       -0.117344 0.039763168 0.102123246 -0.03613963
0003e0 63 35 52 be c2 42 e7 bf 3b ca c3 bd 60 51 94 be
       -0.20528178 -1.8067248 -0.09560057 -0.28968334
0003f0 de 6d 6f bf fa b6 f8 bf f8 00 08 c0 5b f4 40 3d
       -0.9352702 -1.943084 -2.1250591 0.047108036

layers.2.bias f4 [75]
000000 3a 55 3d be ac 31 ee 3d a3 4f 32 be f6 ab 05 3d
       -0.18489543 0.11630568 -0.17413191 0.032634698
000010 f0 9d d5 be 60 65 e9 bc a6 f6 5c be 15 8c ec be
       -0.4172206 -0.028490722 -0.21578464 -0.46200624
000020 15 da 0e 3d 33 a4 e9 bd 8f 97 80 be 60 b4 21 be
       0.034875948 -0.11408272 -0.2511563 -0.15791464
000030 48 6a c8 bd 44 24 34 3c e9 10 df 3c 16 20 12 be
       -0.097858965 0.0109949745 0.027229743 -0.14270052
000040 69 f3 9c bd bb fa 24 bf 6b e1 65 3e 91 e7 9d bc
       -0.07663614 -0.64445084 0.22449271 -0.019275459
000050 67 94 3a 3e 6e 6f 17 be d6 e3 04 3e 87 a2 c8 3b
       0.18220674 -0.14788601 0.12977538 0.0061228904
000060 dd 2c b8 bc fd dd 4c 3d 4e fc 64 be 0a f4 48 be
       -0.02248233 0.050016392 -0.22361872 -0.19624344
000070 48 7f ed bd 2a 24 24 be 25 a8 8b be 4c ab 4c be
       -0.115965426 -0.1602942 -0.27276722 -0.1998722
000080 98 58 f1 bd 91 7d 66 bd 0a b7 a1 3c 34 9b da 3d
       -0.11784476 -0.056272093 0.0197406 0.10674134
000090 3d 15 b2 be b5 46 91 bd 97 c9 ee 3c 92 4f 68 be
       -0.3478183 -0.070935644 0.02914886 -0.22686604
0000a0 ae bb bf be 04 76 23 3e 34 98 18 3c ba 93 af be
       -0.37447876 0.15962988 0.009313632 -0.34292394
0000b0 3e 00 e0 bd ec 95 2a 3e 71 8c 6e bd 2f b0 52 bd
       -0.10937546 0.16658753 -0.058239404 -0.051437553
0000c0 7e 6e 48 bd 09 df 3f 3e 24 b7 9d be 2d 21 fd bc
       -0.0489335 0.18737425 -0.30803788 -0.030899609
0000d0 17 fd d0 bd 13 4c 5c be 50 8e 94 be d6 6f 64 3e
       -0.10204523 -0.21513395 -0.29014826 0.22308287
0000e0 4f 18 a9 be 7e a2 3a bd 55 a7 ac 3d aa b7 54 3c
       -0.33026358 -0.04556512 0.084303536 0.012983242
0000f0 09 45 f4 bd a3 b0 14 bd f7 14 3e bb cd 06 3b bc
       -0.1192723 -0.036301266 -0.0029004195 -0.011415196
000100 2c 1f 77 be fc 22 93 bd d8 ff c6 be b2 c8 5f be
       -0.24132985 -0.07184407 -0.38867068 -0.21853903
000110 d0 52 1d 3d 26 31 90 3d d4 4a 9d 3d fd ad 25 be
       0.038409054 0.07040624 0.07680288 -0.16179653
000120 4b c8 13 bd a0 e8 3f bd be 92 b7 be
       -0.036079686 -0.046852708 -0.35854143

layers.4.weight f4 [3, 75]
000000 21 95 96 3d 75 c6 96 bd 48 0e 15 3e 85 f0 c2 3d
       0.07352663 -0.073620714 0.14556229 0.09518532
000010 aa ab 3a be ae ad 95 3d fc 8c 2a bc 83 a4 a1 3d
       -0.18229547 0.073085174 -0.01040959 0.07892706
000020 98 ea 75 3c 82 a0 86 3d 68 ed e7 bb 77 78 e7 3d
       0.015009545 0.06573583 -0.0070778616 0.11302274
000030 5f c0 c0 bd 4a ff d0 3c a4 91 4c 3d 7a af 93 bd
       -0.09411692 0.025512356 0.04994358 -0.07211204
000040 86 99 91 3c 21 58 a9 3c 53 3d fb 3d a0 85 64 3d
       0.017773401 0.020671906 0.12267556 0.055791497
000050 1f 08 56 be cf d6 7a 3e 4c dd 09 3e c1 4d 86 bd
       -0.20901535 0.24496005 0.13463324 -0.06557799
000060 2d 2c 3f be 33 d4 5b bd c2 fb a7 bd 5a ca bf bd
       -0.18669195 -0.053669166 -0.08202316 -0.093647674
000070 c3 a1 3f 3c 92 6a 6a bc f5 d2 e3 3d 9e 33 67 bd
       0.011696282 -0.014307635 0.11124221 -0.05644571
000080 7e 55 a7 3b 16 09 3d 3d 4c f3 80 3d c3 35 cc bc
       0.005106627 0.046151243 0.06296405 -0.02492798
000090 dc 15 1a 3e 81 cd 55 bd ab 60 c3 3d c9 6a 32 3e
       0.15047401 -0.052197937 0.09539922 0.17423548
0000a0 92 1a 01 be da 05 5e 3e 6c 97 1c 3e 15 f4 a1 bc
       -0.12607792 0.2168192 0.15292138 -0.019769708
0000b0 40 92 d4 3c a3 db a0 3d 22 bd e0 bd 5d 2d a8 3c
       0.025948644 0.078543924 -0.10973574 0.020529443
0000c0 09 78 64 bd 84 0a 77 3d 3e 2f 9e bd 01 20 8a 3d
       -0.055778537 0.060312763 -0.077238545 0.067443855
0000d0 8e 76 4d 3e 47 3b 81 bd e4 0b 65 3d d5 05 b0 3e
       0.20064756 -0.063101344 0.055919543 0.3437945
0000e0 59 c9 48 3e 2d 8a 3c 3d 35 f8 9d 3d e5 f4 07 be
       0.19608058 0.046030212 0.07713357 -0.13277014
0000f0 e0 d2 8b bd 7f ba 5f bd 6b 0f 6a 3d ef 76 1f be
       -0.068273306 -0.054621216 0.05714361 -0.15572713
000100 6a 76 47 3e 42 ee 21 3d 65 35 fc 3d 35 8c 25 bb
       0.19478765 0.03953386 0.12314872 -0.0025260572
000110 dd 68 6a bc ac dd 90 3d 63 ac a0 bc 5b ac 29 3e
       -0.014307228 0.070735306 -0.01961345 0.16569655
000120 3f 1c c9 bd 70 86 c8 3d 05 5a 0f 3e 78 ff d4 3d
       -0.09819841 0.09791267 0.13999183 0.10400289
000130 a8 05 67 3d 15 37 9d 3d fb ae 3a 3d 5a 44 8c bd
       0.05640188 0.07676522 0.04557703 -0.068489745
000140 1a 1e 8f 3d b3 45 7c bd 98 87 d0 3d 2d 86 8a 3d
       0.06988163 -0.061589908 0.101821125 0.06763873
000150 e1 82 98 3b b4 97 e6 3b cd ba 9e bd 82 cf e8 bd
       0.004654274 0.0070371274 -0.07750473 -0.11367704
000160 59 04 be bc b1 c3 db 3d 20 0a e3 bc 9b 73 2f 3e
       -0.023195432 0.107306845 -0.027714789 0.17133944
000170 3a 65 6d 3e b6 52 59 3e ef 65 60 3d c0 24 7c be
       0.23183146 0.21222958 0.05478471 -0.24623394
000180 f3 af c1 3d d8 45 74 3e 12 95 e5 3d 61 2c d5 bd
       0.09457388 0.23854768 0.112100735 -0.10408855
000190 27 f5 b6 3a 14 5a fd 3c 67 cf d6 3d 21 a1 7a bb
       0.0013958559 0.030926742 0.104887776 -0.0038243013
0001a0 f7 e6 96 3d 4c c3 00 3e 32 ae ba bd 0e f3 aa 3e
       0.07368272 0.125745 -0.09115256 0.3338856
0001b0 4e 67 b2 3d 0e 3f 02 bc f9 2b 91 3d 62 c6 5b be
       0.0871111 -0.007949604 0.07088465 -0.21462396
0001c0 4f 35 94 bd f4 7e 39 3c 5d be 85 3d e1 38 d4 bd
       -0.0723673 0.011321772 0.065304495 -0.10362411
0001d0 3a 25 34 3d e6 92 52 3c 4f 19 10 be b4 fe c1 bc
       0.043980815 0.012852406 -0.14072154 -0.023681022
0001e0 41 d7 28 3e 65 ba 02 be 08 65 9f bd a4 79 03 bd
       0.16488363 -0.12766416 -0.07782942 -0.032098427
0001f0 c4 0e 42 3e 8c b0 0a be 23 5e 52 3e ef f7 db 3c
       0.18950945 -0.1354391 0.20543723 0.026851622
000200 22 61 97 bd ff 59 eb bd 83 cb 1a 3e e3 6a 1c 3e
       -0.073915735 -0.11491775 0.15116696 0.15275149
000210 8a 98 6e 3d 90 e2 73 3d 72 88 ec bd ad 79 b4 3d
       0.05825094 0.05954224 -0.115494624 0.0881227
000220 fd 0d 09 bd e8 a5 a6 3d 0c e4 12 be c4 39 e9 3d
       -0.033460606 0.08137113 -0.14344805 0.11387971
000230 11 1e a1 3d d4 1c 2b 3e e3 48 6e 3d ea 31 9e 3d
       0.07867063 0.16710216 0.05817498 0.07724364
000240 0d d8 41 bd b9 c2 50 3d f9 15 06 3e 90 5e 3a be
       -0.047325183 0.050966952 0.1309432 -0.18200135
000250 c9 d5 b5 3d ee a1 20 3e 0e 55 e8 3d fb 08 cb 3c
       0.08878667 0.15686771 0.11344348 0.024784556
000260 1d 55 5d 3d 89 a2 43 3e 94 55 dc bc fd 83 de 3d
       0.05403625 0.19104971 -0.026896276 0.108650185
000270 e3 1b fc bc 45 41 43 3e 36 92 8f 3c 9f b2 a4 3d
       -0.030775016 0.19067867 0.017525773 0.08041882
000280 0b 0a 9b bd cb f0 32 bd 62 4f 84 bd b9 ba cd 3c
       -0.07570275 -0.04368667 -0.064604536 0.02511345
000290 af fe a2 bc 89 6d 3a 3d 40 2b a8 bb 7b e4 b8 3e
       -0.019896833 0.045514617 -0.005132109 0.36111817
0002a0 8d 57 49 3e 1d 5f d9 3c 29 db 10 bc bd 48 52 3c
       0.19662304 0.026534611 -0.008841314 0.012834725
0002b0 89 55 91 3e b3 d9 af bd 32 df 24 bd c2 36 43 bc
       0.2838557 -0.08586445 -0.040251918 -0.011914911
0002c0 47 f3 11 3d ca 3e c6 3c cd 38 ad 3d 9d dc 47 3d
       0.035632398 0.024199862 0.084580995 0.048794378
0002d0 fd 0c 18 3e 6b b5 b0 bd 5d a9 89 3e 5c 2a d6 3d
       0.14848705 -0.08628353 0.26887026 0.10457298
0002e0 03 68 1d 3e cc 3d 34 bc b2 9a 88 3d 47 74 31 bb
       0.15371709 -0.011001062 0.06670131 -0.0027077363
0002f0 09 d3 e3 3c f7 a3 94 3c da 1a 70 bd fd f4 92 3d
       0.02781059 0.01814459 -0.058619358 0.07175634
000300 71 11 04 bc dc 81 dd bd db 77 02 bc fd df a7 bd
       -0.008060799 -0.10815784 -0.007963146 -0.08197019
000310 29 38 22 be 6b 33 81 3d c4 f8 d5 bc 51 ed 81 3c
       -0.15841736 0.06308635 -0.026119597 0.015860232
000320 05 64 f8 3d 75 9d d8 3d 89 82 b6 3d d8 3f 69 be
       0.12128452 0.105769075 0.08911616 -0.2277826
000330 92 d2 88 bc a4 ff 68 3d 70 0b 4d 3e 55 6c fc bd
       -0.01670197 0.056884423 0.20023894 -0.1232535
000340 19 9b 76 bc e4 2b 93 bd 07 d7 cd bd 4a 8f e0 bd
       -0.015051627 -0.07186106 -0.10050779 -0.1096483
000350 4e 13 17 3e 07 ae f1 3c f7 4d 49 be 9d 89 d5 bc
       0.14753458 0.029501928 -0.19658647 -0.026066596
000360 e4 90 59 3d 31 ec ae bd 81 2b 9c 3c 43 49 08 3d
       0.053116694 -0.08541144 0.019063713 0.033272993
000370 76 a0 0d bd b0 a0 b3 3d 3b b7 24 be 2d 4e 2f 3e
       -0.034576856 0.08770883 -0.16085522 0.17119665
000380 a6 86 43 3d
       0.047735833

layers.4.bias f4 [3]
000000 44 c7 a4 3e 90 b8 3b 3e 39 b3 3d 3e
       0.32183278 0.18332124 0.185254
