pt_inference/encoder_rgb_best_316.pth (torch, 28234 bytes, 6 tensors)

layers.0.weight f4 [75, 3]
00000000: 5ec8 86be cd1b 14bf 5705 3cbe 8ce0 26be
00000010: c07f 04bf e422 853e 24a0 d6be 00a8 8e39
00000020: f888 ae3e 9a44 abbc e67a 0a3d 611f 49bf
00000030: f68c d63d 3f84 82be 6e3d 19bf 2e90 bcbe
00000040: fc6a 423e 9563 2f3e d79f 00be f7bf c53e
00000050: 92c2 613d 839d febd 883c c33d 9528 06c0
00000060: c5b0 81be 876e 8abe 67ed 8b3e b49f 443e
00000070: 901f b1be e6b0 133f 58fd cebe 90e6 2b3e
00000080: ec8f e6bd 5862 1ebe 282f 85bf 12e1 363f
00000090: 5496 8dbe c285 0f3f bc14 163e 6fca 2ebf
000000a0: ded8 d53e abaf 293e e453 253e 6f9d a93c
000000b0: ad0f 8fbf 82de c8bd 8eed 7e3f 9671 c8bf
000000c0: 9028 2dbd d843 ab3d 003a 3fbb a0f0 f13d
000000d0: 7c5a 113f 7a02 b8be e76a 273e d8ac 17be
000000e0: 3b87 d9be 2aa4 683e 5732 95be 7019 e6bc
000000f0: 0c21 10be 12af a4be db08 0ebf c9d5 d83e
00000100: 31d5 81bf efe3 2c3f c582 a33d f0fd a73e
00000110: 3905 003d fdab a93d 05f0 9cbe eec7 b6bf
00000120: 377e f0be 30c5 463e 6ea5 8a3e 70d7 72bd
00000130: 60b5 b53e ba56 65be a13a da3e 83d5 d93e
00000140: b0fe b7bf 5caa de3e e2c2 19be 7295 89be
00000150: 0577 303d 2b38 723e 8c65 7d3e 6992 19bf
00000160: 1648 8c3e 09ad dcbd 3ab6 2d3e 84ef a1bf
00000170: 05bc e33e 94a4 4a3f 4c35 2abf 2476 c0be
00000180: 3f7b 513d 7cd1 c2be b3a6 33bf f003 2e3f
00000190: 1991 3a3e d98f 85bf 9261 30bf 904e 2e3d
000001a0: bc7c 233f 533f 613f 1e71 94be 9561 9cbe
000001b0: d30e 82be 07e7 d1be 361d 1cc0 60d9 20be
000001c0: a053 3f3d dadf b3be 5265 5cbc ee8c 00bf
000001d0: 338c 98be 2ccd d53e 6689 7bbf 34ea 833e
000001e0: 3011 113f 7127 c73d 1488 c23e 5274 aa3e
000001f0: 4b0a 8dbf 99fe a4bc 8b71 02bf 25d8 02bf
00000200: e432 333f 2a1d 0fbf 7c54 603e 9f11 11bf
00000210: 08b3 863d 6a00 3bbf c966 1e3f 3456 39be
00000220: 7c4c 37bf d902 f0be 27cd 71be 26cf 92be
00000230: d386 4e3e 85a1 8a3e d5eb 0dbf ba4b 71be
00000240: e03b 3c3d e896 8f3e af97 b6be 7808 fe3d
00000250: 9ac1 c8be 2064 0e3e f813 30be 54fb 0ebf
00000260: 6bc3 00c0 cefb 10bf 8a63 14be b0c2 e13e
00000270: 6fbf c43e b867 153f 5145 a83d 24a3 2fbe
00000280: ff6e 22bf ef9b 233f 8144 04bf 4afe ca3e
00000290: 0002 4dbd b479 1c3f e37e b6be b731 29bf
000002a0: fa55 9cbe 811d b0be c298 34bf 834d 2ebc
000002b0: ee09 ae3e e88f ee3e d110 f0be 9b1c 07bf
000002c0: 57cb d33e 0eb6 84be 0f1b bebe 7713 573f
000002d0: 072f b1bd 0648 b4bd 9703 68be 8079 eabb
000002e0: 40f2 103c 3fb2 e1be ba07 ad3e 39ac 99be
000002f0: 5ae0 d2bd aeed a33d a806 63bf aa1e 3f3f
00000300: 2be3 21bf b0c2 603f 4f88 97be dc5b 4b3f
00000310: c5cd df3e 5392 e2bd 577f e3be 5756 f03e
00000320: d386 10bf 7127 e4be 2e30 a93e 775e 3cbe
00000330: b417 63bf 78bc f33d b002 223f 60ac 7fbf
00000340: 626d dd3e a2b8 013f a5ee 98be 804f 1fbd
00000350: c41a 52be 6b6d fdbe e69f bfbe 0051 3dbd
00000360: 333c 733d 69fc 1a3e 3d6c e7bb 644c a4be
00000370: 102f 773d 2407 1c3e 7016 3fbf 5e89 e4be
00000380: 32ad ab3e
-0.26324743 -0.5785492 -0.18361412 -0.16296595 -0.5175743 0.26003182 -0.41919053 0.0002720952
0.34088874 -0.020906735 0.03380861 -0.78563505 0.10476105 -0.2549152 -0.5985936 -0.3682875
0.18986124 0.17127831 -0.12560974 0.3862302 0.055117197 -0.12432387 0.0953303 -2.096227
-0.25330177 -0.2703745 0.2732956 0.19201547 -0.34594393 0.576918 -0.4042766 0.16787171
-0.1125792 -0.15467203 -1.0405016 0.7143718 -0.27653754 0.56063473 0.14656347 -0.6827764
0.4176702 0.16570918 0.16145283 0.020704953 -1.1176659 -0.09808065 0.9958123 -1.5659664
-0.04227501 0.083625495 -0.0029178858 0.11813474 0.56778693 -0.3593939 0.16349374 -0.14812028
-0.42485985 0.22718874 -0.2913997 -0.028088301 -0.14075106 -0.32164818 -0.5548226 0.42350605
-1.0143186 0.675353 0.07983927 0.32810926 0.03125498 0.08284757 -0.3065187 -1.4279764
-0.46971294 0.19411159 0.27079338 -0.05928749 0.3548994 -0.22396365 0.42622855 0.4254571
-1.43746 0.4348935 -0.15015748 -0.2687183 0.043082256 0.23654239 0.24745768 -0.5998903
0.27398747 -0.10775191 0.16964045 -1.2651219 0.44479385 0.79157376 -0.66487575 -0.37590134
0.051142927 -0.3805045 -0.7017624 0.6797476 0.18219413 -1.0434524 -0.6889888 0.04255539
0.63862205 0.8798725 -0.28992552 -0.305432 -0.25401935 -0.40996572 -2.439283 -0.15707922
0.04671061 -0.35131723 -0.013451891 -0.5021504 -0.29794464 0.41758096 -0.9825653 0.2576462
0.5666685 0.0972432 0.37994444 0.3329187 -1.1018766 -0.020140933 -0.509545 -0.5111106
0.6999953 -0.55903876 0.21907228 -0.5666751 0.06577116 -0.73047507 0.6187559 -0.1809929
-0.7160108 -0.46877173 -0.23613416 -0.28673667 0.20168619 0.27076355 -0.55437976 -0.23564044
0.04595554 0.2804482 -0.356626 0.12403959 -0.39210206 0.13905382 -0.17195117 -0.55852246
-2.0119274 -0.56634223 -0.14491096 0.44093847 0.38427302 0.5836139 0.08216346 -0.17152077
-0.63450617 0.6390981 -0.5166703 0.39647132 -0.050050735 0.61123204 -0.35643682 -0.66091484
-0.30534345 -0.3439751 -0.7054559 -0.010638597 0.3399195 0.46594167 -0.4688783 -0.52778023
0.41366073 -0.25920147 -0.3713002 0.84014076 -0.08651548 -0.088028 -0.2265762 -0.007155597
0.008846819 -0.44081303 0.33794957 -0.30014208 -0.10296698 0.08004318 -0.8868203 0.74656165
-0.63237256 0.8779707 -0.29596183 0.7943704 0.43711677 -0.110630654 -0.4443309 0.46940872
-0.56455725 -0.4456134 0.3304457 -0.1839541 -0.88708043 0.11901182 0.6328535 -0.998724
0.43247515 0.5067235 -0.2986957 -0.038894176 -0.20518023 -0.49497542 -0.3742668 -0.046219826
0.059383582 0.1513535 -0.0070624636 -0.3208953 0.060347617 0.15237099 -0.7464361 -0.44636053
0.33530575

layers.0.bias f4 [75]
00000000: fb93 2e3f 32a3 33be 00d8 c0ba 95d7 17bc
00000010: ba4c c9bb 918a 3abc 60d4 93be 360d f93e
00000020: 39e4 b73d 6e67 04bf 9293 03be 8146 953e
00000030: 1c5c c7be ebcd 963e b82b 31be fc2e 8d3e
00000040: fc44 e7be 0298 e4be 1c91 69bd b6d1 c1bd
00000050: 7684 f9be b7a9 4cbd 15e7 433d 0f37 e33e
00000060: e0e6 53be fb68 febe 910f c93d b2b8 8cbe
00000070: 3187 46be be5b ef3e 000c 1dbd fcce 013e
00000080: 9b1e e13e e96a 6bbc 16b8 113e c96b 27be
00000090: 2a34 de3e 00cd 98bb 8ed3 ae3e 9951 0b3e
000000a0: d69c 3cbf a288 fd3d 4683 a03e e059 0cbf
000000b0: 3b9e e0bd 4a81 843b 8824 113d 207e 463e
000000c0: 6ebc 30be 10d9 d8bd 4750 e93e 7296 23be
000000d0: f602 f0be cd30 c83e 1c6f e5bd 6bdf 5338
000000e0: f508 163f 4429 acbe 0588 813d d01e 613d
000000f0: d125 bb3c f6f5 03bf aa4d 71be d1c8 1e3e
00000100: 4fd1 5e3e 0c37 8fbe d8d5 a13e 52d0 023d
00000110: 753e c43e 533d b33e 4ad6 01bf 7019 1cbd
00000120: 7617 49be 3e65 0abe 881f 893e
0.6819455 -0.17542723 -0.001471281 -0.009267707 -0.0061431797 -0.011385576 -0.28872967 0.48642892
0.08979077 -0.5172032 -0.12849262 0.29155353 -0.3893746 0.29453978 -0.17301834 0.2757491
-0.45169818 -0.44647223 -0.057023153 -0.09463827 -0.48733872 -0.04996654 0.0478278 0.44377944
-0.2069354 -0.4968947 0.09817422 -0.2748466 -0.19387509 0.4674968 -0.038341522 0.12676615
0.43968663 -0.014368751 0.1423038 -0.1634971 0.43399173 -0.00466311 0.34145778 0.13605346
-0.7367681 0.12379576 0.31350154 -0.5482464 -0.1096768 0.004043733 0.03543523 0.1938405
-0.1725938 -0.105882764 0.4556906 -0.15975359 -0.4687726 0.39099732 -0.11202833 5.0514394e-05
0.5860742 -0.33625233 0.06324772 0.054961026 0.02284518 -0.5154718 -0.23564783 0.15506293
0.21759532 -0.27971685 0.31608462 0.03193695 0.383289 0.35007724 -0.50717604 -0.038110197
-0.19637856 -0.13515183 0.2678187

layers.2.weight f4 [75, 75]
00000000: 4de1 613e ae88 973d 867c 27bd e9aa e8bc
00000010: 2657 993d 70f0 cebd 1f2a 01bb 4a3d 693f
00000020: 4eae 8d3d 9f24 78bd 9017 e8bd dc95 afbe
00000030: 9088 5b3d a612 e63c 9ae9 89bd 5e64 5d3e
00000040: f045 febb f47a 703d 8178 a2bd c501 ff3c
00000050: a8ab 033c efd2 80be 958a 84bc 5a32 4c3f
00000060: 844f 223d 088d 1e3d aaba f33d c1e0 2abd
00000070: bd21 25be 57e8 593d f998 abbe 0b36 2f3e
00000080: f936 b23e a900 2d3e 7b94 86be 5744 dcbc
00000090: 3722 d23f 583a 763d 877e b23d 2dd8 3cbd
000000a0: 1559 fdbe 6f0b 31be 967b 1fbc cfa0 ccbd
000000b0: 8f0a bebe dff8 953d fb78 493d b438 fb3d
000000c0: d87b 9e3c a009 5d3c e134 f83f d0e8 663c
000000d0: a69d fbbe e811 bbbc 2cdc 7fbd 960a 033e
000000e0: 8f1b 193f 6d36 953d 4496 a5be e6c4 58be
000000f0: 4942 863d 18f9 19bc f198 dcbd b31e 1ebd
00000100: 14b8 f33d 74c7 69be a497 123e 9b82 dabc
00000110: 6430 0bbe 20ed 833d 5062 e9bb 7262 d63d
00000120: ad4d babd accf d63d 54f8 29be db1a 25bd
00000130: 2a3c 2dbd f12e ddbd 08c8 60bc 74b3 d3bc
00000140: 666e 463d b7f5 d2bd 8542 00be 7d57 babd
00000150: 68f0 6f3d 9eb8 9f3d 64f0 98bd eef7 1abd
00000160: 2062 873d 19ca c4bb bf7e b5bc a079 5e3d
00000170: 3669 80bd 8162 abbd 201f 7b3d c6a9 c53d
00000180: 2e36 f53c e45a 6f3d 56f5 053d 4d2f d6bd
00000190: 54d9 de3d 6e67 90bd ab2f 9b3d ad20 d1bd
000001a0: 9277 8abd 6670 57bc f668 abbc b581 76bb
000001b0: 1f92 14be 86ca 8fbc 9069 e4bd 39fe 42be
000001c0: e467 16bd 5ef1 9abd 3a88 d13d 7d0a 833c
000001d0: 20bf 70bd b7f0 55bd a85d 84bd 6cac 97bd
000001e0: a25a d93c 0568 a93d 6b48 c0bd e4d8 d53d
000001f0: 483c 7dbc 621e 0bbe f2b8 b23d 157c a0bd
00000200: 9c5a 2cbc fba0 ccbd b76c 0dbe 090e 93bd
00000210: 7e68 8dbc bf3d c2bc ce80 ccbd d725 8d3d
00000220: 100f 4cbc 5758 c1bd 50d4 a9bd 5247 5d3d
00000230: 6349 ecbd 5e79 debd 56f7 ce3d 1635 ffbd
00000240: 7032 a73d 9841 36bd c084 f93c 8c0e 89bc
00000250: c24d c03d 669e 03be e949 bdbe 50b3 9a3b
00000260: 309c e93c 72b7 35be f178 11bd 9b51 4f3d
00000270: a0d1 1f3e 1d72 32be e104 b23d 4101 6bbd
00000280: fcf8 7d3d 796e e13e f8fb 913d 2115 22be
00000290: d011 73be 2619 d3bc 5085 bfbc 704f 83bd
000002a0: daee 5ebd 1243 313d b0ff 3d3c 4634 1b3f
000002b0: a304 723d 1297 82bf 053c 7dbd 1da2 76bd
000002c0: 5070 91be ee1e f53c 5b41 e53d a548 16be
000002d0: 4fc6 8d3d 2291 343c b79c 1dbf cdec b3be
000002e0: 7a04 813e 8160 703d 973f 9dbe bab1 3bbd
000002f0: 2358 9abe 39f7 163f c0d3 353f 2d9a f4be
00000300: 80dd 163d 4ab1 bf3d 0464 9a3e 19d4 9ebd
00000310: 78e4 8c3b 1ee3 d1bd 6e23 5dbd 3e1f 08bd
00000320: 4a91 f7be 5414 00bd 58a8 0d3f 3a17 df3d
00000330: 6043 8d3b 2318 69be c5de 11bf 44e5 023f
00000340: 0d41 ca3d 8210 e93e 6e08 ae3d 9281 99bd
00000350: 4cb2 593d 0acb a73e 10e4 ddbe dde0 9e3e
00000360: e899 4b3d d287 a73d e44a 43bd ed4a 24be
00000370: 367c a03d 4e0f 18bd bc73 133d 6a64 993d
00000380: ab77 0fbf 9e6a 26bd d28e d93d 7896 6bbc
00000390: cb32 6fbd 485a a53c 7c01 aabd a076 dabc
000003a0: 8ef6 92bd d191 63bd 3609 c63d 6eda 29bd
000003b0: f4f1 84bc 3cf3 4a3d d89d e4bc 8c21 e83d
000003c0: e8f9 5f3d d036 223d c47c 663d 5035 333d
000003d0: ac98 e03d 4ee6 b33d 588d 5abc 403d 0a3b
000003e0: 2e2c d5bd 6812 8b3c e421 10bd 8c83 92bd
000003f0: 50b6 7a3c 98fa dabd d02b 23bc 88e7 873c
0.22058602 0.073991165 -0.04089024 -0.028401809 0.07487325 -0.101044536 -0.0019708944 0.91109145
0.069180116 -0.0605818 -0.11332619 -0.3429402 0.053597033 0.028085064 -0.06734009 0.21620318
-0.007759802 0.058711007 -0.079331405 0.031128773 0.0080365315 -0.2516093 -0.016179362 0.7976433
0.039626613 0.038708717 0.11900838 -0.04171825 -0.16126151 0.053200092 -0.33515146 0.1711046
0.34807566 0.16894783 -0.26285157 -0.026888056 1.6416692 0.060114235 0.087155394 -0.0461046
-0.49482027 -0.17289518 -0.009734055 -0.09991609 -0.3711743 0.07322859 0.04918764 0.12266675
0.019346163 0.013491064 1.9391137 0.014093593 -0.49143714 -0.022835687 -0.06246583 0.12797007
0.59807676 0.072857715 -0.32341206 -0.21168861 0.06555612 -0.0093977675 -0.10771359 -0.038603496
0.119003445 -0.22829992 0.14315659 -0.026673606 -0.13592678 0.064417124 -0.0071223155 0.10467996
-0.09096847 0.10488829 -0.16598636 -0.040308814 -0.042293705 -0.10799969 -0.013719566 -0.025842406
0.048445128 -0.10300773 -0.12525375 -0.09098718 0.05857888 0.07798885 -0.07467726 -0.0378341
0.06610513 -0.006005537 -0.022155164 0.05431521 -0.062700674 -0.083683975 0.06130898 0.09651522
0.029933061 0.05843629 0.032704674 -0.10458241 0.10881296 -0.07050978 0.07577451 -0.102113105
-0.067610875 -0.0131493565 -0.020924073 -0.0037613933 -0.14508866 -0.017552625 -0.11152947 -0.19042291
-0.03672017 -0.075655684 0.10231061 0.015996212 -0.05877602 -0.052231517 -0.06463176 -0.07405934
0.026532475 0.08271793 -0.09388813 0.10441759 -0.015456267 -0.13585809 0.08726682 -0.07836167
-0.01051965 -0.09991642 -0.13811003 -0.07180411 -0.01726174 -0.023711083 -0.09985505 0.06891983
-0.012454763 -0.094406776 -0.082924485 0.054023094 -0.11537435 -0.10862993 0.10105769 -0.12461297
0.08163917 -0.04449615 0.030458808 -0.01673057 0.09389831 -0.12853393 -0.3697045 0.0047210827
0.028516859 -0.1774576 -0.03551573 0.050614934 0.1560731 -0.17426343 0.08692337 -0.057374243
0.062005028 0.44029596 0.07128137 -0.15828373 -0.23737264 -0.025768828 -0.023378998 -0.06411636
-0.054427005 0.043276854 0.011596605 0.6062664 0.059086453 -1.0202353 -0.061824817 -0.060213197
-0.28406 0.029921975 0.11194106 -0.14676149 0.0692259 0.0110209305 -0.6156725 -0.35141602
0.25198728 0.058685783 -0.30712578 -0.04582379 -0.30145368 0.5897098 0.7102623 -0.47773877
0.036832333 0.09359987 0.3015443 -0.07755298 0.0042996965 -0.10248397 -0.053988867 -0.03323292
-0.48353034 -0.031269386 0.55335 0.10893102 0.0043110102 -0.22763114 -0.56980544 0.5113108
0.09875689 0.45520407 0.084977016 -0.07495417 0.053148553 0.32772094 -0.4333806 0.31030932
0.049707323 0.081802025 -0.047678843 -0.16044207 0.07836191 -0.03712397 0.035999045 0.074898556
-0.56041974 -0.04062902 0.10622944 -0.014379136 -0.05839805 0.020184651 -0.08301064 -0.026667893
-0.07175933 -0.055558983 0.096697256 -0.041468076 -0.016228653 0.049548373 -0.027907297 0.113345236
0.05468169 0.039603055 0.05627133 0.043752015 0.1096662 0.087841615 -0.013339363 0.0021093637
-0.10408817 0.01697655 -0.03518857 -0.07153997 0.015302256 -0.10692328 -0.009959176 0.016589895

layers.2.bias f4 [75]
00000000: fca4 bc3c 7b7a 163d c7fd acbd e3e8 d0bd
00000010: 43be e3bd 694d e63c aa43 a2bd 81ed 6ebe
00000020: 9194 473e 3ec3 1bbe 3c99 f23e a712 90be
00000030: 2fa9 58be 1541 1ebd d15f 0f3d 7b60 d7bc
00000040: 4b6e 9cbe 1765 50be 5c22 0cbd 597e c13d
00000050: e2a3 8bbe 11e8 31be e743 6b3d 6c88 63be
00000060: 69f8 8fbc 72aa a539 51ab 8bbe a774 a4be
00000070: 7ccc d8be 964e 55bd 57f3 e9bd 6289 b0bd
00000080: 6d7c 1bbe c2a9 503d c166 1c3d f15d 87be
00000090: 77ef 25be 30e4 37bd 0033 00bd a239 3abd
000000a0: 13dc f6be ecf5 ba3e b7df a1be 7884 b53e
000000b0: 5485 c2bd 6359 543e fe23 083e d491 45be
000000c0: c06c f1be 76fe 2abe a631 0ebe 20e5 d7bc
000000d0: ef72 3abe 1c86 c9be cb04 b9bd af06 9dbd
000000e0: a5f8 55bc 02e9 02bb fbd5 b6be 3891 063f
000000f0: 2ed8 57be 1b16 dabd be9d bfbd 85d6 a4bd
00000100: 4cb0 a1be 39d9 eabd 7dee 66be e7ab 99bd
00000110: fdbb 5e3e 882f 573d 8acc 99bd 93ce 43be
00000120: 994e af3e 9a7b b43d de51 3ebe
0.02302789 0.0367379 -0.08446842 -0.102006696 -0.11120274 0.028113084 -0.07923062 -0.23332788
0.19490267 -0.15211198 0.47382534 -0.2813923 -0.21158288 -0.038636286 0.035003487 -0.026291123
-0.30552897 -0.20351063 -0.034212455 0.09447927 -0.2727347 -0.17373683 0.057437804 -0.2222001
-0.017574506 0.00031598244 -0.27279142 -0.3212025 -0.4234351 -0.0520769 -0.114233665 -0.08619954
-0.15184183 0.050943144 0.03818393 -0.2643886 -0.1620463 -0.04489535 -0.031298637 -0.04546512
-0.48214778 0.36515749 -0.31615993 0.35452628 -0.094980866 0.20737223 0.1329498 -0.1929391
-0.47153282 -0.16698632 -0.13886127 -0.026354373 -0.18207906 -0.3936013 -0.09034117 -0.076672904
-0.01305977 -0.001997531 -0.3571013 0.52565336 -0.2107856 -0.106487475 -0.09356259 -0.08048729
-0.31579816 -0.11467213 -0.22551914 -0.07503491 0.217514 0.052535564 -0.07509716 -0.1912177
0.34239653 0.088126376 -0.18585917

layers.4.weight f4 [5, 75]
00000000: 2d56 353f 8ec8 13bd 11dc 06be 2e9c b53d
00000010: 285e 6fbc 42c7 cdbc 183d 1dbc bc89 013d
00000020: b512 15be 2ace 3c3d 887e b1bd c38e 8cbe
00000030: 78cf b9bc 1532 a33b 0147 003c 1295 61bd
00000040: 2407 9fbd 18bb c9bc b41e 353d 48cf b9bd
00000050: 4229 e93e 013e fbbd 14bb 36bd 4d38 993e
00000060: 0692 1fbd d3a9 3fbd c031 a9bd 6135 6e3e
00000070: 4dce 44bd 5e89 3e3b 2692 07bc 4c5d 40bd
00000080: 7147 f9bd 9d8b 90bd 7ed2 fd3e 0fa6 a23f
00000090: f193 dcbd f012 84bc a3cd abbd dbf0 233f
000000a0: aaf9 333b dfa3 c0bd c443 713e 8520 0abc
000000b0: e31b 713c e4aa 85bd 4a5a 30bc 7210 133e
000000c0: 3198 54be c25f 8f3d cb27 56bc 8fdd f03b
000000d0: 5ebe a63d 56f9 17be e41b 453d 3bbb 7bbd
000000e0: 7ff4 a4bb f461 d3bc d956 dbbe 996b cbbc
000000f0: e2b4 0c3f 5cbd 523e ebd1 e2bd 8907 c03d
00000100: 9089 9f3c 3f24 17be 5130 a63d a20c 813d
00000110: 544a 53be e483 49bd 08c9 a83c e9f3 55be
00000120: cd29 8abc aae0 aebc b233 01bd 7c64 27be
00000130: 4fab c3bc 9a42 75bd 7024 71bc b3b3 0bbc
00000140: 0a13 77bd 6ace dc3d 923e 443c 1903 373f
00000150: d1dc 04be 0216 02be b51c d0bc f6a7 6dbd
00000160: b24e 1e3d 2828 8c3c e873 23bd 0a32 5e3d
00000170: 1da7 6d3d b96c 71bd 2d3e b03f 7fcd cd3e
00000180: f473 babd 0601 4ebd 53d0 83be 4eae 673d
00000190: e39b 583c 79f2 493f e6f4 983e f5c2 a33d
000001a0: 2c65 a7bd 715a eabc cc71 54bc 27b9 c63f
000001b0: 1481 213d 3c22 b5bd 40cb c83d d4d0 a8be
000001c0: 2089 673b 17b6 f0bd e08a 39bd 2bd7 993d
000001d0: fa10 4bbe a049 b83e 7168 193d 24f6 513e
000001e0: 4e2f 2cbe 298c 963b 52bb 0ebd b66a 3fbd
000001f0: 7077 ab3d 9c8e 963d 3a2b 5c3c cd0c 713d
00000200: 7ca2 97be 5ee4 783d 24a2 333d 568f 5dbd
00000210: 3b64 92bb 5984 5c3e 0b8f 75bd ecca 1abd
00000220: d11b 09bd f6ac 033e e9e0 84bd 1a23 383d
00000230: 240b d93d e1a6 b33d 66e9 4fbd 140f 8dbe
00000240: 5224 f23f d355 c0bd fc64 4f3e 420e c43f
00000250: 7969 6c3d c26d f0bd 6d09 e3be 353a a03d
00000260: 7b22 f9bd dced d4bc df36 7bbc 1759 933e
00000270: 56df ab3d 528a ba3c 1779 153f 1429 4bbe
00000280: eefc dd3e 05f1 05be 52e8 89be e6e3 91bf
00000290: 39db 20bd fd8b 8bbd 3f7d 8b3c c8ee acbf
000002a0: 0dd2 ba3c 6049 9e3e 21fd 883f 3bb9 8c3d
000002b0: 8751 86bd a3e1 b8be 2cac 4bbc 2761 2a3e
000002c0: a403 7d3f 7e13 5e3e 740e e63f 6c82 9d3d
000002d0: dbb6 c6bc 9989 3f3e 0146 af3f d6aa 8e3d
000002e0: e7da febc 4a21 953e 8bc3 8dbe 90c6 223c
000002f0: a84a ac3d 30f6 e03e 6f41 00bf d659 c73e
00000300: 2df5 8fbe 9576 983f ccdd ab3e 9487 0b3e
00000310: e271 8a3e be5a 91bd 589f bf3e 4a6e 553e
00000320: fb71 3ebf e234 063e 5afa 633d a9fc 1cbe
00000330: 821a 823d b4a3 e63d 558c bf3c e7a6 63bd
00000340: 4166 f13e 5225 6b3f 7577 e73e 4b34 0a3e
00000350: 3737 4ebd 82ff 59bd 2b87 09be 394a dc3d
00000360: 3182 c0bf a268 f3bd 1d15 1a3e f12a 0240
00000370: 9c11 a93d ea19 933e 6f93 ebbf 71ae 0d3e
00000380: 3107 01bf 6416 363e af43 3abc 2767 933f
00000390: b0c0 6a3d a402 963c e9b6 3b3f 1ed8 ba3d
000003a0: 4e27 83bd dbda d73e e1cb 743e 5fac 593f
000003b0: e3af b7bc 74a4 eb3e 1547 773f 4d97 56bc
000003c0: f739 e2bb ba54 46bc 7925 ed3e 782b 95bd
000003d0: 15aa 0a3f 9fb5 b93e fd12 8a3e 5ea6 cdbd
000003e0: 07a7 843e 45d2 08bd a32a 95be 877b 2dbf
000003f0: b791 4bbe 0ad5 bcbf 3c7e 873f 4b1f 84bd
0.7083462 -0.036079936 -0.13169886 0.088676795 -0.014609851 -0.025119428 -0.009597085 0.031625494
-0.14557917 0.04609505 -0.08666712 -0.2745267 -0.022681937 0.0049803355 0.007829429 -0.055073805
-0.07765034 -0.024625346 0.044218734 -0.09072739 0.4553929 -0.12267686 -0.044612005 0.29925767
-0.03895762 -0.046792816 -0.08261442 0.2326255 -0.048048306 0.0029073576 -0.008274591 -0.046963975
-0.121718295 -0.07057879 0.49574655 1.2706927 -0.10770405 -0.016122311 -0.083888315 0.6403939
0.0027462044 -0.09406256 0.23561007 -0.008430605 0.014716121 -0.065267354 -0.010763714 0.14361742
-0.20761181 0.07000686 -0.013071011 0.0073506306 0.081417784 -0.14841208 0.0481223 -0.061457854
-0.005034029 -0.025803544 -0.42839697 -0.02483158 0.54963505 0.20580047 -0.11075195 0.09376437
0.019474775 -0.1475992 0.081146844 0.06301238 -0.20633823 -0.049198046 0.020603672 -0.20893826
-0.016865635 -0.021347363 -0.03154344 -0.16346925 -0.023885397 -0.05987797 -0.01471816 -0.00852673
-0.06032089 0.10781558 0.011977809 0.714891 -0.1297486 -0.12703708 -0.025404314 -0.05802151
0.03864927 0.017108992 -0.03990546 0.05424694 0.0580207 -0.058941577 1.3768975 0.40195844
-0.091041476 -0.050293945 -0.25744876 0.056562714 0.01322076 0.7888561 0.29874343 0.079961695
-0.08173594 -0.028607579 -0.012966584 1.5525254 0.03942974 -0.0884442 0.09804392 -0.32971823
0.0035329536 -0.11753481 -0.045298457 0.07511743 -0.19830695 0.3599367 0.03745312 0.20504051
-0.1681492 0.004594345 -0.03484661 -0.046732627 0.0837239 0.07351419 0.01343804 0.0588501
-0.29616153 0.060764663 0.0438558 -0.054091774 -0.004467515 0.21534862 -0.05995087 -0.037791178
-0.033473793 0.12858948 -0.06488211 0.04495535 0.10597828 0.08772064 -0.050759695 -0.27550566
1.8917334 -0.0939137 0.20253366 1.5316851 0.057717774 -0.11739685 -0.4434313 0.07823602
-0.1216478 -0.025992326 -0.0153329065 0.28778908 0.08392207 0.022771034 0.58387893 -0.19839889
0.43357033 -0.13080223 -0.2693506 -1.1397674 -0.039271567 -0.0681381 0.017027495 -1.351037
0.022805238 0.30915356 1.0702249 0.068712674 -0.06558519 -0.36109647 -0.012431186 0.16638623
0.9883368 0.21687123 1.7973161 0.076908916 -0.024257114 0.18704833 1.3693238 0.06966178
-0.03111024 0.2912696 -0.2768825 0.009935036 0.08412677 0.43937826 -0.50099844 0.38935727
-0.28116742 1.1911188 0.33567655 0.13625938 0.2704001 -0.07097386 0.37426257 0.20842853
-0.7439267 0.1310611 0.055658676 -0.15330757 0.06352712 0.11261693 0.023382345 -0.055579092
0.47148326 0.9185382 0.45208326 0.1349651 -0.050345626 -0.053222187 -0.13430469 0.10756344
-1.5039731 -0.118851915 0.15047117 2.033871 0.08255312 0.28730708 -1.8404368 0.13836075
-0.504016 0.17781979 -0.011368676 1.1515855 0.057312667 0.018311806 0.73325974 0.09123252
-0.06403981 0.4215916 0.23905899 0.8502864 -0.022422737 0.46023905 0.9659284 -0.013097596
-0.0069038826 -0.012105161 0.46317652 -0.07283682 0.54165775 0.36271378 0.26967612 -0.10041498
0.25908682 -0.033403654 -0.29134092 -0.6776661 -0.19879805 -1.4752514 1.0585399 -0.06451281

layers.4.bias f4 [5]
00000000: 13a9 63be 257b 3bbe ab22 1e3f faf8 bf3e
00000010: 5ca4 753d
-0.22232465 -0.18308695 0.6177165 0.37494642 0.0599712
