onnx_inference/april_3_2024_encoder.onnx (onnx, 74060 bytes, 10 tensors)

encoder/encoder_dense_4/MatMul/ReadVariableOp:0 f4 [75, 75]
-0.041887403 0.007897578 -0.012482692 0.09678884 0.12048897 -0.077290155 0.033026695 0.012269517
-0.014592077 -0.13194856 0.14125606 -0.11111858 0.12832116 -0.10468364 0.03748651 0.09363826
-0.091816805 0.080060735 0.16408578 -0.1383385 0.08932762 -0.013078645 -0.028127393 0.056535304
-0.014396951 -0.15626568 -0.15965495 0.18776526 -0.18513699 0.046739902 0.1471981 -0.072044805
0.1415416 -0.19569664 0.15987074 -0.07278529 0.0010938519 -0.07984366 0.14961745 0.16749768
-0.05802024 -0.093951754 -0.18047568 0.07135472 -0.036039636 -0.20709544 0.05387446 -0.020579144
-0.08941587 0.13617568 0.16323029 -0.17369615 -0.030078229 -0.13719772 0.038497988 0.00905785
-0.15180086 0.13006246 0.14817622 -0.07454963 0.16077887 0.1137345 0.029437162 -0.1738654
-0.17092182 -0.02922335 -0.10667018 0.019728428 -0.10362867 -0.043567102 0.046488762 0.17841363
-0.06280331 -0.13778666 0.06439151 0.19594607 0.053233333 0.18491793 -0.11838756 0.16047773
0.16701107 -0.18769689 -0.19263476 0.037042696 0.15595855 0.08650759 -0.040087413 -0.07840169
-0.071907714 -0.036503837 0.12790366 0.16437472 -0.12653676 -0.048829496 0.03154628 0.047275797
-0.11221023 -0.06479249 -0.04120749 -0.11873002 0.04960115 -0.20846821 -0.19401021 -0.15130259
0.0061483737 -0.18901606 -0.17208205 -0.022443911 -0.14004159 0.13301904 0.07415725 -0.16925137
-0.17458631 -0.03789251 0.07129516 4.9209057e-06 -0.10795527 -0.14756815 0.11149993 -0.16455817
0.16966562 0.09830117 0.052893117 0.16389313 -0.18696707 0.13856006 0.051004127 -0.2049428
0.035379294 -0.026209116 -0.12568599 -0.119154 -0.1412848 0.17405729 -0.19678025 -0.14198127
0.13288288 0.14897645 -0.1834233 -0.09811788 -0.015039848 -0.10689194 -0.099002875 -0.0572092
0.15799229 -0.05873151 0.04872905 0.0042159255 0.08918924 -0.11564217 0.10169149 -0.10223092
-0.05740938 -0.044152692 -0.029300103 0.1561731 -0.19764867 -0.089170754 0.17263104 0.18649282
0.07822595 0.11179186 -0.16984455 -0.118210845 0.1685761 0.098801956 0.17137516 0.1966088
0.10021907 0.17093685 -0.1431595 0.10492845 -0.12197663 0.15318263 -0.14352632 0.14450434
0.06073078 0.16526486 0.14821689 -0.0336097 -0.05673656 -0.09783216 0.024741784 0.14320464
-0.0980433 0.16626664 -0.10606226 -0.15842493 0.18786319 -0.019714072 -0.16358748 -0.17994452
0.07936284 0.1192463 -0.10094309 -0.04554551 0.03569318 -0.054739714 -0.17245914 -0.11062276
0.06044836 -0.03519368 0.11667953 0.053934626 -0.17215665 0.022013754 -0.08864661 0.15757005
0.17662318 0.14958243 -0.16657504 -0.18003745 0.13385251 0.015922474 -0.065395825 -0.2141298
0.1851058 -0.043669168 0.17997088 0.19328015 -0.15469603 -0.014236915 -0.0064295903 0.025894023
0.17365126 0.14281666 -0.1835523 0.12051467 -0.03457293 0.1234551 -0.056561947 0.1977234
0.05401295 0.023309385 -0.055474237 -0.044233788 -0.17134538 0.11021009 -0.11398011 0.19775619
-0.03524544 0.053073283 -0.048675492 -0.17111464 -0.13345893 -0.19115244 -0.17149754 -0.017583424
0.15821546 -0.038685083 0.04118146 -0.07144629 -0.018897623 0.021656316 -0.18795986 0.080487266
00000000: 2092 2bbd d864 013c 3484 4cbc 3a39 c63d
00000010: ecc2 f63d 4d4a 9ebd 0047 073d 1606 493c
00000020: 9b13 6fbc 861d 07be 6ea5 103e 2392 e3bd
00000030: 9f66 033e 6064 d6bd 748b 193d 6bc5 bf3d
00000040: 730a bcbd e2f6 a33d 1a06 283e 9ca8 0dbe
00000050: 66f1 b63d d047 56bc 6b6b e6bc 9091 673d
00000060: 30e1 6bbc 1c04 20be 967c 23be 8945 403e
00000070: 8d94 3dbe 5772 3f3d 19bb 163e 3a8c 93bd
00000080: 48f0 103e b364 48be 28b5 233e 7410 95bd
00000090: 945f 8f3a 1385 a3bd 5135 193e 8384 2b3e
000000a0: a2a6 6dbd c769 c0bd 9ece 38be 6c22 923d
000000b0: 4c9e 13bd d410 54be 77ab 5c3d 9895 a8bc
000000c0: ab1f b7bd a371 0b3e d725 273e 67dd 31be
000000d0: 9e66 f6bc 8f7d 0cbe 11b0 1d3d 6067 143c
000000e0: af71 1bbe 182f 053e 82bb 173e 7aad 98bd
000000f0: 37a3 243e a2ed e83d 3426 f13c c509 32be
00000100: 2106 2fbe cf65 efbc e575 dabd 839d a13c
00000110: 453b d4bd 6b73 32bd 006b 3e3d 10b2 363e
00000120: 069f 80bd f217 0dbe b2df 833d 16a6 483e
00000130: 320b 5a3d 205b 3d3e 2d75 f2bd 4654 243e
00000140: f304 2b3e 9d33 40be 0c42 45be 15ba 173d
00000150: 99b3 1f3e e42a b13d b332 24bd 1191 a0bd
00000160: 5a44 93bd 0c85 15bd 2df9 023e d951 283e
00000170: da92 01be 7001 48bd ac36 013d 44a4 413d
00000180: 7ace e5bd edb1 84bd 2fc9 28bd ba28 f3bd
00000190: 932a 4b3d b178 55be 9daa 46be 11ef 1abe
000001a0: 4c78 c93b 6d8d 41be 4736 30be 4bdc b7bc
000001b0: 1067 0fbe 2536 083e c2df 973d 3b50 2dbe
000001c0: c1c6 32be 2d35 1bbd 3203 923d 421e a536
000001d0: a717 ddbd 1b1c 17be 135a e43d f081 28be
000001e0: d3bc 2d3e 2052 c93d 74a6 583d 9ad3 273e
000001f0: 4c74 3fbe b0e2 0d3e b4e9 503d 86dc 51be
00000200: e1e9 103d 80b4 d6bc d4b3 00be 0307 f4bd
00000210: f6ac 10be 133c 323e c380 49be 8a63 11be
00000220: 7312 083e 488d 183e 51d3 3bbe 07f2 c8bd
00000230: b269 76bc 29ea dabd 05c2 cabd 3254 6abd
00000240: bbc8 213e 7490 70bd 1d98 473d bf25 8a3b
00000250: d9a8 b63d cdd5 ecbd a143 d03d 725e d1bd
00000260: 1926 6bbd 74d9 34bd c506 f0bc d7eb 1f3e
00000270: 6a64 4abe 289f b6bd 31c6 303e f9f7 3e3e
00000280: ed34 a03d 21f3 e43d bbeb 2dbe 8718 f2bd
00000290: 379f 2c3e ae58 ca3d f87c 2f3e d153 493e
000002a0: a83f cd3d 120a 2f3e 6798 12be bae4 d63d
000002b0: e2ce f9bd e8db 1c3e 90f8 12be f2f8 133e
000002c0: d7c0 783d 313b 293e 2bc6 173e 53aa 09bd
000002d0: 9864 68bd 3a5c c8bd 48af ca3c 3da4 123e
000002e0: edca c8bd cd41 2a3e 2c37 d9bd 253a 22be
000002f0: 355f 403e 687f a1bc 7a83 27be 6043 38be
00000300: fc88 a23d 6737 f43d 40bb cebd ee8d 3abd
00000310: 0333 123d c036 60bd 2199 30be 308e e2bd
00000320: b398 773d 4027 10bd adf5 ee3d 8eea 5c3d
00000330: d549 30be 3056 b43c 5b8c b5bd 0b5a 213e
00000340: b5dc 343e 232c 193e a692 2abe bd5b 38be
00000350: a210 093e d96f 823c 3fee 85bd d844 5bbe
00000360: 608c 3d3e 71de 32bd 494a 383e 3beb 453e
00000370: a368 1ebe f341 69bc 50af d2bb b41f d43c
00000380: a3d1 313e 883e 123e 22f5 3bbe 65d0 f63d
00000390: 589c 0dbd 07d6 fc3d 80ad 67bd 0178 4a3e
000003a0: af3c 5d3d 53f3 be3c f438 63bd 7d2e 35bd
000003b0: 2a75 2fbe d4b5 e13d 676e e9bd 9980 4a3e
000003c0: 865d 10bd 5f63 593d f45f 47bd ad38 2fbe
000003d0: 75a9 08be 77bd 43be 0d9d 2fbe 1d0b 90bc
000003e0: 3c03 223e 4074 1ebd e4ad 283d 6f52 92bd
000003f0: 30cf 9abc 9668 b13c 8d78 40be 82d6 a43d

encoder/encoder_dense_4/BiasAdd/ReadVariableOp:0 f4 [75]
-0.003244509 -0.0111207 -0.008374949 0.0 0.014826248 0.0 0.0 -0.0034200503
0.03776337 0.0 -0.0069286 -0.012520964 -0.012747992 0.0 0.0 0.036146104
-0.00046261374 0.0 0.007838063 -0.0029749556 -0.00669784 0.0 0.026218992 -0.008937416
0.0 -0.00015592834 -0.010843301 0.0 0.03236378 0.011821239 0.0 0.0
0.017998558 0.0 -0.001958105 0.0 0.0030963437 0.015402154 -0.00612999 0.0
-0.010782811 0.0 0.015408527 0.025333785 0.0 -0.0166119 -0.0082744295 0.0
-0.006927604 0.011986582 -0.008265223 0.0 -0.01291786 -0.0023858796 0.022850374 0.0
0.022105433 -0.0017820385 0.054514002 0.0 0.0 0.0 -0.032032777 -0.009024564
-0.001227337 -0.01306218 0.005708732 -0.02330116 -0.0056717275 -0.0046829134 0.0 -0.011476151
-0.0060929763 -0.012906588 0.0
00000000: d4a1 54bb 9933 36bc 1537 09bc 0000 0000
00000010: cbe9 723c 0000 0000 0000 0000 ec22 60bb
00000020: c3ad 1a3d 0000 0000 4f09 e3bb bb24 4dbc
00000030: f4dc 50bc 0000 0000 0000 0000 f00d 143d
00000040: f78a f2b9 0000 0000 386b 003c 79f7 42bb
00000050: 8e79 dbbb 0000 0000 36c9 d63c 3d6e 12bc
00000060: 0000 0000 b280 23b9 1aa8 31bc 0000 0000
00000070: e28f 043d dfad 413c 0000 0000 0000 0000
00000080: b671 933c 0000 0000 8d53 00bb 0000 0000
00000090: 07ec 4a3b 5159 7c3c 15de c8bb 0000 0000
000000a0: 63aa 30bc 0000 0000 0c74 7c3c cc88 cf3c
000000b0: 0000 0000 ae15 88bc 7991 07bc 0000 0000
000000c0: f400 e3bb 5e63 443c dc6a 07bc 0000 0000
000000d0: 6fa5 53bc 6b5c 1cbb b530 bb3c 0000 0000
000000e0: 7416 b53c 4a93 e9ba 134a 5f3d 0000 0000
000000f0: 0000 0000 0000 0000 cd34 03bd c4db 13bc
00000100: 99de a0ba c102 56bc 5110 bb3b 13e2 bebc
00000110: e6d9 b9bb 2073 99bb 0000 0000 7706 3cbc
00000120: 97a7 c7bb 2776 53bc 0000 0000

encoder/encoder_dense_3/MatMul/ReadVariableOp:0 f4 [75, 75]
-0.07266951 0.034461115 0.19095458 -0.15861866 0.1672041 0.14740315 0.19903623 0.16893025
-0.021863867 -0.10240364 -0.007439403 -0.11123665 -0.00926742 0.14279853 -0.04491962 -0.19239722
-0.050106242 -0.16140747 0.0704328 -0.12529784 -0.0057385345 0.12936333 -0.07390495 -0.11874838
-0.045434825 0.13872406 -0.11051512 0.053051602 -0.1733246 0.06504254 0.02166927 -0.19837792
0.025200736 0.17050897 0.14610946 -0.014243657 -0.07532846 0.21868172 -0.025833648 0.17803647
0.080865234 -0.03201899 -0.08714083 0.06651262 0.106210716 0.17461768 -0.026057482 0.16783139
-0.059104964 0.19606806 -0.12326079 0.005544511 -0.01651287 0.05008528 0.060992762 -0.10022511
-0.05070497 0.18672748 -0.096469305 -0.074295714 -0.08448323 -0.173586 -0.095016964 -0.09737625
0.191255 -0.03810375 -0.011428703 -0.035229653 -0.041292027 -0.052953478 0.15338622 0.20410006
-0.15464185 -0.07591793 0.13230845 0.049523335 -0.05400578 0.06504667 -0.09742489 0.12350157
-0.16067775 0.16780478 0.0077540874 -0.18678178 -0.091538385 0.16772328 0.1657948 -0.10052743
-0.0880537 0.024827145 0.14395715 -0.10484961 0.13079807 0.031020591 -0.19430399 -0.19775975
0.1861824 -0.04875192 -0.063398205 0.04138862 0.07518448 -0.08164147 -0.19589357 0.029110096
0.028739542 0.19372582 0.0030908748 0.07386122 0.11515309 0.060501065 -0.11724537 -0.04092616
-0.20980787 0.09058725 0.14500065 -0.18806177 -0.11447714 -0.06584014 -0.07559187 0.07883853
0.10915537 -0.18537718 0.053763922 -0.07160278 0.06268481 -0.0112069445 -0.050515074 -0.1984355
0.13870353 0.12590505 -0.046057306 0.0743926 0.12704186 -0.13081455 -0.10411644 -0.132434
0.04331541 -0.018272601 -0.0003913939 0.15356426 -0.015033027 0.10848196 0.15750323 0.08164272
-0.09174686 0.1090773 -0.0012995559 -0.0032810709 -0.18734501 -0.046816435 -0.08888712 -0.018874628
0.0456701 0.15237916 0.18708017 0.09510127 0.012871554 -0.12596703 0.09795243 -0.014026016
0.100395545 0.09474507 -0.029340982 -0.17217694 0.12149543 -0.07395105 0.057410475 0.19504367
0.14126904 -0.14237207 0.18500629 0.0040001133 -0.19537516 0.002655287 0.057391874 0.09678233
0.10135137 0.13914184 -0.035320822 0.17794909 0.035686225 0.091635406 -0.11799811 0.06225762
-0.027578546 -0.019118072 0.07821089 -0.14215888 -0.19179575 0.09297285 -0.19141927 -0.15820469
0.08560831 0.1773396 0.15159239 -0.11704039 0.15556109 0.20462944 0.0059034824 -0.027623478
0.10787637 0.198958 0.06181793 0.22552378 0.0279409 0.04407516 -0.0017152897 -0.05253634
-0.1844435 -0.09003544 -0.06454398 0.04478408 -0.0043246187 0.149974 -0.040651727 -0.07140889
0.18524005 0.17223434 0.10312577 -0.13158149 -0.12685369 -0.07160874 0.19170903 -0.007379614
-0.028379126 0.16776443 0.16899337 -0.17253578 0.06841054 -0.121208966 -0.09622193 0.0058909757
-0.14508295 0.16192922 0.1153553 0.012974044 -0.110450745 -0.17947479 -0.09687676 0.20131513
-0.18533145 0.025257116 -0.059888765 -0.010315946 0.12007063 0.16080053 -0.02006573 -0.17980881
-0.11616857 -0.027622877 0.11196614 -0.06362291 -0.18508859 -0.052947953 -0.14727612 0.014773524
00000000: c1d3 94bd 1927 0d3d 9989 433e ee6c 22be
00000010: 8d37 2b3e daf0 163e 27d0 4b3e 0dfc 2c3e
00000020: da1b b3bc 00b9 d1bd 3cc6 f3bb 0ad0 e3bd
00000030: 60d6 17bc c739 123e a3fd 37bd c703 45be
00000040: 343c 4dbd 0048 25be 123f 903d 144e 00be
00000050: 510a bcbb d277 043e 7a5b 97bd 5a32 f3bd
00000060: de19 3abd ae0d 0e3e c055 e2bd a34c 593d
00000070: 017c 31be 0635 853d c183 b13c 9523 4bbe
00000080: c671 ce3c e799 2e3e b89d 153e 3a5e 69bc
00000090: cf45 9abd 1aee 5f3e 16a1 d3bc 314f 363e
000000a0: ac9c a53d 5826 03bd e476 b2bd c537 883d
000000b0: 0185 d93d face 323e 8076 d5bc fedb 2b3e
000000c0: 0c18 72bd 11c6 483e 2770 fcbd bbae b53b
000000d0: 0046 87bc 3926 4d3d 8cd3 793d d342 cdbd
000000e0: 04b0 4fbd 7d35 3f3e b391 c5bd 5a28 98bd
000000f0: 8b05 adbd 87c0 31be 4198 c2bd 336d c7bd
00000100: 5ad8 433e ae12 1cbd 743f 3bbc f84c 10bd
00000110: d421 29bd bfe5 58bd 4711 1d3e 9bff 503e
00000120: 6f5a 1ebe dc7a 9bbd de7b 073e fbd8 4a3d
00000130: 2a35 5dbd 3037 853d b386 c7bd 64ee fc3d
00000140: b588 24be 04d5 2b3e 0016 fe3b b943 3fbe
00000150: 7a78 bbbd a7bf 2b3e 1dc6 293e 53e1 cdbd
00000160: 8055 b4bd 4c62 cb3c 8169 133e 64bb d6bd
00000170: eeef 053e e51e fe3c a0f7 46be 8881 4abe
00000180: 99a6 3e3e 18b0 47bd ebd6 81bd 1d87 293d
00000190: 52fa 993d a533 a7bd 5398 48be 4c78 ee3c
000001a0: 306f eb3c 1060 463e 4690 4a3b 8d44 973d
000001b0: 62d5 eb3d f7cf 773d 571e f0bd 30a2 27bd
000001c0: e0d7 56be cf85 b93d 0d7b 143e 4493 40be
000001d0: fe72 eabd 32d7 86bd e9cf 9abd 1876 a13d
000001e0: da8c df3d 84d3 3dbe 8f37 5c3d 7aa4 92bd
000001f0: e560 803d 559d 37bc e5e8 4ebd ad32 4bbe
00000200: 4c08 0e3e 41ed 003e 96a6 3cbd 265b 983d
00000210: 4317 023e 40f4 05be 003b d5bd c79c 07be
00000220: 806b 313d 6cb0 95bc 0034 cdb9 f33f 1d3e
00000230: 164d 76bc ca2b de3d 8748 213e 4c34 a73d
00000240: c7e5 bbbd eb63 df3d dc55 aaba 3c07 57bb
00000250: 5fd7 3fbe 97c2 3fbd 730a b6bd f79e 9abc
00000260: 9210 3b3d 4809 1c3e f291 3f3e 74c4 c23d
00000270: 36e3 523c 80fd 00be 499b c83d 60cd 65bc
00000280: 2e9c cd3d b409 c23d 805c f0bc 274f 30be
00000290: 99d2 f83d a673 97bd 3f27 6b3d 87b9 473e
000002a0: d5a8 103e fcc9 11be 4a72 3d3e 6213 833b
000002b0: 6d10 48be 5304 2e3b be13 6b3d d035 c63d
000002c0: 4f91 cf3d 337b 0e3e 91ac 10bd 4938 363e
000002d0: b82b 123d 58ab bb3d fea8 f1bd d901 7f3d
000002e0: 67ec e1bc 819d 9cbc 082d a03d 1992 11be
000002f0: 1b66 44be 8d68 be3d 6a03 44be 6900 22be
00000300: 6953 af3d 8398 353e 093b 1b3e dfb2 efbd
00000310: 684b 1f3e 618a 513e 0072 c13b a24a e2bc
00000320: 49ee dc3d a5bb 4b3e cc34 7d3d b5ef 663e
00000330: 50e4 e43c 2888 343d 92d3 e0ba 5830 57bd
00000340: c2de 3cbe 8064 b8bd a22f 84bd 836f 373d
00000350: 88b5 8dbb c992 193e 6d82 26bd d33e 92bd
00000360: 91af 3d3e 335e 303e 9b33 d33d 4cbd 06be
00000370: efe5 01be 9aa7 92bd 5f4f 443e b0d0 f1bb
00000380: 577b e8bc 70ca 2b3e 990c 2d3e 38ad 30be
00000390: d31a 8c3d 683c f8bd 0110 c5bd 1609 c13b
000003a0: a090 14be c6d0 253e 663f ec3d 1691 543c
000003b0: 0034 e2bd 3dc8 37be 5367 c6bd 8e25 4e3e
000003c0: 87c7 3dbe 03e8 ce3c ec4d 75bd 3704 29bc
000003d0: 97e7 f53d e5a8 243e e360 a4bc cd1f 38be
000003e0: cae9 edbd 5f49 e2bc 814e e53d ba4c 82bd
000003f0: dd87 3dbe f4df 58bd 8dcf 16be a70c 723c

encoder/encoder_dense_3/BiasAdd/ReadVariableOp:0 f4 [75]
0.0046267104 -0.007005361 0.04481163 0.010484343 0.0197149 0.0014323064 -0.0016081304 0.0
0.049288087 0.0 -0.015318435 -0.0021856069 0.0 0.0 -0.0015166822 0.0
-0.007243997 -0.0066880337 -0.006662407 -0.0012369043 0.04133971 0.0026634627 0.0 -0.010158594
0.011709521 -0.0073191496 0.019541737 -0.004537029 0.008453356 0.0 0.015139092 0.026082687
0.00436305 -0.01946949 0.001880688 0.0042654825 0.00030483663 0.0076311934 0.022402916 0.040492367
-0.012202284 -0.010342912 0.04228704 0.012779984 -0.0002088072 -0.0074444977 -0.00936109 0.035453778
0.0 -0.0023717354 -0.0076575805 0.022271866 0.0 0.038258802 0.0 -0.010210661
0.030898716 0.0 -0.010335759 0.0 0.001903362 0.015377934 -0.009744013 0.0
-0.00013975987 -0.018891368 0.0174427 -0.0057500005 -0.010143467 -0.005699419 0.000915944 -0.024742866
-0.00782437 0.036787506 -0.008126929
00000000: a99b 973b 3a8d e5bb 668c 373d 86c6 2b3c
00000010: 2481 a13c 3abc bb3a e7c7 d2ba 0000 0000
00000020: 4ee2 493d 0000 0000 2cfa 7abc 663c 0fbb
00000030: 0000 0000 0000 0000 69cb c6ba 0000 0000
00000040: 0d5f edbb 4b27 dbbb 5250 dabb 9f1f a2ba
00000050: d453 293d 7d8d 2e3b 0000 0000 3b70 26bc
00000060: 4ad9 3f3c 7ad5 efbb fe15 a03c 5cab 94bb
00000070: f27f 0a3c 0000 0000 f409 783c 5cab d53c
00000080: ebf7 8e3b 7b7e 9fbc 6b81 f63a 76c5 8b3b
00000090: 7bd2 9f39 170f fa3b 5286 b73c 53db 253d
000000a0: 17ec 47bc 5175 29bc 2d35 2d3d 2363 513c
000000b0: 42f3 5ab9 f9f0 f3bb 425f 19bc fb37 113d
000000c0: 0000 0000 1e6f 1bbb 71ec fabb 7d73 b63c
000000d0: 0000 0000 43b5 1c3d 0000 0000 9e4a 27bc
000000e0: 4e1f fd3c 0000 0000 5157 29bc 0000 0000
000000f0: 3b7a f93a bbf3 7b3c 5aa5 1fbc 0000 0000
00000100: 818c 12b9 12c2 9abc fee3 8e3c 806a bcbb
00000110: c930 26bc 31c2 babb f61b 703a 8db1 cabc
00000120: c931 00bc 7fae 163d d026 05bc

encoder/encoder_dense_2/MatMul/ReadVariableOp:0 f4 [75, 75]
-0.19448362 0.092838064 0.18365656 -0.1707593 0.08909048 0.032080173 -0.17293034 -0.17419802
-0.10667634 -0.005527407 0.036671877 0.14522652 -0.07569938 0.10886966 -0.043813556 0.0006329566
0.15755643 0.029803514 0.002602771 -0.057713985 -0.041499764 0.12938477 -0.095690064 -0.041262
-0.01832667 -0.02812472 0.19773827 0.19309096 0.019407123 0.11343126 0.019853637 0.14290075
0.0027336627 0.09053926 -0.082284115 0.06525551 -0.14939928 0.064377025 -0.021369696 0.07544361
-0.16163616 0.0025947988 0.19907938 -0.19457379 -0.10166345 0.019668907 -0.08380504 -0.16682558
-0.010801032 -0.058064938 -0.15891013 -0.09573746 0.13686343 -0.049961656 -0.11829343 0.12696995
0.1897922 0.03649044 0.06346245 0.16279344 0.078809544 -0.07853017 -0.13367137 0.037326813
0.014152855 -0.11617122 0.06031762 0.027630478 -0.10640889 -0.11892309 -0.10906687 0.19299121
-0.17777185 -0.07593508 -0.0465734 0.1696065 -0.01535882 -0.03901672 0.08619142 0.07586299
0.1679684 -0.181993 0.11124725 -0.04340932 0.053102612 0.16889757 0.11159671 -0.03753543
-0.15605916 -0.12679562 0.100346394 -0.082962036 0.07607263 -0.09463182 0.17077878 0.024390023
-0.13093914 -0.19995223 0.16418351 -0.082580395 0.14198627 0.13210838 -0.024701092 0.1000803
-0.070673555 0.058142558 0.14809814 0.07888128 0.017332906 0.20822275 0.03037764 -0.21825211
-0.026012931 -0.0504632 -0.12760052 0.0011979319 -0.035498485 0.06808667 0.12580575 0.16952583
-0.028028062 0.137222 0.16346535 0.17695874 0.14004469 0.03344865 0.060309216 0.042636435
0.07033242 0.056499735 -0.10000308 -0.06061387 -0.11712199 -0.14699915 0.120536365 -0.13153143
-0.19981213 -0.073830955 -0.17039849 0.09034924 -0.12276777 0.15226926 0.011834288 -0.08542708
-0.15757875 -0.18933138 0.030937478 -0.066860095 -0.12479025 0.06988495 -0.063807964 -0.0020896087
0.042725727 -0.012258721 0.07048334 0.008604482 0.043699354 0.1494379 0.090940885 -0.14676927
-0.19883513 0.16826677 0.015408516 0.045094177 -0.025708824 0.15303344 0.071844906 0.063894674
-0.13389665 -0.028182417 -0.11881833 -0.049827762 -0.091797255 -0.1369701 0.15699555 0.08934985
-0.08539574 0.079181604 0.015199751 -0.118779086 -0.01048097 0.15703638 -0.1575481 -0.037489437
0.05782165 0.030250434 0.16598459 0.1526776 -0.120534234 0.1358582 -0.025108797 -0.029008083
0.10868536 0.13099769 -0.17295122 0.05188873 0.047307163 0.15405281 -0.023059085 0.072896324
0.19364385 -0.19691586 0.114334 0.15402748 0.101055756 -0.075782105 -0.12749681 -0.022609472
0.15255956 -0.008188099 0.11389795 -0.044632196 -6.289411e-05 -0.043733403 0.004907895 -0.16713613
-0.14944568 -0.15015312 0.071853355 -0.0030412227 0.10274853 -0.119838 0.06644984 0.17727363
0.122726835 0.11309888 0.081225865 -0.12683529 0.02146098 -0.01856704 0.18021978 -0.049124762
0.08882097 -0.052816596 0.20464402 0.1605989 -0.14833385 0.036991313 0.15652561 -0.1144711
0.1749515 0.17684521 -0.05664568 0.14398685 -0.09605795 0.1993865 -0.14969301 0.018732917
-0.0129702985 -0.058495104 -0.18382326 0.16141914 0.17461747 0.03184299 0.13533129 -0.19763875
00000000: b726 47be e221 be3d 7710 3c3e 87db 2ebe
00000010: 1275 b63d 8066 033d a714 31be f760 32be
00000020: 2079 dabd 401f b5bb 4035 163d 43b6 143e
00000030: 4708 9bbd 0ef7 de3d d875 33bd 00ed 253a
00000040: 7956 213e 8026 f43c 4093 2a3b 8065 6cbd
00000050: a8fb 29bd 717d 043e 27f9 c3bd 5802 29bd
00000060: d021 96bc d065 e6bc e77b 4a3e a3b9 453e
00000070: b0fb 9e3c a64e e83d 18a4 a23c 9354 123e
00000080: 4027 333b a66c b93d 9384 a8bd aea4 853d
00000090: 20fc 18be 1ad8 833d 800f afbc 2e82 9a3d
000000a0: f383 25be 800d 2a3b 77db 4b3e 5a3e 47be
000000b0: ed34 d0bd b020 a13c faa1 abbd 53d4 2abe
000000c0: d0f6 30bc 80d5 6dbd 56b9 22be 0012 c4bd
000000d0: ed25 0c3e 98a4 4cbd d343 f2bd 6904 023e
000000e0: e358 423e 0077 153d 9af8 813d 53b3 263e
000000f0: e666 a13d 6dd4 a0bd 26e1 08be 00e4 183d
00000100: 60e1 673c 2deb edbd 9c0f 773d 5059 e23c
00000110: e7ec d9bd f38d f3bd 735e dfbd 7d9f 453e
00000120: d309 36be da83 9bbd c0c3 3ebd 54ad 2d3e
00000130: 8fa3 7bbc ffcf 1fbd 2185 b03d 0e5e 9b3d
00000140: e9ff 2b3e 5f5c 3abe 99d5 e33d f9cd 31bd
00000150: 2082 593d 7cf3 2c3e d18c e43d c0be 19bd
00000160: f9cd 1fbe b6d6 01be 6982 cd3d 00e8 a9bd
00000170: f8cb 9b3d 54ce c1bd a2e0 2e3e 96cd c73c
00000180: e914 06be 47c0 4cbe b91f 283e e91f a9bd
00000190: d964 113e 6b47 073e f259 cabc e6f6 cc3d
000001a0: 4cbd 90bd e426 6e3d 0aa7 173e 828c a13d
000001b0: bdfd 8d3c 5838 553e 87da f83c 7b7d 5fbe
000001c0: 1219 d5bc 80b2 4ebd b6a9 02be ed03 9d3a
000001d0: dc66 11bd 0671 8b3d 39d3 003e 2e98 2d3e
000001e0: 1b9b e5bc ed83 0c3e 7663 273e ac34 353e
000001f0: e067 0f3e 7401 093d cc06 773d 8ba3 2e3d
00000200: 720a 903d 446c 673d 6ace ccbd 4046 78bd
00000210: a7dd efbd f286 16be c5db f63d 2db0 06be
00000220: 8d9b 4cbe af34 97bd f17c 2ebe 0609 b93d
00000230: ab6d fbbd 79ec 1b3e 9ae4 413c 65f4 aebd
00000240: 535c 21be 16e0 41be 9870 fd3c f2ed 88bd
00000250: 0892 ffbd d71f 8f3d c0ad 82bd d1f1 08bb
00000260: 2c01 2f3d cdd8 48bc 9259 903d d0f9 0c3c
00000270: 18fe 323d 4006 193e 373f ba3d af4a 16be
00000280: 709b 4bbe 204e 2c3e 0074 7c3c acb4 383d
00000290: 509b d2bc ccb4 1c3e 6c23 933d 36db 823d
000002a0: 341c 09be d0de e6bc 0657 f3bd 3218 4cbd
000002b0: 3300 bcbd e441 0cbe 71c3 203e 0efd b63d
000002c0: f6e3 aebd f729 a23d 6008 793c 7342 f3bd
000002d0: 60b8 2bbc 25ce 203e 4a54 21be 868e 19bd
000002e0: 65d6 6c3d c2cf f73c ddf7 293e 8457 1c3e
000002f0: a7da f6bd 691e 0b3e f7b0 cdbc 5ca2 edbc
00000300: 6e96 de3d 4224 063e 201a 31be 4789 543d
00000310: 28c5 413d 05c0 1d3e 68e6 bcbc ab4a 953d
00000320: 934a 463e 50a4 49be f227 ea3d 61b9 1d3e
00000330: 52f6 ce3d a633 9bbd 868e 02be 8037 b9bc
00000340: 9338 1c3e 6027 06bc 5443 e93d 40d0 36bd
00000350: 05e6 83b8 cc21 33bd 68d2 a03b bc25 2bbe
00000360: 4a08 19be bdc1 19be da27 933d 404f 47bb
00000370: d26d d23d a06d f5bd db16 883d 3887 353e
00000380: 3558 fb3d 63a0 e73d bf59 a63d 1ce1 01be
00000390: f0ce af3c e819 98bc 898b 383e 0c37 49bd
000003a0: c5e7 b53d 3756 58bd 348e 513e 0a74 243e
000003b0: d4e4 17be 3484 173d 4048 203e d36f eabd
000003c0: 7c26 333e e916 353e 4d05 68bd 4a71 133e
000003d0: 08ba c4bd fa2b 4c3e 2049 19be c675 993c
000003e0: 6081 54bc 9098 6fbd 2a3c 3cbe 0f4b 253e
000003f0: ecce 323e cc6d 023d 4994 0a3e d061 4abe

encoder/encoder_dense_2/BiasAdd/ReadVariableOp:0 f4 [75]
-0.0058198385 -0.009349764 0.029097809 0.011274733 0.0 0.0 -0.005962933 0.014086461
-0.0031757946 0.0014386979 -0.012428829 -0.007469651 0.0 -0.015685374 0.0 0.03275911
0.009749768 -0.010818212 -0.008589876 -0.0057551046 0.030176392 0.023813602 0.026575478 0.0
-0.007381417 0.0 -0.012743933 -0.006586565 0.0 0.0 0.0 -0.006308743
-0.0054438636 -0.03040857 0.010932317 -0.0059114043 0.055074338 0.02129365 -0.0051630763 0.0
-0.015658028 -0.018196616 0.0 -0.0075615477 0.02676886 0.03056389 0.0 0.021319909
-0.00087829743 0.016905067 0.0 0.0 -0.017757429 0.034225173 0.0 -0.008226455
0.0 0.0 0.04207413 0.0038326927 0.0063940934 0.0 -0.01449907 -0.009934229
0.005519243 0.009387633 0.0 -0.011215551 0.054160383 0.0 0.037348237 0.0
-0.0033899024 0.00062666123 -0.014193667
00000000: 58b4 bebb c12f 19bc 875e ee3c a8b9 383c
00000010: 0000 0000 0000 0000 b564 c3bb e6ca 663c
00000020: fe20 50bb b192 bc3a 4aa2 4bbc f9c3 f4bb
00000030: 0000 0000 9d7e 80bc 0000 0000 6b2e 063d
00000040: 7ebd 1f3c df3e 31bc 8dbc 0cbc 5195 bcbb
00000050: 7b34 f73c be14 c33c d1b4 d93c 0000 0000
00000060: d0df f1bb 0000 0000 eecb 50bc 1dd4 d7bb
00000070: 0000 0000 0000 0000 0000 0000 92b9 cebb
00000080: 7062 b2bb 651b f9bc 761d 333c 74b4 c1bb
00000090: a195 613d 0570 ae3c 062f a9bb 0000 0000
000000a0: 4445 80bc 1211 95bc 0000 0000 dcc6 f7bb
000000b0: 5e4a db3c 1f61 fa3c 0000 0000 17a7 ae3c
000000c0: 8b3d 66ba 7f7c 8a3c 0000 0000 0000 0000
000000d0: 0778 91bc b22f 0c3d 0000 0000 41c8 06bc
000000e0: 0000 0000 0000 0000 ec55 2c3d ea2d 7b3b
000000f0: 8b85 d13b 0000 0000 828d 6dbc 2dc3 22bc
00000100: c4da b43b 96ce 193c 0000 0000 6ec1 37bc
00000110: 47d7 5d3d 0000 0000 77fa 183d 0000 0000
00000120: 2029 5ebb 8646 243a 8e8c 68bc

encoder/encoder_dense_1/MatMul/ReadVariableOp:0 f4 [3, 75]
-0.1146829 0.15524407 -0.11707567 -0.07392325 -0.06014095 -0.23495908 -0.12222582 0.26138818
-0.056178838 0.114068665 0.13459203 -0.17261821 -0.020028472 0.0966186 0.05661402 0.16391885
-0.09269543 -0.12482594 0.14062765 0.11192396 0.18994029 -0.025454998 0.11625322 0.17141575
-0.084545426 0.0767189 -0.18706015 0.049572736 -0.16588685 -0.10233444 0.15699819 0.18521057
-0.087763436 -0.23141699 0.04073387 -0.030267388 -0.059323717 -0.10603574 -0.10414952 -0.14840679
0.0055838823 0.0531126 -0.2691397 0.14224917 -0.18186003 0.07832321 0.0074648904 0.06723265
-0.0016636241 0.21379916 0.056113634 0.21293871 -0.07947124 -0.13732213 -0.2728243 -0.07425368
-0.24093199 0.24055499 -0.10409027 0.19599669 -0.21477664 0.11720537 -0.18720397 0.14341189
0.065930754 -0.013196124 0.07251317 -0.1799984 -0.26749542 -0.014919549 -0.22380246 -0.20692402
0.23776993 -0.23760451 0.019228756 -0.18558164 -0.18378536 -0.14535797 0.20262873 0.111693315
0.046889067 0.066560864 -0.15288174 -0.16940479 -0.042245712 -0.2337427 -0.102608785 0.035772383
-0.15771824 0.15160497 0.2299106 0.0502627 -0.09868583 0.2215281 0.2583923 -0.1929867
-0.13608216 -0.28056303 -0.011496161 0.20328131 0.006853719 0.19080192 0.08683326 0.107550204
-0.22960438 -0.14401726 0.23297425 0.21010718 0.13485575 0.11363954 -0.14005217 -0.084842876
0.074281245 0.08633587 -0.06282754 -0.27272388 0.0105757285 -0.21840246 0.064781606 -0.2539636
-0.23801653 0.11356839 0.19266936 0.13882118 -0.10932747 0.030597048 -0.086842135 0.016436506
0.1980826 -0.15373716 -0.040164188 0.22270498 0.14262599 -0.04777178 -0.22527847 0.12422007
-0.22601971 -0.10458535 0.08313509 -0.1642285 0.2707031 0.24765022 -0.22582173 -0.15419337
-0.25183943 -0.17191952 0.2310786 -0.042305965 0.2410532 -0.1793761 0.24749956 0.24292408
0.26736358 0.13689817 0.11190324 -0.26774684 -0.06422913 0.13402253 -0.20746757 0.0017795222
0.24822035 -0.013923556 -0.2316159 -0.023764774 -0.09616122 -0.19654575 0.21231896 -0.26579916
0.065278605 -0.058407657 0.07298882 0.2018971 -0.18813899 -0.07238409 0.030585112 -0.122931294
0.01501292 0.24715213 -0.1850246 0.13219145 -0.007852094 -0.1256921 -0.0034509085 0.21457894
0.29344732 -0.018347025 0.14417614 0.043014973 -0.07974064 -0.015974045 -0.18347336 -0.1269392
0.27393803 -0.17847365 -0.026390404 0.18103409 -0.13641891 -0.13780661 -0.16484743 -0.11289303
-0.026041845 0.20027715 0.23382084 -0.19103852 0.0018232167 -0.26735425 -0.1557819 -0.21940234
-0.10772015 -0.021544812 0.23553008 -0.19516751 -0.23113061 -0.012765416 -0.25504923 -0.117172755
-0.08009317 -0.19231161 0.099393845 0.22565338 0.17804176 -0.247855 0.08456376 0.046356756
-0.13069364
00000000: dede eabd 4df8 1e3e 5ec5 efbd 1365 97bd
00000010: 5b56 76bd 1d99 70be 8851 fabd acd4 853e
00000020: c81b 66bd d59c e93d 7ed2 093e d4c2 30be
00000030: c012 a4bc f9df c53d 1ae4 673d 58da 273e
00000040: 1ad7 bdbd bea4 ffbd b200 103e 6438 e53d
00000050: b57f 423e 0087 d0bc 2b16 ee3d 9c87 2f3e
00000060: 2726 adbd cc1e 9d3d b28c 3fbe c80c 4b3d
00000070: 3ede 29be b894 d1bd 22c4 203e d7a7 3d3e
00000080: 51bd b3bd 93f8 6cbe 8fd8 263d 50f3 f7bc
00000090: 6dfd 72bd 4429 d9bd 584c d5bd f3f7 17be
000000a0: 00f9 b63b 998c 593d aecc 89be c4a9 113e
000000b0: 8439 3abe eb67 a03d 0a9c f43b 46b1 893d
000000c0: f60d daba 2bee 5a3e 69d7 653d 9b0c 5a3e
000000d0: d1c1 a2bd 2c9e 0cbe a0af 8bbe 5012 98bd
000000e0: e0b6 76be 0c54 763e 482d d5bd 5bb3 483e
000000f0: 68ee 5bbe 5e09 f03d 66b2 3fbe 91da 123e
00000100: b406 873d 8e34 58bc c981 943d 8051 38be
00000110: 29f5 88be 2071 74bc 792c 65be e4e3 53be
00000120: f679 733e 994e 73be a085 9d3c 1d09 3ebe
00000130: 3b32 3cbe b8d8 14be e87d 4f3e 77bf e43d
00000140: c00e 403d 1051 883d 088d 1cbe 7378 2dbe
00000150: d709 2dbd 3f5a 6fbe 8e24 d2bd 1086 123d
00000160: e480 21be 553e 1b3e af6d 6b3e 43e0 4d3d
00000170: cc1b cabd 43d8 623e ff4b 843e 4e9e 45be
00000180: 1f59 0bbe f5a5 8fbe 655a 3cbc fa28 503e
00000190: 2995 e03b 9461 433e a3d5 b13d 4843 dc3d
000001a0: 691d 6bbe 4379 13be cd90 6e3e 5626 573e
000001b0: a017 0a3e d9bb e83d d669 0fbe 1ac2 adbd
000001c0: c420 983d dcd0 b03d baab 80bd 77a2 8bbe
000001d0: d245 2d3c e5a4 5fbe 38ac 843d 8407 82be
000001e0: 9bba 73be 8b96 e83d 1e4b 453e 2427 0e3e
000001f0: 15e7 dfbd a9a6 fa3c 4ada b1bd daa5 863c
00000200: 2ad6 4a3e 466d 1dbe 3483 24bd c60c 643e
00000210: 8c0c 123e 58ac 43bd 66af 66be 1867 fe3d
00000220: b671 67be d830 d6bd bb42 aa3d 842b 28be
00000230: 9999 8a3e 0598 7d3e d03d 67be dee4 1dbe
00000240: 19f1 80be ac0b 30be de9f 6c3e 0549 2dbd
00000250: a6d6 763e 5eae 37be 8670 7d3e 17c1 783e
00000260: e1e3 883e 092f 0c3e 872d e53d 1d16 89be
00000270: 908a 83bd 343d 093e 6172 54be db3e e93a
00000280: 7a2d 7e3e a01f 64bc b82c 6dbe 58ae c2bc
00000290: 2cf0 c4bd 4a43 49be 246a 593e d416 88be
000002a0: cab0 853d de3c 6fbd 2a7b 953d 1dbe 4e3e
000002b0: 82a7 40be 1c3e 94bd a18d fa3c 67c3 fbbd
000002c0: c0f8 753c 7315 7d3e 1777 3dbe 325d 073e
000002d0: 12a6 00bc 6eb5 00be a328 62bb 95ba 5b3e
000002e0: ba3e 963e 804c 96bc e9a2 133e 7830 303d
000002f0: 104f a3bd 00dc 82bc 71e0 3bbe 5afc 01be
00000300: 9b41 8c3e ccc1 36be b030 d8bc 0061 393e
00000310: 66b1 0bbe 2d1d 0dbe c4cd 28be 7634 e7bd
00000320: b555 d5bc 7415 4d3e bb6e 6f3e 9a9f 43be
00000330: 00f9 ee3a a8e2 88be 4a85 1fbe 02ab 60be
00000340: 629c dcbd bf7e b0bc cc2e 713e fed9 47be
00000350: 81ad 6cbe 0926 51bc d095 82be 45f8 efbd
00000360: e307 a4bd 56ed 44be 008f cb3d ae11 673e
00000370: 9450 363e b3cd 7dbe c42f ad3d 95e0 3d3d
00000380: 8ed4 05be

encoder/encoder_dense_1/BiasAdd/ReadVariableOp:0 f4 [75]
0.0 -0.019918822 -0.0065966905 0.00023202742 -0.012390351 0.0 0.0 0.009460881
0.0 -0.013014367 -0.013251333 0.0 0.0 -0.022381855 -0.011294237 0.021158975
0.011374673 0.0 -0.011423919 0.010289441 0.026141454 0.030444324 -0.0035194245 -0.018516129
0.0062106675 0.010414025 0.0 -0.016075922 0.0 0.0 0.02382065 -0.00730055
0.015405697 -0.031308737 0.0072818142 0.0 -0.0114076445 0.0 0.0 0.0
0.0 0.0031643086 0.0 -0.0032981606 0.0 0.021357173 0.01611162 0.015117793
0.023502935 0.019395398 -0.016429093 0.013550151 -0.013045851 0.0 0.0 0.0
0.0 -0.018623764 0.0 0.008537961 0.013216732 0.050570164 0.0 0.004730389
0.0 0.026645625 -0.019692771 0.0 0.0 0.0 0.0 0.0
-0.04490596 -0.0092667965 0.0
00000000: 0000 0000 cc2c a3bc 0d29 d8bb 634c 7339
00000010: e600 4bbc 0000 0000 0000 0000 d001 1b3c
00000020: 0000 0000 363a 55bc 1e1c 59bc 0000 0000
00000030: 0000 0000 275a b7bc 770b 39bc 9655 ad3c
00000040: d65c 3a3c 0000 0000 642b 3bbc 0b95 283c
00000050: 9a26 d63c 6066 f93c 25a6 66bb 23af 97bc
00000060: db82 cb3b 969f 2a3c 0000 0000 a7b1 83bc
00000070: 0000 0000 0000 0000 8623 c33c 7439 efbb
00000080: 2d68 7c3c 973d 00bd 499c ee3b 0000 0000
00000090: 21e7 3abc 0000 0000 0000 0000 0000 0000
000000a0: 0000 0000 4a60 4f3b 0000 0000 f425 58bb
000000b0: 0000 0000 3df5 ae3c 84fc 833c 9fb0 773c
000000c0: 3a89 c03c 19e3 9e3c 4e96 86bc 7401 5e3c
000000d0: 44be 55bc 0000 0000 0000 0000 0000 0000
000000e0: 0000 0000 dd90 98bc 0000 0000 cee2 0b3c
000000f0: fe8a 583c a922 4f3d 0000 0000 6101 9b3b
00000100: 0000 0000 ed47 da3c bc52 a1bc 0000 0000
00000110: 0000 0000 0000 0000 0000 0000 0000 0000
00000120: 50ef 37bd c3d3 17bc 0000 0000

encoder/dense_4/MatMul/ReadVariableOp:0 f4 [75, 5]
-0.06699297 0.13815768 -0.18158722 0.061925966 -0.018987218 0.16151658 -0.028395427 -0.08820198
0.04229763 -0.14071026 0.18124679 0.26474342 0.019912213 -0.1913126 -0.22683091 0.105049156
0.1331197 0.21776804 0.17440256 -0.22823752 0.25600797 -0.15781505 0.27391744 0.20795302
-0.11954912 0.082018085 0.029615376 -0.2569268 0.23556064 -0.24616751 0.098877475 0.21275967
-0.23306221 -0.20711589 -0.18421657 0.07321218 0.2772895 -0.2716442 -0.10864483 -0.24416158
0.13937919 0.22344777 0.18621363 0.20932402 0.0121550625 -0.040147685 -0.07385643 0.13556395
0.15114361 0.21553433 -0.11226992 -0.22226128 0.1382392 0.23753712 -0.2113447 -0.10401609
-0.24894747 -0.28666818 0.09925783 0.14373048 0.1665084 0.13140394 -0.24675958 -0.17376128
-0.009763485 -0.155761 -0.09555212 0.066527575 0.0062735216 0.00842574 -0.10512015 -0.15291007
0.10489898 0.11608338 0.011803429 0.22376336 0.10243662 0.2227001 -0.08757268 0.19454059
0.015758127 -0.24249059 0.12305667 0.2587023 -0.0692105 0.13720194 -0.11135122 -0.106707804
-0.010152448 0.036382914 0.23547122 -0.2621633 -0.029364554 0.13935363 0.28185993 -0.12388928
0.2557453 0.1532853 0.05288855 -0.2519457 -0.06050737 -0.23472837 0.15721968 0.012277767
0.25290248 -0.20463237 0.24152352 0.21841167 -0.17783776 0.048558082 -0.10928809 -0.019939091
0.20787036 0.11101294 0.24472333 0.038735453 0.049370248 -0.03771084 -0.22109263 -0.057133738
0.2199566 -0.22352566 0.06034648 -0.20930059 -0.08129894 0.08045447 -0.023977038 -0.202701
-0.17751071 0.14162962 0.22882251 0.011289153 0.044837 -0.117397726 -0.040291525 0.11990327
0.22564797 -0.2627776 0.057109706 -0.14755744 -0.06945665 -0.10333434 0.2583257 0.00081412285
0.08793005 0.09185739 0.17850687 0.08994128 -0.11133577 0.010320213 -0.061170448 0.14445142
-0.23392366 -0.010889756 0.2118 -0.1436503 0.03655594 0.13469684 0.19262414 -0.24713193
0.07059637 0.092341095 0.007923417 -0.09470519 0.1646109 -0.05727226 -0.20096043 0.010140503
-0.20816323 0.06843617 -0.19164997 0.17614213 -0.072908975 -0.035846 0.021610547 0.105554834
-0.039266445 -0.19584961 -0.0018291778 0.2654952 0.21178111 -0.07184883 -0.26336282 0.012306088
0.24003614 0.25113043 -0.10840977 -0.119221896 0.2889876 0.19077827 0.1532305 0.15311861
0.06288268 0.05365434 -0.190169 0.06078991 0.19540311 0.046526488 0.18387564 0.18826135
0.005510657 -0.05665603 -0.043467376 -0.101921715 -0.23827088 0.18650089 -0.22651713 0.009419945
-0.17292093 -0.24342221 0.12164133 0.004151079 0.11419098 0.20182198 -0.081547484 0.21805753
-0.13163777 0.14163923 -0.18056002 -0.098474674 0.122996315 -0.12086937 0.19682254 -0.17412879
-0.1317262 0.20062327 -0.087468736 0.19326846 0.21363966 -0.15769428 -0.15573794 -0.16006465
-0.06939504 0.08729409 0.17076199 -0.09234023 0.068483815 0.1459255 0.27845493 0.23302746
0.08798968 -0.20832367 -0.10376789 0.13770334 -0.26331353 0.10814658 -0.0439693 0.08162543
-0.057868462 0.094297394 0.04224511 0.10157924 -0.08837341 -0.27244952 0.022587921 0.014789828
00000000: 9c33 89bd 3579 0d3e 00f2 39be 15a6 7d3d
00000010: 158b 9bbc 9a64 253e 879d e8bc 3da3 b4bd
00000020: 4840 2d3d 5a16 10be c298 393e 738c 873e
00000030: f01e a33c 73e7 43be 5d46 68be 0324 d73d
00000040: 8850 083e 96fe 5e3e 9696 323e 19b7 69be
00000050: 7a13 833e 459a 21be e83e 8c3e a3f1 543e
00000060: 2bd6 f4bd 19f9 a73d f29b f23c e98b 83be
00000070: cf36 713e 5613 7cbe 4680 ca3d acdd 593e
00000080: dca7 6ebe 3016 54be 45a3 3cbe 44f0 953d
00000090: e4f8 8d3e f314 8bbe 2e81 debd 7e05 7abe
000000a0: 6bb9 0e3e 7ecf 643e c9ae 3e3e 0959 563e
000000b0: 0726 473c e671 24bd 0a42 97bd 47d1 0a3e
000000c0: 64c5 1a3e 08b5 5c3e c6ed e5bd 7698 63be
000000d0: 948e 0d3e ee3c 733e bf6a 58be 6306 d5bd
000000e0: 16ec 7ebe 2cc6 92be b047 cb3d 152e 133e
000000f0: 2e81 2a3e c18e 063e 8bae 7cbe 7aee 31be
00000100: 06f7 1fbc d07f 1fbe d4b0 c3bd 9c3f 883d
00000110: 1d92 cd3b 1d0c 0a3c 3c49 d7bd 7594 1cbe
00000120: 47d5 d63d 20bd ed3d 2b63 413c 3922 653e
00000130: 4aca d13d 7f0b 643e 4e59 b3bd a635 473e
00000140: 3017 813c 744f 78be 2305 fc3d a174 843e
00000150: 3cbe 8dbd aa7e 0c3e 1c0c e4bd 9f89 dabd
00000160: 7456 26bc 4006 153d 5e1f 713e 453a 86be
00000170: ef8d f0bc b8b2 0e3e f24f 903e aab9 fdbd
00000180: 0cf1 823e d2f6 1c3e aaa1 583d 07ff 80be
00000190: 93d6 77bd a25c 70be 32fe 203e b028 493c
000001a0: 6f7c 813e 268b 51be f151 773e 4fa7 5f3e
000001b0: 1a1b 36be d7e4 463d 6fd2 dfbd 4e57 a3bc
000001c0: f8db 543e c15a e33d c198 7a3e 11a9 1e3d
000001d0: 7538 4a3d af76 1abd 1b66 62be 1105 6abd
000001e0: 4e3c 613e e9e3 64be df2d 773d e552 56be
000001f0: 0f80 a6bd 50c5 a43d 7e6b c4bc da90 4fbe
00000200: 5ec5 35be 5b07 113e 7350 6a3e 24f6 383c
00000210: 01a7 373d 386e f0bd ba08 25bd d88f f53d
00000220: 4310 673e c98a 86be deeb 693d 4c19 17be
00000230: 4a3f 8ebd f4a0 d3bd 4443 843e dc6a 553a
00000240: ac14 b43d ba1f bc3d 81ca 363e 2233 b83d
00000250: 0204 e4bd 1c16 293c dd8d 7abd 13eb 133e
00000260: af89 6fbe f26a 32bc 19e2 583e 1019 13be
00000270: aebb 153d f8ed 093e 433f 453e 2710 7dbe
00000280: d494 903d 541d bd3d 38d1 013c cbf4 c1bd
00000290: c38f 283e 5196 6abd 92c8 4dbe 5a24 263c
000002a0: be28 55be 4328 8c3d e43f 44be 9a5e 343e
000002b0: 4d51 95bd 41d3 12bd 9a08 b13c 222d d83d
000002c0: dad5 20bd cd8c 48be 06c1 efba fdee 873e
000002d0: 26dd 583e 7b25 93bd 7ed7 86be 799f 493c
000002e0: 09cc 753e 2b94 803e f105 debd 9c2a f4bd
000002f0: 2ff6 933e 615b 433e 75e8 1c3e 20cb 1c3e
00000300: a2c8 803d a7c4 5b3d aabb 42be d7fe 783d
00000310: c117 483e 8f92 3e3d e549 3c3e 95c7 403e
00000320: be92 b43b 2710 68bd d90a 32bd 55bc d0bd
00000330: 48fd 73be 17fa 3e3e 1bf4 67be 1d56 1a3c
00000340: 2f12 31be ac43 79be 171f f93d c605 883b
00000350: f6dc e93d 6caa 4e3e 5e02 a7bd 794a 5f3e
00000360: 0dcc 06be e009 113e bae4 38be 17ad c9bd
00000370: 7ee5 fb3d 5c8a f7bd d98b 493e d14e 32be
00000380: 3ce3 06be 3070 4d3e cf22 b3bd 2be8 453e
00000390: 5bc4 5a3e 9c7a 21be c479 1fbe fde7 23be
000003a0: fd1e 8ebd 3ec7 b23d 3bdc 2e3e e01c bdbd
000003b0: 3e41 8c3d 7f6d 153e a591 8e3e c09e 6e3e
000003c0: ef33 b43d cd52 55be 4284 d4bd 1b02 0d3e
000003d0: 08d1 86be f47b dd3d 2719 34bd 3c2b a73d
000003e0: 7b07 6dbd fe1e c13d 3509 2d3d c708 d03d
000003f0: 1efd b4bd 817e 8bbe 4e0a b93c 0951 723c

encoder/dense_4/BiasAdd/ReadVariableOp:0 f4 [5]
0.0076571903 0.023601025 0.03571434 0.017451242 0.013877286
00000000: 2be9 fa3b f056 c13c 3349 123d e8f5 8e3c
00000010: 8e5d 633c
