onnx_inference/april_3_2024_decoder.onnx (onnx, 74054 bytes, 10 tensors)

decoder/dense_5/MatMul/ReadVariableOp:0 f4 [75, 3]
00000000: 07ff 89be 9b18 3cbe ed9c f23d 20d3 35be
00000010: 2565 0a3e 4f5b b43d 0932 463d 4108 25be
00000020: 2578 f7bd ca9f d33d daa2 aebd 1b54 c73d
00000030: 2a1b 893d 76dc 3abe 819f 723e b6c1 163e
00000040: ae13 17be b0da 2dbe 9b44 9a3d 73ef 38be
00000050: 5fea ecbb 7871 153e 46eb 2fbe e70d 1ebd
00000060: 65e4 143d 87a0 573e 7afd e5bb 5ed5 513e
00000070: 161d edbc 507a 333e 3370 863e 542d a53d
00000080: 0e46 7dbe cc07 853e 20b8 833e 7255 2abd
00000090: 881e 85be acea 6ebd db92 edbd ff7f 513d
000000a0: 4b79 2dbd a3b4 533e d6ea e03d 8cc8 0d3d
000000b0: 1c2f 1abe 61ee 613d 7ba6 87be a151 45be
000000c0: 5573 133e 4fd1 56be 8c7e abbd f4e8 48be
000000d0: 57c2 59bd 99d6 463e 9580 29be e6ff 54bd
000000e0: d6db d53d e345 3cbe 490c 76be 9531 0fbe
000000f0: c17e 81bd a835 64be 8fa6 063e 4907 633d
00000100: d232 36be 9f41 a7bc f152 a1bd 7b9a 60be
00000110: 6e93 333d 3bef 8a3e 7cbe 113e 368e e1bd
00000120: 5038 6d3e c643 3bbe 912e 223d d08e 5a3e
00000130: 8e2a 40be 5d29 293e 98cf 163b 6e59 85be
00000140: 25b2 893d 4201 a3bd 56a6 543e 4a8d 86ba
00000150: da34 ffbd a678 d43d 02c6 4abe 1812 873e
00000160: f967 83bb 4b3a 853e 853c b73d ece0 813e
00000170: 851a 143d 463e 2c3c 0a89 a83d 2989 00bd
00000180: c0c8 863d 7c7a 0f3e b154 0fbe 7fa8 663e
00000190: dc45 2fbe b504 3d3e a7b9 e6bc 2b53 353d
000001a0: 737e c8bb 26a4 3c3e 9300 733e ed44 94bd
000001b0: 8a2d 8a3c d7c4 7a3e dff8 77be 1977 47be
000001c0: 2958 c23c b399 d7bd e0ba b5bc e138 82be
000001d0: e28a 56be 6fb8 98be 1297 d33d 05b9 72be
000001e0: 209f 33bc cee3 793e b6e4 913e 4a97 803e
000001f0: b37a 543d d78b c3bd 4eaf 13be f81b 57bc
00000200: 7a8c 443e 44ce 4b3e e5dc 80bd 6ee6 a1bd
00000210: 67c9 283d e8f3 9a3d 35e4 0ebc 8720 4ebe
00000220: fc50 8a3e 93a5 56be 4103 7abe 7f75 99bc
00000230: 96a0 d53d 512f 2dbe 54c7 6abe a47c 0c3e
00000240: 38c7 f1bc b1fb 5fbe 72b1 13be 0f13 2c3e
00000250: d00d 74be a5d2 b9bd b29a 183e 88a3 8b3e
00000260: de24 86be 6953 44be 49ff 7cbe 55b5 173b
00000270: 2e74 423e c75f f73c 6210 0c3e 1ef9 f2bb
00000280: ad01 98bc 0cc1 de3d 7e55 5fbe fd84 013e
00000290: 71a1 5abe 9077 87bc 0c21 b13d 2114 4c3e
000002a0: 8d23 523c 5626 6f3e 3d56 733d ce1a 033e
000002b0: 5c50 7dbe 3e43 3c3e b7cf 32be fac8 0dbe
000002c0: 7f9c 5f3e f694 37be 0871 47be 06dc 283e
000002d0: 2df4 2e3e 97f4 613e 65d5 b1bc e077 8cbe
000002e0: d181 7bbd 7b32 0abe 9454 583e 2b41 643e
000002f0: ff14 e9bd 01bd 703d d978 b43d 573a ce3d
00000300: 5148 6b3e d857 7e3e a664 4bbe da01 53be
00000310: 280b 86be f0e1 c13d 35b3 6a3e 8eee 47bd
00000320: e983 813e 9e16 7cbd 3e96 933a d049 14be
00000330: 4c50 cc3d c37e 03be f09c 31be f113 e23d
00000340: 8c03 c23d ecda 083e ee1f 643e e3dc d2bc
00000350: 0483 b63e 97f6 fb3c 8d35 4a3e 9f9d 213e
00000360: 0e83 843d 1db8 463e c2fa 503e 7c6d ad3d
00000370: d39a 9d3b 29af 58bb cac0 9e3c 659e f0bd
00000380: a914 853c
-0.26952383 -0.18368761 0.118463375 -0.17756319 0.13515146 0.08806478 0.04838756 -0.1611643
-0.120834626 0.10333212 -0.08527155 0.09732839 0.06694634 -0.18248162 0.23693658 0.14722332
-0.14753601 -0.16977954 0.07532617 -0.18060093 -0.0072300876 0.14594066 -0.17179593 -0.038587477
0.036350626 0.2105733 -0.007018742 0.2049155 -0.028944533 0.17527127 0.26257476 0.08065286
-0.24733755 0.2598251 0.25726414 -0.041585393 -0.25999856 -0.05832927 -0.11600276 0.051147457
-0.042352002 0.20674376 0.109822914 0.034615085 -0.15057033 0.055158976 -0.26494202 -0.1926942
0.14399464 -0.20978282 -0.08373746 -0.19620115 -0.053163853 0.194178 -0.16552956 -0.052001856
0.10442321 -0.18386035 -0.24028124 -0.13983758 -0.063230045 -0.22286093 0.13149475 0.05542687
-0.17792824 -0.020417033 -0.07877148 -0.2193393 0.04384177 0.27135643 0.1423282 -0.11013453
0.23166013 -0.18287572 0.03959519 0.21343541 -0.18766233 0.16519685 0.002301192 -0.26044792
0.067234315 -0.07959224 0.20766577 -0.0010265496 -0.124612525 0.10374574 -0.19802096 0.26380992
-0.0040101972 0.26021037 0.0894709 0.25366914 0.036158103 0.010512894 0.08229263 -0.031380806
0.06581259 0.14011568 -0.13997151 0.22525214 -0.17116493 0.18458827 -0.028164698 0.04426877
-0.0061185895 0.18421993 0.23730688 -0.07239709 0.016867418 0.24489151 -0.2421603 -0.19479026
0.023723679 -0.10527363 -0.022183836 -0.2543402 -0.20951417 -0.29828212 0.10331549 -0.23703392
-0.010963231 0.24403307 0.28494805 0.25115424 0.051874828 -0.09548157 -0.14422342 -0.013129227
0.19194213 0.19902903 -0.06292132 -0.07905279 0.041207697 0.07566053 -0.008721401 -0.20129596
0.2701491 -0.20961599 -0.24415304 -0.018732784 0.1043102 -0.16912581 -0.229276 0.13719422
-0.02951394 -0.21873356 -0.14423159 0.16804145 -0.23833394 -0.090733804 0.14902762 0.27273202
-0.26200002 -0.19172443 -0.24706759 0.0023148854 0.18989632 0.030197037 0.13678125 -0.007414951
-0.018555487 0.108766645 -0.21809956 0.12648387 -0.21350648 -0.016536504 0.08648881 0.19929554
0.012825859 0.23354468 0.059408415 0.12803194 -0.24737686 0.18385026 -0.1746205 -0.13846198
0.21837042 -0.17927918 -0.19476712 0.16490182 0.17085333 0.2206596 -0.0217082 -0.27435207
-0.0614031 -0.1349582 0.21126014 0.22290485 -0.11380958 0.058774 0.08812112 0.10069721
0.22976805 0.24838197 -0.19862613 -0.20606175 -0.26180387 0.09466922 0.22919925 -0.048811488
0.25295952 -0.061545007 0.0011259986 -0.14481282 0.09976253 -0.12841325 -0.17345023 0.1103896
0.09473333 0.13364762 0.22277805 -0.025740093 0.35646832 0.030757232 0.1974699 0.15782784
0.06470309 0.19406171 0.20408157 0.08468148 0.0048097163 -0.0033063388 0.019379038 -0.11748961
0.016245203

decoder/dense_5/BiasAdd/ReadVariableOp:0 f4 [3]
00000000: 6f01 833c 5128 c13b 68d0 3a3c
0.015991895 0.0058946987 0.011402227

decoder/decoder_dense_4/MatMul/ReadVariableOp:0 f4 [75, 75]
00000000: 77b2 1cbc 2e93 093e 125f 30be 9063 cfba
00000010: 6ea0 0a3d e0d1 2fbe 48fd 34be 9c9e 69bc
00000020: a523 36be 689f 153e adac 2cbd 83c5 32bd
00000030: 725f 423e 181e 0e3d 3986 28be 00ef 4bbc
00000040: 2758 01be a402 49be f28c b43b b9ed e63d
00000050: 0e31 853d 85c0 efbb 4911 2bbe 04c7 d63d
00000060: 1e56 da3d 733d 1abe 7256 363e 8629 c7bd
00000070: 75a1 7e3b f954 2b3e 1f70 a5bc 646e 18be
00000080: 567a 09be 9cfc 2dbe 73c0 433e f3f9 2f3e
00000090: cccd f53d 7185 d63c 33fd 323e e683 8a3d
000000a0: 7431 593e 75ae bfbc 2d80 473e 9492 363d
000000b0: 6d39 01be a2f0 083d 07bf 15be 98d6 af3c
000000c0: 370d 213e 3d8a 853d b1d4 aebd f77e 9d3d
000000d0: 0ae2 363e e7ad c83d 5dec 3f3d 542c 463d
000000e0: 3863 15be b3b8 763d b1d3 203e 49f4 9fbd
000000f0: 1390 4b3d f3ea cfbd 23e4 213e ed6c 2d3e
00000100: 06bf a8bd c671 11bd c285 213e 5029 953c
00000110: 8801 74bd 2b89 d0bc 3456 0cbe 0a6d fcba
00000120: df81 8cbb 904e edbd 3f79 37be 1da5 afbd
00000130: 4400 14be 80f0 a93d 8c0c b83d 1ccb f43b
00000140: 4849 2d3c 2850 2e3d fd29 cbbd 0544 383e
00000150: 23a6 f13d 2623 f0bd 70d6 1d3d 228c 22be
00000160: 1483 88bd b101 b7bd 53e9 2fbe 0811 19be
00000170: dd0d a23d 6951 463d 7e51 343e 6150 2a3e
00000180: 6440 c53d 12c0 49be 8589 a4bd d899 f23d
00000190: ff67 8d3d 2b1b 48be c585 eb3d 0854 073d
000001a0: 40ff 2c3d c5fc e2bd abfc 86bd 3c51 8fbc
000001b0: 1cf0 3b3e 56bc 05be b058 483e 2a6b 29be
000001c0: 20a1 1dbd 47d1 4e3d 8f89 3dbe 9f4a 14be
000001d0: 31af adbd 8a91 49be ef17 a23c c780 a8bd
000001e0: 3fb8 df3d 54c7 173d 8a32 09be c13d 083e
000001f0: 5208 53bd b213 c4bd 0e0b a03d 9469 b1bc
00000200: 74af fb3d 8eb2 ea3d d09c 4abe af07 a6bd
00000210: 1b53 383e 5fdf 283e e390 2c3e f837 5e3d
00000220: 9510 d33d a95c 483d 38f9 debd 6b80 39be
00000230: 9b37 903d dd1d 04be bec7 12be 7928 093e
00000240: 7910 c03c 201a 04be 2607 acbd 8bd1 31be
00000250: 4490 49bd 5807 34bd 780f 273d dccf 2dbe
00000260: 6788 373e 1950 683d b067 2dbe 0020 6a3b
00000270: 2a3b 793b 9244 5a3d f4e5 7d3d b549 383e
00000280: a20c febd f1d4 153e 4879 febc be9d 073e
00000290: 8055 a83d 60dc cabd 3495 f7bd 6347 4dbe
000002a0: 7779 c8bc 3848 d33d 18cd 2bbd 335e 413e
000002b0: 862c 3a3e 4157 8dbb 103e 493e b8af 013e
000002c0: d77a 073e 7124 3dbe f75e 3dbe 60e6 8cbd
000002d0: fc16 cebd 04a2 193e e264 9fbd 4994 503e
000002e0: 8db3 14be 3afc 22be cc10 d6bd 4484 333e
000002f0: f5af a63d bb80 d2bd df2d 3dbe 7c1d cfbd
00000300: aca6 5ebd e641 c8bd 7728 82bd cbf9 5b3d
00000310: 8227 993d 2045 18be 5a6e 8e3d 9c1c 383e
00000320: dcd3 623d b096 36be 0e9e 143e cb96 35be
00000330: 8348 4f3d 918b 61bc 67b3 123d 9c07 1c3e
00000340: 19af 86bd 59e6 983d 70ea 14bc 7726 90bd
00000350: fa59 97bd b127 7e3d 3af8 2dbe 18e2 54bd
00000360: a7a7 53bd 1cf9 a0bd 56a1 ecbd cd63 30bd
00000370: df55 0b3e fd25 193e 39ce 4dbd ee0e 043e
00000380: e8cb 61bd 310b dcbd 1430 53bd 8f4f 213e
00000390: 14cf d83c cbe7 b5bd 2809 843d c82f 01be
000003a0: 199c f0bb 9fb3 153d 48de 0dbe 137e 453d
000003b0: 9082 14be 30d5 98bc 82d0 ce3d 677d 263e
000003c0: 00e8 ec3b eee0 22be 9a5f 373e dff9 e4bd
000003d0: b62e c1bd d8a7 74bd 6fb8 063e aa9e b3bd
000003e0: bbc0 833d c9f2 4a3c 9ff4 673d 3fa5 10be
000003f0: 1b01 753d 7409 4abe 0daa 143e 5f86 1e3e
-0.009564034 0.13435051 -0.17223766 -0.0015822519 0.033844404 -0.17169905 -0.17674744 -0.014259007
-0.17787035 0.1461159 -0.042156864 -0.043645393 0.18981722 0.03469667 -0.16457452 -0.012447119
-0.12631284 -0.19629914 0.005509966 0.11275811 0.06503497 -0.0073166513 -0.16705813 0.10487178
0.10660957 -0.15062504 0.17806414 -0.09724717 0.003885356 0.16731633 -0.020195065 -0.1488586
-0.13425574 -0.16990894 0.19116382 0.17185192 0.12002143 0.026186677 0.174794 0.06763439
0.21210271 -0.023398617 0.19482489 0.04457338 -0.12619562 0.03343261 -0.14623652 0.021464631
0.15727697 0.065205075 -0.085366614 0.07690232 0.17859665 0.09798794 0.046856273 0.04838212
-0.1458863 0.060234737 0.15705754 -0.078102656 0.049697947 -0.10152235 0.15809684 0.16936083
-0.0823956 -0.035508893 0.15773681 0.018208176 -0.059571773 -0.025456032 -0.13704759 -0.001925857
-0.004287943 -0.1158725 -0.17917345 -0.08576415 -0.14453226 0.08297825 0.08986768 0.0074705016
0.010576554 0.04255691 -0.09920118 0.17994697 0.11799266 -0.11725454 0.03853458 -0.15873769
-0.06665626 -0.089358695 -0.1717885 -0.14947903 0.079128005 0.048417483 0.17609212 0.16632225
0.09631422 -0.19702175 -0.08034042 0.118457496 0.06904601 -0.19541614 0.11500124 0.033039123
0.042235613 -0.11083368 -0.06591161 -0.01749479 0.18353313 -0.13060126 0.19565082 -0.16544786
-0.03848374 0.05049255 -0.18509506 -0.1448159 -0.08480681 -0.19684425 0.019786803 -0.08227687
0.10923814 0.03705533 -0.13398185 0.13304807 -0.051521607 -0.09574069 0.078146085 -0.021656789
0.122893244 0.11459838 -0.19786382 -0.08106934 0.18000452 0.1649146 0.16852145 0.054252595
0.10305897 0.048916493 -0.108873785 -0.18115394 0.07041856 -0.12902017 -0.14334008 0.13394345
0.023445355 -0.12900591 -0.08399801 -0.1736509 -0.049209848 -0.043952316 0.040786237 -0.16973823
0.17923127 0.056717012 -0.16934085 0.003572464 0.003802965 0.05328805 0.06198688 0.17996867
-0.12404753 0.14632012 -0.03106369 0.13243768 0.08219433 -0.099053144 -0.12089005 -0.20046763
-0.024471981 0.10316509 -0.04194364 0.1888359 0.18181047 -0.00431338 0.19652581 0.12664688
0.13230453 -0.18470933 -0.18493257 -0.06879878 -0.10062978 0.1500321 -0.07782914 0.20369066
-0.14521618 -0.1591653 -0.104524225 0.17530924 0.0813903 -0.1027846 -0.1847453 -0.101130456
-0.05435817 -0.09778194 -0.06355374 0.053705018 0.07478239 -0.14870119 0.06954642 0.17979664
0.055377826 -0.1783092 0.14513418 -0.17733304 0.050606262 -0.013766185 0.035815623 0.15237278
-0.06576366 0.0746581 -0.009089097 -0.070385866 -0.073902085 0.06204957 -0.16989222 -0.051973432
-0.051673558 -0.07860014 -0.1155421 -0.043063927 0.13606976 0.14955898 -0.050245497 0.1289632
-0.0551261 -0.10744322 -0.051559523 0.15753005 0.02646593 -0.088821016 0.06447059 -0.12615883
-0.007342827 0.036548253 -0.13854325 0.048215937 -0.1450293 -0.018656343 0.100983635 0.16258775
0.007229805 -0.15906116 0.17907563 -0.11180472 -0.094327375 -0.05973038 0.13156293 -0.08770497
0.06433245 0.012386986 0.056629773 -0.14125536 0.059815507 -0.19730169 0.14517994 0.15480946

decoder/decoder_dense_4/BiasAdd/ReadVariableOp:0 f4 [75]
00000000: 1b36 dabb d3e5 5c3b 2bd2 1cbc 07d8 593c
00000010: 9f79 f33b 783d 98bc d0c8 2dbc 8050 2cbc
00000020: a157 dcbb 4348 8d3c 63a7 8e3c bc5f 613d
00000030: a2f0 57bc 814e 3b3c e457 d33b 0000 0000
00000040: ec17 0cbc c2cc 7dbc 2352 e8bb 1c94 18bd
00000050: 0000 0000 4279 dfb9 2cb8 12bc 5a85 453c
00000060: 90d4 9c3d f179 5d3c 7938 b439 5b63 03bc
00000070: d01b 5bbc 0000 0000 26cc a03b 0c64 32bc
00000080: a3c3 773b f4af 243c 0000 0000 5313 203c
00000090: 6bbe a7bc adf8 2abc d512 cfbb a17d cfbc
000000a0: 3773 123c 6d46 513c 8f0e 4cbc de30 a73a
000000b0: dd65 bc3b 0b3c 32bc 015d 86bc d4d5 f6bb
000000c0: 0000 0000 0cab 28bc 4390 5f3d 68f2 2ebc
000000d0: c491 793c d3bf db3b f939 7ebc 7403 57bc
000000e0: 7e13 e93b 878b 8b3b 1572 2bbd 003c 31bc
000000f0: 03d3 693c 02e9 4ebc 0637 69bc d96d 463c
00000100: 8e01 043c c1f0 96bc a0a4 4a3c 0a07 7cbc
00000110: 91f3 21bc 2bf8 393c 8836 2d3d c569 073c
00000120: 71b5 313c a381 713c 876d 67bb
-0.006659282 0.0033706322 -0.009571592 0.013296134 0.00743027 -0.018583998 -0.010606959 -0.01051724
-0.0067243134 0.017246371 0.0174138 0.05502294 -0.01317993 0.011432291 0.0064496864 0.0
-0.008550625 -0.015490713 -0.0070898696 -0.037250623 0.0 -0.0004262422 -0.008955043 0.012055719
0.076577306 0.013517843 0.0003437435 -0.008019294 -0.01337333 0.0 0.004907149 -0.010888111
0.0037805818 0.010051716 0.0 0.009770232 -0.02047654 -0.0104352655 -0.0063193836 -0.02532846
0.008938602 0.0127731385 -0.012454643 0.0012755652 0.0057494477 -0.010878573 -0.01640177 -0.0075328145
0.0 -0.010294687 0.054580938 -0.010677911 0.015232507 0.006706217 -0.015516751 -0.013123382
0.0071129194 0.0042585763 -0.041856844 -0.010817528 0.0142715005 -0.012628796 -0.01423431 0.012111151
0.008057011 -0.018425347 0.012368351 -0.015382538 -0.009884731 0.011350672 0.042288333 0.0082649635
0.010846482 0.01474038 -0.0035313086

decoder/decoder_dense_3/MatMul/ReadVariableOp:0 f4 [75, 75]
00000000: 3402 0e3d f08e 20bd b3f6 f6bd b63b 03bd
00000010: c811 173a d883 2b3e c2d3 cbbd 6bca 40be
00000020: 2402 6a3e 9229 ea3c 5433 213c b38b 3c3e
00000030: e8cd 353d 1718 f8bd 19ce f63d 17c3 123d
00000040: 783b dfbc fba7 263e 5489 123e ec65 023e
00000050: f208 3e3e e6e8 27bd a7b3 fcbd 7ed6 173e
00000060: 3dbf 00be 1f99 a4bc fc08 26be dcad b63d
00000070: 8d47 57be ec98 233d ba58 033e 96db 1cbe
00000080: e754 e8bd f71b b93d fa33 0fbe 42e1 243a
00000090: 95c9 803d 4787 42bd 863d 05be 50fb 5abd
000000a0: e8e3 fcbc 57e0 063d ddc2 8bbd c79b 163e
000000b0: 01af d13b 2d85 08be c53e ccbd 8d97 70bd
000000c0: 9a44 16bd f4f6 efbb 59f7 493e 6e44 573d
000000d0: 16dd 753d ae26 9abd db12 ab3d 6d58 3d3e
000000e0: 21ac 8d3c 4881 00be 8eca a53e 7233 1c3e
000000f0: a4c2 5ebc 907d b5bd 75fb 93bd b978 12be
00000100: c218 f3bd 5eda a7bd e52f dfbd c62a 0dbe
00000110: daff 91be 2f45 b2bc 8aa7 523e 2c7e 1ebe
00000120: 4277 a8bd 4632 49be 8d2f 44bd b50d d2bd
00000130: 954a 05be 1244 35bd a5fb 2cbe 7188 4cbe
00000140: b2b0 f93d 0e19 08be ca1e fc3b ffba 56be
00000150: 13e1 b1bb e6bd b73d 5aad d0bd 748f ff3d
00000160: 0199 9c3d 762f 44be c71a 2a3e 3a09 613d
00000170: 127d 15bd bd40 043e 4a7d 3cbe 8754 a3bd
00000180: d651 4cbe db9f 85ba a2c8 c53d 3146 463e
00000190: 15c9 33be 2959 ee3c c3f4 e5bd 804a d93d
000001a0: 3ea0 0cbe c965 4fbd 3f2e 27be 5e97 0b3e
000001b0: ead5 41bb 22c3 b73d d57a 5f3c b74b dcbd
000001c0: 6305 d63d 7268 2d3e e5b3 2abe 0bb7 853d
000001d0: 645d 4a3e 47cd 6c3d dfa2 31be 3e56 cabd
000001e0: a621 0ebd 2ae0 bebd d92d 68be 33fb a8bd
000001f0: 46e0 e6b9 8531 1d3e 5858 113e 1cbb 033d
00000200: 8dac 083e b6d6 8a3d e63f 92bd 3f98 ce3d
00000210: e32b a13d e550 94bc bc8d 1abe b5fa 273e
00000220: 891a 09bd 7dfc ad3d 0fb7 4bbe 2812 dfbd
00000230: a46b 623d b35a e8bd 67b0 4abd 023b fd3d
00000240: 0430 143e 2cba 08be 22f8 093e 65f9 cf3d
00000250: 86e3 a2bd c4fb 17be 9f73 9ebd 7c16 62bd
00000260: 934f d9bd 5384 453e c5a3 293e 0da0 0abe
00000270: 2d2c 42be 406f 663b 8de0 2ebe 6a67 06be
00000280: 5ad7 f13d 114b 203c b223 cd3d 1c1e 77bd
00000290: b494 28be 04be 07be 869e 9a3d b8f8 48bd
000002a0: 76a6 d43d 458a 483e b4e4 13be aabc 2d3e
000002b0: 186f 943c 63d6 8bbc c0d2 0dbd be32 173e
000002c0: c0b4 f93b b037 943d 60c8 d5bb c39f 37be
000002d0: a56a bc3a 1866 59bd 1318 cebd 6249 953d
000002e0: 1862 dbbc 3ad7 cebd 3471 8fbd de3e 143d
000002f0: 0bbd 6b3d 8079 7cbb 008d 6b3c f1a7 333e
00000300: fbe6 03be 3a3a d8bd 83aa c1bd 723e 19ba
00000310: 7ea9 35be 189c 5dbd e268 df3d aab6 38be
00000320: c080 45bd 80e8 3c3d 924b a2bd 746e 0f3c
00000330: 9ad8 21be 2615 00be 6271 18bc b37a 183e
00000340: 6363 cdbd 30ba d2bc 2e7e 843d d3ae 2cbe
00000350: 190f 37be e1d3 473e 79fe 083e 576d b73d
00000360: bd92 483e 8577 40be 9aea 183e 99c5 df3d
00000370: b0e5 933c 24fa 4cbd e49b 6e3d 251f 5d3d
00000380: a32e 983d f501 af3d c858 1dbe c1e7 41be
00000390: 6e8c ee3d 18b4 25be b95d 08be 3e1d 53bd
000003a0: 4782 27be 70a3 0fbe 7a95 403e 239f 4e3d
000003b0: 9a72 ed3d 1eb4 883d 03d1 2b3d 6277 a43d
000003c0: 715e 49be 6478 c03d fc3b e5bd dd28 4a3c
000003d0: d479 b03d 50d2 f63c c369 39be 8bb6 91bc
000003e0: 053d 3bbd c70c 3bbe 95bf 26be 4860 c0bd
000003f0: 692b db3b 54c3 9a3d a5ca ad3c 81d2 103e
0.03467007 -0.039198816 -0.12058773 -0.032039367 0.00057628425 0.16749513 -0.09952499 -0.18827216
0.22852379 0.028584275 0.009838898 0.18412666 0.04438582 -0.1211397 0.12051029 0.035830583
-0.027250037 0.16275017 0.14310199 0.12734193 0.185581 -0.040993594 -0.123389535 0.14827916
-0.12572952 -0.020092545 -0.16214365 0.0891988 -0.21023388 0.03994076 0.12826815 -0.1531814
-0.11344319 0.09038537 -0.13984671 0.00062896695 0.06288449 -0.04749229 -0.1301175 -0.053462327
-0.030870393 0.03292879 -0.068242766 0.14707862 0.006399036 -0.13332053 -0.0997291 -0.05873828
-0.036686517 -0.0073231403 0.19723262 0.052555494 0.060025297 -0.07526909 0.08353206 0.18490763
0.017293992 -0.12549317 0.323811 0.15254 -0.013596211 -0.0886184 -0.07225696 -0.14303865
-0.118699566 -0.08195947 -0.10897807 -0.13785848 -0.28515512 -0.021761505 0.20571724 -0.15477818
-0.082258716 -0.19648084 -0.04789691 -0.10256521 -0.13016732 -0.04425437 -0.1689287 -0.19973923
0.12191905 -0.13290808 0.0076941 -0.20969771 -0.0054284423 0.08971767 -0.10189314 0.124785334
0.07646371 -0.1915873 0.16611777 0.05494044 -0.03649623 0.1291532 -0.18407169 -0.07975107
-0.19953093 -0.0010194735 0.09657408 0.19362713 -0.17557175 0.02909525 -0.11228325 0.10609913
-0.13733003 -0.05063418 -0.16326235 0.13631961 -0.0029576966 0.089727655 0.013640125 -0.10756629
0.10450246 0.16934374 -0.16670187 0.06529053 0.19762188 0.057812955 -0.17347287 -0.09879731
-0.03470006 -0.093201 -0.2267374 -0.082510374 -0.00044036115 0.15350921 0.14193857 0.032160863
0.13347073 0.06779234 -0.07141094 0.100876324 0.07869699 -0.01810498 -0.1509313 0.16404231
-0.03347257 0.08495424 -0.1989405 -0.10892135 0.055278435 -0.113454245 -0.049484637 0.123647705
0.14471442 -0.13352269 0.13473561 0.1015499 -0.07953553 -0.14842135 -0.07736897 -0.055197224
-0.10610881 0.19288759 0.1656638 -0.13537617 -0.18962164 0.0035161525 -0.17077847 -0.13125387
0.11808653 0.009783522 0.10016574 -0.06033145 -0.16462976 -0.13256079 0.07549767 -0.04906532
0.103833124 0.19583996 -0.14442712 0.16966501 0.01811938 -0.017070001 -0.034624815 0.1476545
0.007620424 0.07237184 -0.0065241307 -0.17932038 0.0014375044 -0.05307588 -0.100631855 0.07289387
-0.026780173 -0.10099645 -0.07004014 0.036192767 0.057553332 -0.0038524568 0.014376879 0.17544533
-0.12881081 -0.10557981 -0.09456351 -0.0005845792 -0.17740437 -0.05410394 0.10908677 -0.18038431
-0.04821849 0.046120167 -0.0792457 0.008754361 -0.15805283 -0.12508067 -0.009304376 0.14890556
-0.10028722 -0.025723547 0.06469379 -0.16863565 -0.17876853 0.19514419 0.13378324 0.08956402
0.19587226 -0.18795593 0.14933243 0.10926361 0.01805386 -0.05004324 0.058254138 0.05398478
0.0743077 0.08545295 -0.15365899 -0.18936063 0.116478786 -0.16181982 -0.13317002 -0.05154156
-0.1635829 -0.1402719 0.18807021 0.050444733 0.11594124 0.066749796 0.041947376 0.08030583
-0.19664933 0.09397963 -0.11193082 0.012338844 0.08616987 0.030129582 -0.18106751 -0.017787239
-0.04571249 -0.18266593 -0.1628402 -0.09393364 0.0066885245 0.07556787 0.021214793 0.14142801

decoder/decoder_dense_3/BiasAdd/ReadVariableOp:0 f4 [75]
00000000: df61 10bc e935 00bc 7d6f 6dbc ca6e dd3b
00000010: 0e4f 16bc 503c 40bc 0579 413d 9956 88bc
00000020: 7e95 2a3a 1fe7 4dbc a449 243c 4961 453c
00000030: 467a 74bc cae1 803b 1555 293c 165c e8bb
00000040: 7d06 d4bc be5a 8e3a dff5 cd3c 13fc 62bc
00000050: 8221 213c 5053 7f3c 5d6c 70bc 6402 a43c
00000060: 0000 0000 3663 293c 6637 803b 1c3e c93b
00000070: 2dd1 3dbc a88f 703c 2cb3 083c 2f8d 123c
00000080: 5a0b 963b 5531 053d c3b3 d93c 678c 823c
00000090: 2fe7 323b 4fb6 60bc 665c 45bc bbe4 03bd
000000a0: 146b c7b9 1001 963c 575a 7dbc 77c9 4cbc
000000b0: 1267 373c 2fdd 6cba f3e8 a5bb 4f25 57bc
000000c0: 849a 51bb 39ae 283d 3864 eb3b 2f68 abbc
000000d0: 11ff a7bb 446a f13b ed81 13bd 0000 0000
000000e0: 68fc a33a c36f 99bb 36cb d13c 4d8e 5fbc
000000f0: 1f33 dc3b ec9f a0bc 2995 6c3c a24b 5e3b
00000100: cdcc ab3b 5002 00bc 8bcb 873c 234c 8fbc
00000110: 88e3 44bd 97cf 513c 53f2 853d 0f1c ca3b
00000120: bd91 8f3b 8531 0abb c35a 423a
-0.008812397 -0.007825353 -0.014491913 0.006757592 -0.009174122 -0.01173313 0.047234554 -0.016642855
0.00065072614 -0.012567311 0.010027323 0.01204712 -0.01492173 0.003933166 0.010335227 -0.0070910556
-0.025882 0.0010860784 0.025141655 -0.0138540445 0.009834649 0.015583828 -0.014674273 0.020020671
0.0 0.010338595 0.003912854 0.006141437 -0.011585516 0.014682688 0.008343499 0.008944794
0.00457899 0.03251775 0.026574975 0.01593609 0.002729844 -0.013715341 -0.012045955 -0.032200556
-0.00038036017 0.018311054 -0.015463433 -0.012499205 0.0111940075 -0.00090356445 -0.00506317 -0.013131454
-0.0031982968 0.041181777 0.007183578 -0.020923702 -0.005126842 0.007367404 -0.03601258 0.0
0.0012511136 -0.0046825125 0.025609594 -0.013644767 0.0067199613 -0.019607507 0.014439859 0.0033919592
0.00524292 -0.007813051 0.016576549 -0.01749236 -0.048068553 0.012805841 0.0654036 0.0061678956
0.004381387 -0.0021086645 0.0007414037

decoder/decoder_dense_2/MatMul/ReadVariableOp:0 f4 [75, 75]
00000000: c69e b93d 6766 b43c 16de 21be a6e5 05be
00000010: ed36 e53d a891 2b3e 574e f73d 62ef 263e
00000020: d28e e73d cbf4 32be 0625 243e 2c9f c9be
00000030: db16 ad3d ca76 00be 47f5 2cbe d793 3f3e
00000040: c751 2a3e cc7e d13d 2d46 d63c 2bf0 92bd
00000050: 7852 00bf 54b6 bd3d 351b b43d 23fd 76bb
00000060: 4eec 9ebd 06ed 343d 08ab 0d3e 4939 05be
00000070: 3ff9 5b3d c1fa d63c 7f5a d73c 2b51 2d3d
00000080: cbfa a63d 5d67 443d 363f e4bd f6b7 4e3e
00000090: 697a d83c 44bc 56bd 9875 f4bd 3f14 933e
000000a0: 219d 453e 6383 1a3e 2733 953d d0dc d2bc
000000b0: 0357 d93e ac6a 1ebe 46a0 09be 36d3 973e
000000c0: ea22 12be 7c8f 103f f933 18bd e909 97bd
000000d0: 783a 7e3e 0700 b5bd a69c de3b d3ef 3c3e
000000e0: 3c38 21be ab74 f73a f735 a5bc b869 3d3e
000000f0: 85b7 ff3e 848d cb3d ea69 08be 8451 0e3d
00000100: f9c6 d73d 12f9 0a3e d1b6 d7bd 0bae 2f3e
00000110: 4ac1 103e a3ed 763b 42f3 28be 17c6 803d
00000120: db5b de3e 86c2 e73c cfde 563e f712 883d
00000130: 3bb3 2f3d 189c 4ebd 66b7 823d 65e0 c93c
00000140: 852e 493d 50c0 17bd ca79 2dbd 74fb 3dbd
00000150: 8533 42bc afe4 2fbd 82bf 98bc 2b12 e8bd
00000160: e301 09be d651 c0be 3c83 33be e2e5 443e
00000170: a197 82bc 9da7 39be d1f9 a93d 822b 143e
00000180: 5c33 25be b42f 523d 81a0 573c 0018 d23b
00000190: 3582 f63d 351b df3d 0a44 e2bd ea6c 0b3e
000001a0: db2a 3c3d d754 21bd 7725 2dbe 1a24 4dbd
000001b0: 1679 e9bd 9510 a4bc 81ee f8bc 3f50 0f3e
000001c0: ed38 15bd f825 2a3e 5e0a 3b3e ca50 f43d
000001d0: 40e5 b5bd 3ef0 233d b568 da3d 0f24 2fbe
000001e0: d0aa 19be cd27 cfbd a71d a03c a6a6 15be
000001f0: 5bc8 afbe fe1c f43d c675 fa3c f9c0 8d3d
00000200: c577 46be 1481 b53d 70bf 10be 80f0 2d3c
00000210: 97d5 233e 55ef 893d 8d6a a3bb 7471 c4bd
00000220: 59d3 803d 1b20 3fbe 55f7 18be b954 ca3d
00000230: 82f2 293e 166c c43d c8fb 1b3e 2d9f d23d
00000240: 3c78 263e a0ef a0bd 5719 0a3e 4173 24be
00000250: d22c 743c 8a7f c1be cd29 28be e669 b83c
00000260: 6d9e 10be 08a0 8e3c 5a39 6f3d 3939 023e
00000270: 4bb2 203e a14e 3e3e 7123 3abe addf 25be
00000280: 0f2a 23be 28d6 48bd 52ce e83d eee3 953d
00000290: 3473 51bd 7013 21be 0246 e13d f6b1 af3d
000002a0: a549 38bd c648 1b3d 5aab f23d 1b13 603d
000002b0: 67ec 20be b0d8 4b3e 1d17 86bd 6eb6 e63d
000002c0: 5051 be3c 7d74 e6bd 6854 423d 225d b43d
000002d0: fa8f 06be 8acd 30be 96fd 03be 3ae3 b73d
000002e0: 0346 02be 63ba e3bd cc12 65bd 2173 f43d
000002f0: 0dc0 1f3e 4662 0b3e fe8d a13d ad25 dabd
00000300: 06da 073e e2cb f43d e0bb fbbd c21a f73d
00000310: c1b4 003e b26b 903d 8833 273e 1dad 023e
00000320: d42f 393d 49c1 343e 1d6d a4bd 82ac c8bd
00000330: b7e1 3a3e bc6e fbbd 73ab 023e 024f 933d
00000340: ed7d 21be c6bd 07be fa8e df3d 80c6 2abe
00000350: 8c1b dd3d f869 3a3e 71fa ba3d 9a42 b5bd
00000360: ad84 143e 539e f6bd a164 123e a160 81bd
00000370: 8ade 36be 22f8 2cbe a640 4a3e 48e6 8c3d
00000380: c784 46be 0c67 a0bd 147a 14be 6a10 25be
00000390: f9d9 2b3d ae8a a33d 25a1 9d3b 5c56 12be
000003a0: 4ae2 49bd 4977 17be b9bc 59bd 69da c53c
000003b0: 57b8 13bd 2290 e23d 39d1 05be f0c2 1f3e
000003c0: 05d6 cb3d 7b8f 37be 1282 083d 2aa1 87bd
000003d0: 70a9 ccbd fa96 003d 0fc3 16be df42 203e
000003e0: 86cb 8e3d bc07 113e 9163 dc3d 6dd1 123e
000003f0: 68d9 9a3d cdc0 49bd bf2a 3ebb 78d7 fbbd
0.09063487 0.022021485 -0.15807375 -0.13075885 0.11192117 0.16754782 0.12075489 0.16302255
0.11306538 -0.17476194 0.16029748 -0.3937925 0.08451625 -0.12545314 -0.16890441 0.1870874
0.16632758 0.10229263 0.02615651 -0.07174715 -0.5012584 0.09263292 0.08794252 -0.0037687502
-0.07759915 0.044171356 0.13834774 -0.13010134 0.053704496 0.026242616 0.02628827 0.042313736
0.08153304 0.047950137 -0.11144869 0.20187363 0.026425557 -0.052425638 -0.11936492 0.28726384
0.19298221 0.15089183 0.07285147 -0.025740057 0.42449197 -0.1547038 -0.13440046 0.2965333
-0.14271131 0.5646894 -0.03715894 -0.07374937 0.24826992 -0.08837896 0.0067935763 0.1845086
-0.15744108 0.0018879374 -0.020167334 0.1849736 0.49944702 0.09939101 -0.13321653 0.034745708
0.10535998 0.13571575 -0.10532916 0.17156236 0.14136234 0.0037678264 -0.16499045 0.06287783
0.43429455 0.028290998 0.20983432 0.06644242 0.042895537 -0.05044183 0.06382637 0.024643132
0.04911663 -0.037048638 -0.042352475 -0.046382383 -0.0118531035 -0.0429427 -0.018646006 -0.1133159
-0.13379626 -0.37562436 -0.1753053 0.19228318 -0.015941443 -0.18130346 0.08299602 0.14469722
-0.16132873 0.051315024 0.013160826 0.0064115524 0.12036554 0.10893861 -0.11048134 0.13615766
0.045939308 -0.03938755 -0.16908823 -0.050083257 -0.114000484 -0.020027438 -0.030387165 0.13995455
-0.03643124 0.16616046 0.18265674 0.11929472 -0.088816166 0.040024035 0.106645025 -0.17103599
-0.15006566 -0.10115013 0.01954539 -0.14614353 -0.34332547 0.11919592 0.030573737 0.06921572
-0.19381626 0.0886251 -0.14135528 0.010616422 0.15999447 0.06735102 -0.004987067 -0.09591952
0.06290311 -0.18664591 -0.149381 0.09879441 0.16596416 0.09590928 0.15232766 0.102842666
0.16256803 -0.07858205 0.13486229 -0.16059591 0.014903264 -0.37792617 -0.16422196 0.022511434
-0.14122935 0.017410293 0.058404304 0.12717141 0.15693013 0.18584682 -0.18177582 -0.16198607
-0.15934013 -0.04903236 0.113674775 0.07318865 -0.051135257 -0.15730071 0.10999681 0.08578865
-0.044992108 0.0379112 0.11849089 0.05470572 -0.1571518 0.19906878 -0.06547377 0.112652645
0.023232132 -0.11252687 0.047443777 0.08806826 -0.1314086 -0.17265907 -0.12889704 0.08978887
-0.1272202 -0.11119535 -0.05592613 0.119360216 0.15600605 0.13611707 0.07888411 -0.10651717
0.13266763 0.1195295 -0.12291694 0.120656505 0.12568952 0.07051791 0.16328251 0.1276135
0.045211628 0.17651857 -0.08028624 -0.09798528 0.18250166 -0.1227698 0.12760715 0.07192804
-0.15770693 -0.13255987 0.109159425 -0.16677284 0.1079627 0.18204486 0.09129799 -0.08850594
0.14503737 -0.12041917 0.142962 -0.063172586 -0.1785833 -0.1689153 0.19751224 0.0687986
-0.19386588 -0.07832155 -0.14499694 -0.16119543 0.04195592 0.079854354 0.0048104697 -0.14290756
-0.04928807 -0.14791597 -0.053158496 0.024151998 -0.036064472 0.110626474 -0.13068093 0.15601707
0.0995293 -0.17925827 0.03332717 -0.066225365 -0.09993255 0.031393982 -0.14722846 0.1565051
0.06972413 0.14163107 0.10761178 0.14337702 0.07560998 -0.049256135 -0.0029017178 -0.12296957

decoder/decoder_dense_2/BiasAdd/ReadVariableOp:0 f4 [75]
00000000: b196 6abc 3e98 1a3b 0000 0000 0d15 0f3c
00000010: 183f 093d f7ed 2bbc 6fd6 8fba ccd2 20bc
00000020: ce36 e13b 0a7b 87bb 9427 933c 021e 2eb8
00000030: cffd 23bc 1e68 8dbc 39eb aa3c ce9c 71bc
00000040: 1bbf 233d 5f4d 17bc 0524 cc3b ff2e 08bc
00000050: 25f5 503b 2c2d 5b3c 715f 51bb bc19 2c3c
00000060: ec8f 1db9 b39d 913c 09b5 1d3d b187 b33b
00000070: 981c a8bc 7d4f a13d 5a67 6e3b e1c9 1fbb
00000080: 6278 333c b11c 833c f80d 96ba 70f5 323c
00000090: 24dc 203d f5c4 93bc 9e75 d43b 1a02 e9bc
000000a0: c017 fe3b c974 923c 257c 3abc 454d 41bc
000000b0: 53c8 713c 2316 973c 385c 43bc 2bcd b03b
000000c0: a8bc 63bc 28d9 113d b4e6 7abb 2435 09bc
000000d0: d054 6a3d 095c 70bb 8675 acbc b141 7a3c
000000e0: dd88 cfbc 7c6c 52bb d885 e3bc 29b0 7dbc
000000f0: ab5b e33c 11ff 3fbc 1eff 133c 535a e33c
00000100: 8a8b 3e3d c025 30bd 3d83 223c 503c c5bc
00000110: 5c5a 01bc 9894 b33b 3836 6c3c 38ec 08bc
00000120: 49ba 233c facd d9bb a8f4 4b3c
-0.014318154 0.0023589279 0.0 0.008733046 0.033507437 -0.010493747 -0.001097394 -0.009815883
0.0068729883 -0.0041345404 0.017963208 -4.151278e-05 -0.010009243 -0.017261561 0.020864116 -0.014746858
0.039977174 -0.009234755 0.00622988 -0.008311986 0.0031884399 0.013377469 -0.0031947757 0.010504182
-0.00015026302 0.017775392 0.038502727 0.005478822 -0.020521447 0.07876489 0.003637752 -0.0024381804
0.0109539945 0.016004892 -0.0011448255 0.010922775 0.039272442 -0.018038252 0.0064837476 -0.028443385
0.007754296 0.017877953 -0.011382137 -0.011798208 0.014757234 0.018443173 -0.011923842 0.0053955517
-0.01389996 0.035607487 -0.0038284482 -0.008374486 0.05720979 -0.003667595 -0.021052133 0.015274451
-0.025333816 -0.0032108119 -0.027773783 -0.015483894 0.027753672 -0.011718527 0.009032993 0.02775303
0.046519794 -0.04300475 0.009918985 -0.02407661 -0.0078950785 0.0054803602 0.014417224 -0.0083571
0.009993144 -0.006646869 0.012448467

decoder/decoder_dense_1/MatMul/ReadVariableOp:0 f4 [5, 75]
00000000: 1688 893d 5238 0b3e 455e 89be fe68 94be
00000010: 1507 2ebe fbfa 593e 2c2d 63bd ba96 e6be
00000020: 3091 12be b625 863e e72d 4d3e bc98 e3bc
00000030: b704 2bbe 4f1d d13d cbb0 473e b09e e23d
00000040: b1fb 183d b4af 2a3e 73fc 7dbd 045b 5abe
00000050: 692d 4c3e 88f6 683e f1a5 6f3e 9abe 53bc
00000060: 2843 7e3d 437e b9bd 32c8 963d bc95 a3be
00000070: fae2 d43d 18a1 2d3e 94e4 8abe 0e88 b93d
00000080: 9437 fb3b 8f93 3b3e f006 943e 5e84 8b3e
00000090: 44f7 653e 772c 8cbd 25e8 433e f32d 3cbe
000000a0: 7d82 b8be ccf1 8dbd 7c3d 7c3e 7de5 22be
000000b0: ba14 a4be e2e3 803d dc8e 253e 2400 eabd
000000c0: 1b97 663e 6d9e 213e 91cb 393e 093d 3bbe
000000d0: a481 41be ce35 3bbe 1f04 903e a169 8abd
000000e0: 5342 07be e352 04be d6f6 58bd 1f9a bbbc
000000f0: 6ba4 3d3d 3a70 3f3c ad09 80be 49b6 2c3e
00000100: b855 cb3d baa9 193d 9656 40be a365 543e
00000110: 415d 6abe 7490 033e 0957 80be 4130 fa3d
00000120: 2907 cb3c 1171 43be 7d51 4bbe bdf7 69bd
00000130: 44ac 493e d624 87be d3c2 373e ac76 2a3e
00000140: f450 8abe 7b31 80bd 12ea 853e edf2 713e
00000150: 1866 b73c 0567 4ebe 02cd 843e 32e3 58bd
00000160: 1f29 a9bd 4172 39bc 57ca b6bd c16c 473e
00000170: 51de 10be fa71 43be 044d a23d 1352 013d
00000180: 6e4e fdbd 1a85 11be a6ac 763d c915 c83d
00000190: 7615 1a3e bdd7 6f3e 6ee5 2d3e 1b36 eb3c
000001a0: 1ae0 413e 223e c33d 01b8 903d 2c7e 623e
000001b0: 42fb 82be 8e3e 8c3e 2f56 613d e3ad 5f3e
000001c0: 819c 57be 8697 153e 5b6d 0c3e fe42 e7bd
000001d0: 05b8 b2be b113 73be 3712 cd3d 91b7 38be
000001e0: 2760 44be af51 c4bc 172b c13b 04ac 0e3d
000001f0: c319 46be d081 b8ba 6376 a3be 90ee bdbd
00000200: 663f 17be 78fc 8b3d b471 663b 26dc 68be
00000210: c042 813e b75b a93d cfc5 48bc 9b15 71be
00000220: 3cc9 f1bd ca9f 54be 3a11 74be 5429 263e
00000230: 84ec 073e 5bf5 c9b9 72ae 5e3e 61cf 363e
00000240: ba42 613e 09fc 863e d3af 063e 4529 98bd
00000250: dde7 9fbc 4e0c 1abe bbde 13be fa0b 6b3b
00000260: 70d1 dc3b 3b9a fa3d dd25 753e 805b 85bc
00000270: ef92 053d ca6b 4c3e 1a76 dbbd 1887 74be
00000280: 157a 72be 8317 9dbd a0e6 8e3e 7116 fb3b
00000290: bd55 383d 1a73 213e 5074 93bd 3e09 ab3d
000002a0: c6a9 f3bd c4ff 863e 774e a7bc fa9e c0bd
000002b0: c726 8fbd 2ba7 4f3d 80ea 163e a141 583c
000002c0: cc2a 85be a23b c4bc c9bd 2ebe 3f3b 783e
000002d0: 2746 783d 8b92 5b3c 7728 913e 9395 15be
000002e0: ca7e b9bd 8d18 62be e4e9 8bbe 6e00 8e3e
000002f0: 8146 e2bd 328d b43c 3a59 9d3b 80bd 583d
00000300: 9dd0 5b3e a8a7 363e ee8d 813c f577 0abe
00000310: 8c04 a63d 19c4 283d 2ca3 8f3e 1e39 13be
00000320: 6f93 a53d ebc2 583e 4e72 f7bd f8a5 06be
00000330: 9ff4 ba3d e3ca 10be fa4a bf3d aa47 aebd
00000340: 4793 e03d b367 35be ee80 293e 0317 13be
00000350: 23fe 943d f4a1 483e f635 283e c224 d1bd
00000360: d071 34be bb9b f33d 9ed6 1cbe f492 76bd
00000370: 4529 bfbd e7fe 2bbe 1ffb 1c3d c52c 72be
00000380: 4bbc 6dbe 64e4 2c3d 3413 4c3b 448d 40be
00000390: b8fb 6b3d c2e0 b4bd b43c a4bc 29ec 7cbd
000003a0: 5ae9 0bbe 0068 823e 867e 11ba 5edb 11be
000003b0: 8a94 83bb 55d2 cabc f2b1 dc3d a89c f2bd
000003c0: e070 783e 3701 813c 358f 01bd ce69 853e
000003d0: abd9 20bd 749d 0b3d ee57 1bbd 4d1f 26be
000003e0: 398d 793e cdbe e53c 1c44 173c 6340 73bd
000003f0: 324e b3bd 9936 103e c903 573e 00d7 d43d
0.067154095 0.13595703 -0.26829734 -0.28986353 -0.16994889 0.21287148 -0.055463 -0.4503687
-0.14313197 0.26200646 0.20037042 -0.02778279 -0.16701017 0.10210668 0.19501035 0.110654235
0.037349407 0.16668588 -0.062008332 -0.21323782 0.19939198 0.22750294 0.23403145 -0.012923861
0.062075764 -0.09057286 0.07362403 -0.31950176 0.10394855 0.16955984 -0.27127516 0.090591535
0.0076665375 0.18318008 0.28911543 0.27249426 0.22457606 -0.068444185 0.19131525 -0.18376903
-0.36037055 -0.06930885 0.2463283 -0.15907855 -0.32047063 0.06293465 0.16167778 -0.11425808
0.2251858 0.15783091 0.1814406 -0.18285002 -0.1889711 -0.18282244 0.28128144 -0.06758428
-0.13208894 -0.12922244 -0.052969776 -0.02290064 0.04629938 0.011684472 -0.25007382 0.16866411
0.09928459 0.03751538 -0.1878303 0.20741896 -0.22887136 0.12848073 -0.25066403 0.12216235
0.024783688 -0.190861 -0.19855304 -0.057121027 0.1969462 -0.2639529 0.17945413 0.16646832
-0.27014887 -0.06259438 0.26155144 0.23627825 0.02238755 -0.20156486 0.2593766 -0.052951045
-0.08259796 -0.011318744 -0.08925312 0.1947508 -0.14147307 -0.19086447 0.07924846 0.031572413
-0.12368475 -0.1421093 0.060223244 0.0976978 0.15047249 0.23422141 0.16982052 0.028712323
0.18933144 0.09533335 0.07066346 0.22118443 -0.2558232 0.27391475 0.05501383 0.21843676
-0.21055795 0.14608583 0.13713591 -0.112920746 -0.3490602 -0.2373798 0.1001324 -0.18038775
-0.19177304 -0.023964731 0.0058950293 0.034832016 -0.19345765 -0.0014076773 -0.3192626 -0.09274018
-0.14770278 0.06835264 0.0035162987 -0.2274023 0.2524624 0.08269446 -0.0122541925 -0.23543398
-0.118059605 -0.2076408 -0.23834696 0.16226703 0.13273817 -0.00038520512 0.21746233 0.17852546
0.2199811 0.26364163 0.13153009 -0.074297465 -0.01951974 -0.15043756 -0.14440434 0.0035865293
0.006738834 0.122364484 0.23940225 -0.016278982 0.03261083 0.19962993 -0.107158855 -0.23879659
-0.23679383 -0.076705 0.27910328 0.0076625873 0.04500364 0.15766564 -0.07199919 0.08351372
-0.11897616 0.2636701 -0.020423157 -0.094053224 -0.06989818 0.050696533 0.14737892 0.013199241
-0.26009214 -0.023954216 -0.17064585 0.2424135 0.060613777 0.013401638 0.28351185 -0.1460784
-0.09057386 -0.22079678 -0.27326882 0.27734703 -0.11048604 0.022039983 0.0048018964 0.052915096
0.21466298 0.17837393 0.015814748 -0.13522322 0.08106336 0.04120264 0.28054178 -0.14377257
0.08084761 0.21168105 -0.12082349 -0.1314925 0.09128689 -0.14139895 0.093404725 -0.085097626
0.10965591 -0.1771534 0.16553089 -0.14364247 0.07275035 0.1959303 0.16426834 -0.10212089
-0.17621541 0.118949376 -0.15316245 -0.06019874 -0.093340434 -0.16796456 0.038325425 -0.2364989
-0.2321636 0.042209998 0.0031139376 -0.18803889 0.057613105 -0.08831932 -0.020048477 -0.061748657
-0.13663235 0.2546997 -0.00055501645 -0.14243838 -0.00401551 -0.024758497 0.10776128 -0.11846286
0.24261808 0.01574765 -0.031630713 0.26057285 -0.039270084 0.034085706 -0.037925653 -0.16222878
0.24370278 0.028045082 0.009232547 -0.059387576 -0.08755149 0.14083327 0.20997538 0.103925705

decoder/decoder_dense_1/BiasAdd/ReadVariableOp:0 f4 [75]
00000000: 6c93 c3bb b4a5 a7bb 2658 3dbc 0809 923b
00000010: 344d 95bb aac9 a6bc 797f 30bc eae2 bdbc
00000020: 8f46 443c 6998 e6bb 5ba1 30bc edab cfbb
00000030: 44e3 38bc 2c9d 773b 95d3 0c3d 6781 b5bb
00000040: cd64 773b ebf7 0ebd f1f0 053c 3759 9c3b
00000050: e744 163b 56e2 8abb 50e9 d5b9 2ee9 0abb
00000060: 07f0 bb3b 8b89 da3a 84b1 883b 69a7 ce3c
00000070: e234 75bd 3b0c 3bbb 1f68 8f3c 1fc0 ccbb
00000080: c338 6a3c feee 453c 80a8 5a3c fdb3 703c
00000090: 95ac 4a3c de7d 013d 27e7 9fbb 3903 ddbb
000000a0: 6444 703c 4e9a 063d 9c5e 9bbc 973d da3d
000000b0: c4ec ab3d adde fd3c 2320 b3bb 1820 223c
000000c0: 6c8d 9fbb 46c7 bd3a 7e41 3f3b c38f b73d
000000d0: 0000 0000 05d8 d9bb 7db7 a5bc 68cb 4f3c
000000e0: 105e cbbb bcd6 873d a43e a53c 3cae 783d
000000f0: c339 933c 21c3 30bc f6c0 863b db5d 0f3d
00000100: beb3 353c 0173 a1bb fdad d23d 0e66 21bc
00000110: d77b 153b dab0 553c 4abc 29ba c052 263c
00000120: 2e44 b53b ded6 19bc 7287 c23d
-0.005968502 -0.005116189 -0.011556661 0.004456643 -0.0045563225 -0.020359833 -0.010772579 -0.02317949
0.011979713 -0.0070372117 -0.010780658 -0.006337634 -0.011284653 0.003778289 0.034381468 -0.0055391076
0.003774929 -0.0349044 0.008175121 0.0047713774 0.0022929253 -0.004238407 -0.00040800357 -0.0021196115
0.0057354006 0.0016673071 0.004171552 0.025226312 -0.059864886 -0.0028541225 0.017505703 -0.0062484886
0.01429576 0.012080906 0.013345838 0.01469135 0.012370248 0.031614177 -0.0048798504 -0.006744769
0.014664743 0.032862 -0.018966012 0.106562786 0.08394769 0.03098997 -0.0054664775 0.009895347
-0.0048691537 0.0014478944 0.0029183323 0.08962967 0.0 -0.006648066 -0.020229096 0.012682773
-0.0062062815 0.06632754 0.020171471 0.060713038 0.017971879 -0.01078871 0.004112358 0.035001617
0.011090217 -0.0049270396 0.10287092 -0.009850992 0.002280941 0.013042653 -0.00064748956 0.010151565
0.0055318093 -0.009389607 0.094984904
