onnx_inference/no_duplicates_75_2_mask_decoder.onnx (onnx, 27145 bytes, 6 tensors)

decoder/encoder_output/MatMul/ReadVariableOp:0 f4 [75, 3]
0.2715904 0.041842338 0.25679052 -0.40704113 -0.5904203 -0.4369809 -0.24740526 -0.079551965
0.22690475 -0.0014138826 -0.07284387 0.19757894 -0.03753821 0.22682837 0.061927408 0.18761228
-0.30997154 -0.36662045 0.14293697 -0.42768967 -0.04214604 0.14444713 -0.029961376 -0.16969758
0.13502881 0.19805482 0.020449229 0.4737027 0.15627736 0.3937108 -0.035616435 0.07379786
-0.1810035 0.2619282 0.24510017 0.8784946 0.23050722 0.3298834 -0.201382 -0.1212514
0.18776034 -0.12291775 0.55229515 0.48591655 0.33394003 -0.18388619 -0.29379025 -0.20438011
-0.26448497 -0.22870971 0.18025824 0.27423313 -0.054377537 -0.16292588 -0.044138767 -0.19348916
-0.105648965 -0.5655132 -0.48732176 -0.49813953 -0.15144852 0.17417875 0.08866306 -0.3395342
0.0071906215 -0.28427777 0.29978675 0.060724813 -0.050592884 -0.053697906 0.3626644 0.40397334
-0.0005405045 0.45860702 0.28956568 -0.01819689 -0.4625878 -0.5945058 0.077236995 -0.17901765
0.06024763 0.120152414 -0.3030224 -0.044680983 -0.12402303 0.2870317 0.22702897 -0.11081836
-0.21684729 -0.06580615 0.23380111 0.044143915 0.07611625 0.07041407 -0.011764033 0.111202
0.005153293 -0.018686833 0.1742675 0.033227757 0.07728861 -0.22054651 0.035751387 -0.11579192
0.07506364 -0.08733648 -0.21060309 0.08523531 -0.179096 0.09883235 0.23399717 0.28704178
-0.1223068 0.09800509 0.7527757 0.22359866 0.4333936 0.06485942 0.24616204 0.22591771
0.16147994 -0.28919783 -0.24328984 -0.29182705 -0.18193428 -0.26125938 -0.10022848 -0.19842747
0.24400435 -0.23053339 -0.22762562 0.023777848 -0.22746687 -0.0071036313 0.20237972 -0.40928036
-0.608582 -0.30196366 0.35256645 0.26825607 -0.042522185 -0.46343797 0.44632256 -0.3140221
-0.27597025 -0.1963728 0.15763465 0.095179155 0.2164491 0.20405369 -0.19726028 -0.2196934
0.09811504 -0.23811436 -0.099641584 -0.19881317 -0.22420463 0.25162053 0.087649316 -0.12459898
0.28730837 0.18547496 -0.12551324 0.29868898 0.0967259 0.040366862 0.0419501 0.18063222
0.10772217 0.073356874 0.14774536 0.30334693 0.124576464 -0.079477385 -0.82600605 -0.53161335
-0.012827467 0.2009002 0.016784023 0.18119368 -0.25277102 -0.17590934 -0.10086838 -0.72129107
-0.23060575 -0.35695213 0.0844916 -0.11868932 -0.047254194 -0.15054317 0.2521319 -0.27279127
0.16700868 0.055858027 -0.011849169 -0.16941701 -0.1244021 0.029780788 0.18463144 0.076187536
-0.024813017 0.67021686 0.9074994 1.0360576 0.24225295 -0.15062736 0.28397238 0.14036593
0.022154355 -0.012047555 0.26009366 0.28576177 -0.109755926 -0.13976616 0.15685797 0.1690798
0.2064964 0.2954338 0.11815146 -0.59680116 -0.67725015 -0.18827966 -0.19327922 0.4426955
-0.08235401
00000000: e60d 8b3e df62 2b3d 0c7a 833e b267 d0be
00000010: c925 17bf f6bb dfbe ce57 7dbe 24ec a2bd
00000020: b859 683e 0752 b9ba 2b2f 95bd 2252 4a3e
00000030: abc1 19bd b245 683e 98a7 7d3d 6f1d 403e
00000040: 97b4 9ebe adb5 bbbe 125e 123e 24fa dabe
00000050: 53a1 2cbd f3e9 133e 8f71 f5bc 34c5 2dbe
00000060: fe44 0a3e e2ce 4a3e 2485 a73c 2989 f23e
00000070: 2c07 203e 7694 c93e 8ae2 11bd 5523 973d
00000080: fb58 39be 741b 863e 8afb 7a3e 06e5 603f
00000090: 160a 6c3e 7ae6 a83e 1537 4ebe a752 f8bd
000000a0: 3f44 403e 4dbc fbbd 3763 0d3f 0eca f83e
000000b0: 30fa aa3e a94c 3cbe ad6b 96be 0549 51be
000000c0: 936a 87be e132 6abe 9e95 383e 4968 8c3e
000000d0: fbba 5ebd 0bd6 26be daca 34bd 0622 46be
000000e0: 7c5e d8bd 79c5 10bf 3d82 f9be 250c ffbe
000000f0: 5215 1bbe ea5b 323e fa94 b53d 6dd7 adbe
00000100: 4e9f eb3b db8c 91be a67d 993e 95ba 783d
00000110: 7c3a 4fbd 56f2 5bbd 26af b93e 98d5 ce3e
00000120: a5b0 0dba 8ace ea3e f441 943e a511 95bc
00000130: 4fd8 ecbe 8831 18bf 6e2e 9e3d 6750 37be
00000140: 38c6 763d 7812 f63d c125 9bbe 6803 37bd
00000150: c9ff fdbd d2f5 923e 487a 683e bcf4 e2bd
00000160: 370d 5ebe 60c5 86bd 8f69 6f3e 40d0 343d
00000170: d6e2 9b3d 4035 903d eebd 40bc e0bd e33d
00000180: f4dc a83b 2115 99bc 2e73 323e d419 083d
00000190: 7e49 9e3d f2d6 61be 0c70 123d 5024 edbd
000001a0: f7ba 993d 78dd b2bd 56a8 57be da8f ae3d
000001b0: f164 37be 9d68 ca3d f49c 6f3e 24f7 923e
000001c0: fd7b fabd e5b6 c83d e9b5 403f 0cf7 643e
000001d0: c4e5 dd3e 04d5 843d e711 7c3e f956 673e
000001e0: ff5a 253e bd11 94be f920 79be 5b6a 95be
000001f0: fb4c 3abe cac3 85be 9744 cdbd 9230 4bbe
00000200: 47dc 793e f210 6cbe b116 69be c3c9 c23c
00000210: 13ed 68be 94c5 e8bb a13c 4f3e 328d d1be
00000220: 08cc 1bbf fb9a 9abe 9783 b43e dc58 893e
00000230: be2b 2ebd be47 edbe 6484 e43e 81c7 a0be
00000240: f94b 8dbe f415 49be fa6a 213e 4aed c23d
00000250: d5a4 5d3e 73f3 503e 99fe 49be 4ff7 60be
00000260: 8af0 c83d 40d4 73be e310 ccbd ae95 4bbe
00000270: e695 65be 68d4 803e 7c81 b33d c02d ffbd
00000280: 151a 933e 26ed 3d3e 8b86 00be c3ed 983e
00000290: 3b18 c63d b957 253d ded3 2b3d a7f7 383e
000002a0: 719d dc3d 213c 963d 8f4a 173e 4a50 9b3e
000002b0: f221 ff3d 0ac5 a2bd 2275 53bf d017 08bf
000002c0: 4c2a 52bc c8b8 4d3e a67e 893c d68a 393e
000002d0: 346b 81be 9421 34be 1594 cebd 88a6 38bf
000002e0: ea23 6cbe 6ec2 b6be ef09 ad3d 6313 f3bd
000002f0: 9d8d 41bd fd27 1abe 6f17 813e 4cab 8bbe
00000300: 5304 2b3e 63cb 643d 0423 42bc a77b 2dbe
00000310: 87c6 febd d7f6 f33c 0610 3d3e 3608 9c3d
00000320: ab44 cbbc 5593 2b3f e151 683f 899d 843f
00000330: 2811 783e 0f3e 1abe d464 913e 16bc 0f3e
00000340: 0d7d b53c 1c63 45bc ff2a 853e 5e4f 923e
00000350: b7c7 e0bd dc1e 0fbe 609f 203e 4123 2d3e
00000360: cb73 533e 1943 973e 65f9 f13d f6c7 18bf
00000370: 4460 2dbf 62cc 40be fdea 45be fca8 e23e
00000380: 38a9 a8bd

decoder/encoder_output/BiasAdd/ReadVariableOp:0 f4 [3]
0.039409794 0.019188568 0.028024893
00000000: 2a6c 213d 5831 9d3c 7694 e53c

decoder/decoder_dense_2/MatMul/ReadVariableOp:0 f4 [75, 75]
0.013028771 0.077400684 -0.127291 0.2697564 -0.19366473 -0.2059856 0.27573755 0.039635554
-0.07236669 0.09329149 -0.1095963 0.19668664 0.032649025 -0.11843092 0.2579798 -0.037493568
0.038354136 -0.07204653 0.033918336 -0.000762202 0.3582823 -0.0858633 0.002731007 -0.004144498
0.06521117 0.08193613 0.25229204 0.09407308 0.119135015 0.21972878 0.016997991 0.04994757
0.039469372 -0.06942521 -0.15337406 0.09570328 -0.120240144 0.06012873 -0.1437319 0.20008256
0.06704071 0.0030342506 -0.18501621 -0.12977216 -0.12621087 -0.13943084 0.26093876 0.2321168
0.027870024 0.043543555 -0.17643435 0.07625398 -4.552065e-05 0.013999832 -0.13956085 0.10046868
0.21947226 -0.001318796 -0.066395216 0.17410213 0.03216439 0.04573142 -0.027441258 -0.12829581
-0.034118976 0.025998514 0.18947804 0.20259115 -0.06384482 -0.10504949 0.050432205 -0.15946941
-0.123274066 0.22664021 0.22571272 -0.13633853 0.27922902 -0.16008979 -0.73862827 0.2433849
0.36623344 0.122006245 -0.17781164 -0.048963703 -0.82868123 -0.13884465 -0.18234283 -0.05635071
0.12359309 0.069391884 0.10358526 0.10498716 -0.47389063 0.094988 0.089775875 -0.70956427
0.45184264 0.10613162 -0.6345805 -0.005597271 -0.51421714 0.30419767 0.1008517 -0.18680082
-0.26448387 0.21320273 -0.12041665 -0.48673764 -0.61671555 -0.046288837 -0.16254131 0.14467934
0.16522782 -0.35811436 -0.115531676 -0.059534587 -0.047850873 0.025923077 0.256324 -0.17902441
0.051626366 -0.015201327 0.14224479 0.0024834743 0.11009871 0.11347632 0.07005254 0.30169305
0.083563276 -0.6440789 0.2653165 0.058910973 -0.11245962 0.10588101 0.086752124 -0.19070494
-0.13700435 -0.050438132 -0.16306925 -0.22689362 -0.004314199 0.033655897 -0.78813034 -0.0206191
0.016595714 -0.16064593 -0.06492297 -0.1341484 -0.20054153 0.15153192 -0.16683047 0.11358852
0.01291202 -0.014941517 0.0010200341 -0.22413602 0.012286792 0.10713849 0.11812137 -0.44600755
-0.14535023 -0.106036454 -0.0673047 -0.16029291 0.18550824 -0.027503205 0.12917738 0.099650785
-0.10162812 -0.06992559 -0.026309285 0.25506794 -0.006226452 -0.160848 -0.2686611 0.2735039
-0.09355783 -0.15743272 0.021282366 -0.1080512 -0.13072595 -0.107213646 0.0016385494 -0.03382856
0.026972773 0.042591877 -0.08953914 0.102959625 -0.18889375 -0.04359602 0.3321915 -0.14385168
-0.0472954 0.116684 -0.091653496 0.20794302 -0.29673427 -0.17884937 0.08286896 0.13639547
-0.16455558 -0.1060035 -0.0066780094 -0.20572321 0.082449235 0.1272533 0.041618716 0.052162465
-0.2570758 -0.117617615 0.111173324 -0.22926012 0.044471685 -0.014952183 0.10051224 0.073869415
-0.16412121 -0.3069445 0.04800298 0.16018315 -0.0015720113 -0.05337252 0.1448103 0.2894559
0.008214058 0.252273 -0.19461524 -0.19430743 -0.17870416 0.13190077 -0.08291938 0.14620276
0.1664409 0.23077664 0.006777225 -0.10923173 -0.012676743 0.11949914 0.109679095 -0.32918304
-0.018167412 -0.058996957 0.23122452 -0.14124712 0.24124715 0.01856711 0.098770745 -0.08708173
-0.04652601 0.18810427 -0.033787284 -0.07556826 -0.11157567 0.20284586 -0.090618536 0.073137246
00000000: a076 553c 4084 9e3d 9258 02be 831d 8a3e
00000010: 0c50 46be e4ed 52be 792d 8d3e e458 223d
00000020: fd34 94bd 9c0f bf3d 0674 e0bd 3968 493e
00000030: fcba 053d e98b f2bd ee15 843e db92 19bd
00000040: 3a19 1d3d 228d 93bd f4ed 0a3d 83ce 47ba
00000050: c770 b73e 19d9 afbd b2fa 323b 92ce 87bb
00000060: 6f8d 853d 21ce a73d 6c2c 813e 63a9 c03d
00000070: 0ffd f33d 9500 613e 5f3f 8b3c d395 4c3d
00000080: a3aa 213d ce2e 8ebd 170e 1dbe 1500 c43d
00000090: 7740 f6bd 8b49 763d 752e 13be 71e2 4c3e
000000a0: a44c 893d 47da 463b e474 3dbe fee2 04be
000000b0: 6c3d 01be f5c6 0ebe c499 853e 07b0 6d3e
000000c0: ad4f e43c ba5a 323d 35ab 34be 0c2b 9c3d
000000d0: 6ded 3eb8 8d5f 653c 0ae9 0ebe 86c2 cd3d
000000e0: 56bd 603e 73db acba 37fa 87bd d447 323e
000000f0: cfbe 033d df50 3b3d 7dcc e0bc fa5f 03be
00000100: 57c0 0bbd d6fa d43c 8806 423e 0e74 4f3e
00000110: 13c1 82bd 3024 d7bd 0092 4e3d f34b 23be
00000120: 1d77 fcbd 5f14 683e 3c21 673e 549c 0bbe
00000130: 1bf7 8e3e 94ee 23be be16 3dbf e439 793e
00000140: f382 bb3e 69de f93d 4114 36be 2a8e 48bd
00000150: 7424 54bf 4b2d 0ebe 14b8 3abe 01d0 66bd
00000160: 601e fd3d 551d 8e3d 8224 d43d 8203 d73d
00000170: cba1 f2be 1289 c23d 6adc b73d 01a6 35bf
00000180: eb57 e73e 895b d93d de73 22bf 5069 b7bb
00000190: bca3 03bf ccbf 9b3e 568b ce3d b748 3fbe
000001a0: 6e6a 87be d151 5a3e 019d f6bd ad35 f9be
000001b0: 12e1 1dbf 5d99 3dbd 3b71 26be d226 143e
000001c0: 7b31 293e c45a b7be df9b ecbd 8ada 73bd
000001d0: 47ff 43bd a25c d43c e63c 833e 2d52 37be
000001e0: 2b76 533d fd0e 79bc 9ea8 113e c9c1 223b
000001f0: 6f7b e13d 4666 e83d b577 8f3d 8377 9a3e
00000200: 3923 ab3d 5be2 24bf 90d7 873e a24c 713d
00000210: 3b51 e6bd 25d8 d83d 19ab b13d 2848 43be
00000220: de4a 0cbe 3798 4ebd a0fb 26be cd56 68be
00000230: 205e 8dbb c4da 093d e9c2 49bf 63e9 a8bc
00000240: bcf3 873c 5e80 24be 56f6 84bd 335e 09be
00000250: c25a 4dbe 2f2b 1b3e 9bd5 2abe 19a1 e83d
00000260: f08c 533c 44cd 74bc aab2 853a ea83 65be
00000270: 8a4e 493c 6d6b db3d 9ee9 f13d 1a5b e4be
00000280: b1d6 14be a429 d9bd 0cd7 89bd d323 24be
00000290: dff5 3d3e 674e e1bc 1347 043e b615 cc3d
000002a0: 6722 d0bd 2635 8fbd 9286 d7bc 4498 823e
000002b0: 4407 ccbb 57b5 24be f38d 89be b408 8c3e
000002c0: 3f9b bfbd 0b36 21be 5b58 ae3c f349 ddbd
000002d0: 06dd 05be d492 dbbd 98c4 d63a d18f 0abd
000002e0: 01f6 dc3c d274 2e3d 4c60 b7bd 7fdc d23d
000002f0: 5d6d 41be be91 32bd 0115 aa3e db4d 13be
00000300: d2b8 41bd 05f8 ee3d d4b4 bbbd 04ef 543e
00000310: 8eed 97be 4a24 37be 34b7 a93d 41ab 0b3e
00000320: 4281 28be 5d18 d9bd 34d3 dabb 1ba9 52be
00000330: 25db a83d b04e 023e 6378 2a3d 4fa8 553d
00000340: 709f 83be 81e1 f0bd d7ae e33d 2ac3 6abe
00000350: f127 363d 00fa 74bc 5cd9 cd3d d948 973d
00000360: 640f 28be d427 9dbe c69e 443d 0d07 243e
00000370: f20b ceba 259d 5abd 2749 143e 9033 943e
00000380: 4294 063c ed29 813e 3849 47be 87f8 46be
00000390: 39fe 36be ff10 073e a3d1 a9bd 2db6 153e
000003a0: 7c6f 2a3e b650 6c3e 7c13 de3b e3b4 dfbd
000003b0: 1db2 4fbc f7bb f43d 6f9f e03d ae8a a8be
000003c0: d3d3 94bc cba6 71bd 1fc6 6c3e 16a3 10be
000003d0: 7e09 773e 0d1a 983c 5148 ca3d e857 b2bd
000003e0: 0f92 3ebd 689e 403e 8964 0abd 88c3 9abd
000003f0: c981 e4bd d3b6 4f3e 3696 b9bd fbc8 953d

decoder/decoder_dense_2/BiasAdd/ReadVariableOp:0 f4 [75]
0.021652171 -0.05252482 -0.018385801 0.00831247 0.012478117 -0.047969848 -0.061874166 -0.0096970275
0.02749766 0.07161162 -0.016085899 -0.038206473 0.010872001 0.008757207 0.12692595 -0.020295987
-0.004134456 0.030851435 -0.010949568 -0.049200326 -0.0027645035 -0.0433675 0.035651177 -0.016653618
0.08475582 0.103565864 -0.0021666011 -0.029240405 0.018419042 -0.020023374 0.03659423 0.03289265
0.013815802 -0.0053957724 -0.021953683 -0.026979078 0.008325535 0.041843142 0.19620533 0.024993323
-0.018376991 -0.033254705 -0.022035804 -0.059942067 -0.02537817 -0.10033494 0.0711624 -0.0928171
0.0027142174 0.027585207 -0.01486402 -0.034665998 0.0024943985 0.02010998 0.0005262548 0.027246488
0.025338188 0.03314458 -0.13491127 0.036160965 -0.015632732 0.0002873011 -0.026675122 0.0
0.03193601 -0.045162592 0.03300376 0.0035736274 0.037748702 0.03459222 0.032457475 0.0022009949
0.030176468 0.03394127 -0.04548672
00000000: e55f b13c 4424 57bd d29d 96bc 0731 083c
00000010: 0471 4c3c 087c 44bd c46f 7dbd 48e0 1ebc
00000020: c642 e13c 1da9 923d 93c6 83bc 647e 1cbd
00000030: 7a20 323c 637a 0f3c e0f8 013e c543 a6bc
00000040: 557a 87bb 26bc fc3c d165 33bc 4886 49bd
00000050: ac2c 35bb 1fa2 31bd f806 123d 2b6d 88bc
00000060: 7694 ad3d 571a d43d 89fd 0dbb 9389 efbc
00000070: 88e3 963c 0f08 a4bc d5e3 153d 72ba 063d
00000080: ac5b 623c 05cf b0bb 36d8 b3bc 3a03 ddbc
00000090: d367 083c b763 2b3d 0dea 483e ccbe cc3c
000000a0: 588b 96bc 1636 08bd 6e84 b4bc d085 75bd
000000b0: e1e5 cfbc 687c cdbd 98bd 913d e416 bebd
000000c0: 03e1 313b 5ffa e13c 3888 73bc effd 0dbd
000000d0: 1079 233b afbd a43c 5df4 093a 0734 df3c
000000e0: 0892 cf3c 9cc2 073d 2e26 0abe 851d 143d
000000f0: 3710 80bc e7a0 9639 c985 dabc 0000 0000
00000100: 55cf 023d 69fc 38bd f32e 073d 8533 6a3b
00000110: 629e 1a3d 92b0 0d3d 21f2 043d 913e 103b
00000120: a434 f73c 0006 0b3d 4850 3abd

decoder/decoder_dense_1/MatMul/ReadVariableOp:0 f4 [5, 75]
-0.28621635 0.26025078 0.25770834 -0.079880625 -0.14545625 0.01993894 -0.24725783 0.10967717
-0.0071851853 -0.024911739 0.13800158 0.3510381 -0.10249375 0.24753043 0.16903839 -0.0008196225
-0.14390972 0.22742099 -0.13695247 -0.016151903 0.31015122 -0.64446515 -0.2917058 -0.1565722
-0.048997536 -0.01497373 0.3470366 0.018403968 0.17084356 -0.05497102 -0.17682296 -0.22020581
-0.4403875 0.034465946 -0.13472289 -0.11856047 -0.21850027 0.23909397 0.25089207 -0.08492501
0.2529588 -0.25109443 0.2752852 -0.20869108 0.1919828 0.08125901 0.113957234 0.13072231
0.37148404 -0.20357805 -0.0455629 -0.25771978 -0.1742573 0.13701147 0.0045333793 -0.155574
-0.21825604 -0.004776432 0.1060594 0.12296583 0.060939517 0.10152718 0.2844398 -0.30873823
-0.068572775 -0.093929164 -0.23094997 0.006738411 -0.056482363 -0.11036621 0.24113937 -0.04604375
0.32208794 -0.15571237 -0.017419832 0.16657779 0.13021067 0.2852662 -0.018001033 0.22275329
-0.2494254 -0.2718869 0.116476566 0.28931347 -0.14715858 0.18727984 0.10697288 0.17519012
-0.02634708 0.07256699 0.11319732 -0.15363328 -0.18292412 0.17504431 -0.1355684 0.1942071
-0.07687625 0.16107938 0.016261695 0.15488926 -0.16875665 -0.042133857 -0.13881643 -0.25883275
0.22399707 0.22072709 0.035545114 -0.13590598 -0.0991067 -0.21072875 -0.009420258 -0.13500936
-0.14624839 -0.012398739 -0.18635304 -0.26297605 -0.24420813 -0.049347848 -0.13329567 0.16938415
0.229023 0.031603746 -0.26160517 -0.034595925 -0.19344929 -0.15573306 0.24487728 0.24570894
-0.087347284 -0.1377274 -0.0036337338 -0.03362746 0.09567375 -0.2454139 -0.19014965 0.032475825
0.18572538 0.24356693 -0.045023702 0.20372589 0.26621988 -0.14497875 -0.82948613 0.16723658
-0.006563492 -0.14616787 0.10877743 0.32213786 0.24152355 -0.5726072 -0.21207915 -0.19110057
-0.14118584 0.28788212 0.08844605 -0.017231775 -0.2586282 0.12306052 -0.14913477 0.09492802
0.14303643 -0.08015468 -0.06221896 0.1816568 0.034649964 0.31278753 -0.2250439 -0.17084423
0.25061944 -0.07474326 0.13815643 0.06263979 -0.1492669 0.17687711 -0.058643565 -0.049489364
-0.449946 0.21223809 -0.14820878 -0.14168613 -0.040347714 0.30252168 0.041913405 0.295379
-0.25335604 0.038970795 0.109062396 -0.03703698 -0.20463935 0.002834801 0.08115367 0.07579292
0.049657058 0.20793481 -0.14184298 0.15718962 -0.022925258 0.32010522 -0.08747148 -0.06653626
0.31366035 -0.06975332 -0.00610414 -0.25020924 0.10667347 -0.25772545 0.019322703 0.24355942
0.14984031 0.2870505 0.25192937 0.06238181 -0.13875765 0.17811947 0.12011529 -0.21520565
0.21447311 0.03256405 -0.12759098 0.119075336 0.3323499 -0.04162827 -0.21681319 -0.22838303
0.008683019 0.17625493 -0.14525309 -0.11955115 -0.066272646 0.24431816 0.06453075 0.02994273
0.03268731 0.06539268 0.24635296 -0.08319659 -0.040969376 0.24255188 0.09753078 -0.2147751
-0.10461032 0.14104794 0.1856477 0.15904897 -0.061264552 -0.15473317 -0.020431392 -0.007095234
0.21524706 0.17364535 -0.034691483 -0.021507666 0.05545595 -0.15414913 -0.020353725 -0.074091904
00000000: f38a 92be 973f 853e 59f2 833e 7498 a3bd
00000010: 7cf2 14be fd56 a33c 2831 7dbe 6d9e e03d
00000020: b471 ebbb b413 ccbc 4950 0d3e 44bb b33e
00000030: 3ee8 d1bd 9e78 7d3e 6618 2d3e efdb 56ba
00000040: 125d 13be 0ce1 683e 453d 0cbe ff50 84bc
00000050: 24cc 9e3e abfb 24bf 765a 95be 7654 20be
00000060: a4b1 48bd 6054 75bc c8ae b13e ebc3 963c
00000070: 9df1 2e3e 4b29 61bd 1411 35be a27d 61be
00000080: 787a e1be 2a2c 0d3d ccf4 09be d5cf f2bd
00000090: 89be 5fbe 0dd5 743e ed74 803e 2aed adbd
000000a0: d183 813e 738f 80be 2ff2 8c3e 1db3 55be
000000b0: 2497 443e 206b a63d 6962 e93d 12dc 053e
000000c0: 2833 be3e c476 50be 2aa0 3abd d9f3 83be
000000d0: 8170 32be bc4c 0c3e be8c 943b ca4e 1fbe
000000e0: 837e 5fbe 9e83 9cbb ac35 d93d 82d5 fb3d
000000f0: b79b 793d 7bed cf3d 18a2 913e f012 9ebe
00000100: e26f 8cbd ef5d c0bd 267e 6cbe e3cd dc3b
00000110: 0d5a 67bd ae07 e2bd 3ded 763e 5f98 3cbd
00000120: b6e8 a43e 1073 1fbe 09b4 8ebc 5e93 2a3e
00000130: f255 053e 690e 923e e776 93bc 7019 643e
00000140: 5f69 7fbe c234 8bbe 448b ee3d e520 943e
00000150: bdb0 16be 49c6 3f3e 9914 db3d 0a65 333e
00000160: d5d5 d7bc 019e 943d ffd3 e73d 0b52 1dbe
00000170: 7650 3bbe d13e 333e 71d2 0abe 3ade 463e
00000180: 4c71 9dbd fef1 243e 3f37 853c 4a9b 1e3e
00000190: 8bce 2cbe 8d94 2cbd e525 0ebe ba85 84be
000001a0: 7d5f 653e 4806 623e c197 113d f02a 0bbe
000001b0: 74f8 cabd 47c9 57be 6d57 1abc e53f 0abe
000001c0: 23c2 15be 1524 4bbc 55d3 3ebe cca4 86be
000001d0: b211 7abe f820 4abd a97e 08be 0a73 2d3e
000001e0: 0185 6a3e ee72 013d 1df1 85be 75b4 0dbd
000001f0: 9217 46be 7d78 1fbe 1cc1 7a3e 209b 7b3e
00000200: 22e3 b2bd 6908 0dbe f023 6ebb f3bc 09bd
00000210: 99f0 c33d c84d 7bbe 97b6 42be 5f05 053d
00000220: cb2e 3e3e 9c69 793e c66a 38bd 859d 503e
00000230: f94d 883e 4f75 14be 3459 54bf 1140 2b3e
00000240: 9012 d7bb 08ad 15be b4c6 de3d 41ef a43e
00000250: f351 773e 6396 12bf 472b 59be deaf 43be
00000260: 0593 10be 4965 933e 3423 b53d a729 8dbc
00000270: ea6a 84be 2707 fc3d c9b6 18be 9f69 c23d
00000280: 2478 123e 2328 a4bd 4fd9 7ebd 3d04 3a3e
00000290: 1fed 0d3d b025 a03e e871 66be caf1 2ebe
000002a0: 3151 803e ff12 99bd e178 0d3e 4a49 803d
000002b0: 6cd9 18be 461f 353e 3c34 70bd 5cb5 4abd
000002c0: 525f e6be f154 593e 0bc4 17be 2b16 11be
000002d0: a543 25bd 1fe4 9a3e 64ad 2b3d eb3b 973e
000002e0: e2b7 81be d79f 1f3d 1b5c df3d 17b4 17bd
000002f0: fa8c 51be 12c8 393b e533 a63d 5239 9b3d
00000300: 3365 4b3d ddec 543e 493f 11be 51f6 203e
00000310: c0cd bbbc d5e4 a33e 3f24 b3bd 2a44 88bd
00000320: 1798 a03e d4da 8ebd 3d05 c8bb 6d1b 80be
00000330: 9f77 da3d 97f4 83be a54a 9e3c a467 793e
00000340: bd6f 193e 48f8 923e e3fc 803e 1284 7f3d
00000350: 7c16 0ebe f364 363e 01ff f53d df5e 5cbe
00000360: d79e 5b3e e261 053d 36a7 02be c5dd f33d
00000370: c429 aa3e 6882 2abd 4704 5ebe 3edd 69be
00000380: 3943 0e3c 2c7c 343e 3abd 14be 3cd7 f4bd
00000390: f4b9 87bd 8a2e 7a3e b328 843d 754a f53c
000003a0: 21e3 053d 99ec 853d f343 7c3e f962 aabd
000003b0: 81cf 27bd 855f 783e 38be c73d 01ee 5bbe
000003c0: ef3d d6bd df6e 103e 6e1a 3e3e bcdd 223e
000003d0: 8af0 7abd 5f72 1ebe bc5f a7bc 237f e8bb
000003e0: ba69 5c3e 16d0 313e a818 0ebd d830 b0bc
000003f0: c725 633d 45d9 1dbe dbbc a6bc 7fbd 97bd

decoder/decoder_dense_1/BiasAdd/ReadVariableOp:0 f4 [75]
0.043772276 -0.02300102 0.0051511726 0.012798587 0.020307418 -0.058262326 0.11980461 0.00035391582
-0.019681554 -0.04518606 -0.080700755 -0.092771955 -0.036622368 -0.043779794 0.0018769224 0.014609377
-0.026301635 -0.0054139164 0.016376833 -0.0064506973 -0.007719513 0.041409608 0.010478534 0.013800927
-0.029153353 0.0 0.06478511 -0.044088263 0.07397332 0.0027103964 -0.01634242 0.0019305828
-0.000289777 -0.023396263 0.0059914864 -0.0019839774 0.05060093 0.011349739 0.034727097 0.0070117344
-0.020216547 0.043193366 0.004689857 0.026472421 -0.010690823 0.0041641635 -0.02223928 -0.012315807
0.03892801 0.06563901 0.021067264 0.02848123 -0.0044824085 0.0025497824 -0.02094775 0.057270538
-0.03110571 -0.047856763 -0.044190478 -0.020903053 0.016463825 0.014291232 0.02830562 0.013981799
0.023068694 -0.014928037 0.0144270435 0.16758327 -0.059770208 -0.030631397 0.0009007519 0.01874321
-0.0009468281 -0.003431266 0.048560508
00000000: 8f4a 333d a36c bcbc 2bcb a83b 2ab1 513c
00000010: be5b a63c 7aa4 6ebd 1f5c f53d c78d b939
00000020: 363b a1bc 0515 39bd 7046 a5bd 39ff bdbd
00000030: 5601 16bd 7152 33bd 1103 f63a 2b5c 6f3c
00000040: 8776 d7bc 3967 b1bb b528 863c 5f60 d3bb
00000050: f8f3 fcbb 1f9d 293d 28ae 2b3c 491d 623c
00000060: 03d3 eebc 0000 0000 0eae 843d e595 34bd
00000070: 537f 973d e8a0 313b 8ae0 85bc 9c0b fd3a
00000080: 36ed 97b9 85a9 bfbc 3b54 c43b 9e05 02bb
00000090: ec42 4f3d 41f4 393c 003e 0e3d b1c2 e53b
000000a0: 2c9d a5bc 87eb 303d 5fad 993b b1dc d83c
000000b0: 9028 2fbc 8973 883b 272f b6bc 3dc8 49bc
000000c0: fa72 1f3d bf6d 863d 4195 ac3c 7851 e93c
000000d0: 2be1 92bb 401a 273b 9e9a abbc 8394 6a3d
000000e0: 67d1 febc 7405 44bd 1301 35bd e13c abbc
000000f0: 25df 863c c625 6a3c 30e1 e73c ea13 653c
00000100: 8ffa bc3c ba94 74bc 685f 6c3c f39a 2b3e
00000110: 9bd1 74bd b2ee fabc 7020 6c3a 5c8b 993c
00000120: 8f34 78ba 17df 60bb 62e7 463d
