onnx_inference/no_duplicates_75_2_mask_encoder.onnx (onnx, 27151 bytes, 6 tensors)

encoder/encoder_dense_2/MatMul/ReadVariableOp:0 f4 [75, 75]
0	0xbe3f68e3	-0.18692355
1	0x3decc292	0.11560549
2	0x3de6a8fa	0.112626985
3	0xbe48f027	-0.19622861
4	0x3d5b3674	0.053518727
5	0x3dcdf99a	0.10057373
6	0x3d33c7a8	0.04389158
7	0xbcbbc300	-0.022920132
8	0x3e482333	0.19544677
9	0x39b32000	0.00034165382
10	0x3d18fbb4	0.037349418
11	0xbd088b28	-0.033335835
12	0xbc03aa60	-0.008036226
13	0xbe0e5e36	-0.13903126
14	0xbdc02b00	-0.093832016
15	0xbe078cdd	-0.13237329
16	0xbc3a46a0	-0.011369377
17	0xbe28ba76	-0.16477379
18	0x3c1aded0	0.009452537
19	0xbe3b1117	-0.18268238
20	0xbd0766a8	-0.033056885
21	0xbe0a7570	-0.13521361
22	0x3d569a04	0.052392974
23	0xbe019e16	-0.12657961
24	0xbe0ad9a4	-0.13559586
25	0x3e0671d3	0.13129358
26	0x3e1a40f3	0.15063839
27	0xbe1e5b40	-0.15464497
28	0xbd00b4b4	-0.031422332
29	0xbdcc517a	-0.09976478
30	0xbdbefb9a	-0.09325333
31	0x3d864e02	0.065578476
32	0xbd976554	-0.07392374
33	0xbd9baaba	-0.07600923
34	0x3ded8f42	0.1159959
35	0xbe044704	-0.12917715
36	0x3e0de48d	0.13856716
37	0x3e12d733	0.14339904
38	0x3db4c8ba	0.08827348
39	0x3e375363	0.17902903
40	0xbd4a09d8	-0.049325794
41	0xbe2dc1f7	-0.16968523
42	0x3d64c85c	0.05585514
43	0x3e1dd27d	0.15412326
44	0xbe0ebc4d	-0.13939019
45	0xbdc935e0	-0.09824729
46	0xbdbeb700	-0.09312248
47	0xbd24e918	-0.040261358
48	0x3b62b0c0	0.0034590214
49	0x3e135ba7	0.14390431
50	0xbe0cc710	-0.13747811
51	0x3e35babd	0.17747016
52	0x3b937c00	0.004500866
53	0xbd57a6b4	-0.052649215
54	0x3e0cfc4d	0.1376812
55	0x3dbd08d2	0.09230198
56	0x3a462600	0.0007558763
57	0xbe3226ad	-0.17397566
58	0xbe2971e0	-0.16547346
59	0x3dffc4b2	0.124886885
60	0x3d7b6424	0.0613748
61	0x3d8aedf2	0.06783666
62	0xbe3fa3cd	-0.18714829
63	0xbdfbb7d3	-0.12290921
64	0xbd97e72c	-0.074171394
65	0x3e057ab7	0.13035093
66	0x3e308fb9	0.17242326
67	0x3dc1ffd2	0.09472622
68	0xbdc2bc07	-0.095085196
69	0xbdeec027	-0.11657744
70	0x3d6e3b0c	0.05816178
71	0x3de8b6c2	0.11362983
72	0x3d9f472e	0.07777248
73	0xbe033fe6	-0.12817344
74	0x3d9f3282	0.077733055
75	0x3e11baa7	0.14231358
76	0xbe42f54a	-0.19038883
77	0xbd7f8c40	-0.062389612
78	0xbda2739b	-0.07932206
79	0x3e4a1495	0.19734414
80	0x3dc12132	0.0943016
81	0xbe3ebcb3	-0.1862667
82	0x3c38ba6d	0.011274916
83	0xbde065e7	-0.10956936
84	0xbe265476	-0.16243157
85	0x3e121cdb	0.1426882
86	0xbd827046	-0.06369071
87	0xbddafd80	-0.106928825
88	0x3e1a79f7	0.15085588
89	0x3d8df050	0.069306016
90	0x3e0869d0	0.13321614
91	0x3e3b03b6	0.18263134
92	0x3dae1829	0.08500702
93	0x3c6431a0	0.013927847
94	0x3d589ebe	0.052885763
95	0xbd513580	-0.051076412
96	0x3dc6df82	0.097105995
97	0x3d973fe6	0.073852345
98	0x3c26f1a0	0.010189444
99	0xbdaf4813	-0.08558669
100	0xbcb9ac9e	-0.022665318
101	0xbe49b543	-0.19698052
102	0xbcf1ba00	-0.029507637
103	0x3e234a17	0.15946232
104	0xbd6e9fcc	-0.058257863
105	0x3dfa3c02	0.12218477
106	0xbda4d7d3	-0.08048978
107	0xbdffb5c2	-0.124858394
108	0x3e121c2d	0.1426856
109	0xbe45cbc3	-0.1931601
110	0x3dec9946	0.11552672
111	0xbe34c750	-0.17654157
112	0x3c9ebb00	0.019376278
113	0xbdaece70	-0.085354686
114	0xbd89ab1d	-0.067220904
115	0x3e0e0c39	0.1387185
116	0xbd4ddf0d	-0.050261546
117	0x3e0d1107	0.13776027
118	0xbdec9aee	-0.11552988
119	0xbe452e44	-0.1925593
120	0xbe359900	-0.17734146
121	0xbd16a628	-0.036779553
122	0xbcc391c0	-0.02387321
123	0x3e040869	0.12893833
124	0x3d17c218	0.037050337
125	0x3d6546c4	0.05597569
126	0xbccd5280	-0.025063753
127	0xbc02f6e1	-0.007993431
128	0xbe29458a	-0.16530433
129	0x3c5f3593	0.013623613
130	0xbe405200	-0.1878128
131	0xbdcf5ea7	-0.101254754
132	0xbd74c1ce	-0.05975514
133	0x3e3c2c99	0.18376388
134	0xbd366634	-0.044531062
135	0xbdefb21a	-0.11703892
136	0x3cad6579	0.02116655
137	0xbb0282d3	-0.0019914403
138	0xbd6c9d71	-0.057767335
139	0x3d116140	0.035493135
140	0x3e4b1917	0.1983379
141	0xbe2bcb9a	-0.16776887
142	0xbde236df	-0.11045622
143	0xbd630fa8	-0.055434853
144	0xba24427d	-0.0006266011
145	0xbe2c4f10	-0.16827035
146	0xbdb98788	-0.09059054
147	0x3dd4677a	0.10371299
148	0xbcf184b8	-0.02948223
149	0xbe12625b	-0.14295332
150	0x3cd5884e	0.026065972
151	0xbd1982b4	-0.037478164
152	0x3daf37fa	0.085555986
153	0xbd46ed6d	-0.04856627
154	0x3e06fc16	0.131821
155	0xbe1d2b1d	-0.15348478
156	0x3deed506	0.11661725
157	0xbd2cc6e0	-0.04218185
158	0xbd569bc9	-0.052394662
159	0xbe0e4f3a	-0.1389741
160	0x3df49c87	0.11943918
161	0xbe366a04	-0.17813879
162	0x3dd76c14	0.10518661
163	0x3df71d5a	0.12066145
164	0x3d0ff780	0.035148144
165	0x3d88988b	0.0666972
166	0xbe3af934	-0.18259126
167	0xbe69e922	-0.2284284
168	0x3e2163cd	0.15760727
169	0x3dfd8ece	0.123807535
170	0xbdb6ae12	-0.0891992
171	0x3db064ce	0.08612977
172	0x3e052672	0.13002947
173	0x3e39b36e	0.18134853
174	0x3e329881	0.17440988
175	0xbe13fd8e	-0.14452192
176	0xbe31894a	-0.17337528
177	0xbd65aa80	-0.056070805
178	0xbe48ad50	-0.19597363
179	0x3df4aa6e	0.119465694
180	0x3dba639a	0.09101029
181	0xbd4e27e4	-0.05033101
182	0x3e09a67e	0.13442418
183	0x3d2bf2dc	0.041979656
184	0x3e30aac7	0.17252646
185	0xbe87fdf0	-0.26560926
186	0xbd18a420	-0.037265897
187	0x3de354ae	0.11100136
188	0x3d0ab6cc	0.033865735
189	0x3dabd3b0	0.083899856
190	0xbdef3e64	-0.11681822
191	0xbc839fa8	-0.016067341
192	0x3d2f7ab5	0.042841632
193	0x3dcc2d63	0.09969594
194	0x3c96bad8	0.01839964
195	0xbe41ef5d	-0.18938966
196	0xbd0e0e21	-0.034681443
197	0x3e262022	0.16223195
198	0xbbf292bd	-0.0074027465
199	0x3dae4264	0.08508757
200	0xbe434630	-0.19069743
201	0xbe214523	-0.1574903
202	0xbd5f8393	-0.05456884
203	0x3d12a470	0.03580135
204	0xbd680fab	-0.056655567
205	0xbe37acf7	-0.17937075
206	0xbdf9212d	-0.12164531
207	0xbcbad829	-0.022808151
208	0xbda67204	-0.081272155
209	0x3e403fa1	0.18774273
210	0x3cd00861	0.02539462
211	0x3e035a05	0.12827308
212	0x3db2afee	0.08724962
213	0x3c021b97	0.007941148
214	0x3df2fd66	0.11864738
215	0x3dc86132	0.097841635
216	0x3e07433f	0.13209246
217	0xbe97e73e	-0.2966861
218	0xbd1c22db	-0.03811918
219	0x3d68eff5	0.056869466
220	0xbe915a1f	-0.2838907
221	0x3df61b1e	0.12016891
222	0xbe131420	-0.14363146
223	0x3df7347d	0.12070558
224	0xbe190514	-0.14943343
225	0xbd92303a	-0.07138105
226	0x3dd8e38e	0.105902776
227	0xbd18e2d8	-0.03732571
228	0xbd4612e8	-0.048357874
229	0xbe266010	-0.16247582
230	0xbd84a79a	-0.0647728
231	0xbde7b78d	-0.113143064
232	0xbdc3002d	-0.09521518
233	0xbe460e2a	-0.1934134
234	0x3df20fb2	0.118194
235	0xbdacaecd	-0.08431778
236	0x3d904e2e	0.070461616
237	0x3d911ee6	0.070859715
238	0xbd8ad974	-0.06779757
239	0x3d8e9092	0.06961168
240	0xbd69a998	-0.057046503
241	0x3b264b40	0.0025374442
242	0x3d65595c	0.055993423
243	0xbdadf9f3	-0.0849494
244	0xbdc94f13	-0.09829535
245	0xbbc0d200	-0.005884409
246	0x3d30cb28	0.043162495
247	0x3cad1b68	0.021131232
248	0xbdb3116d	-0.08743558
249	0x3d6f7f1c	0.05847083
250	0x3d76f8a4	0.060295716
251	0xbded11d3	-0.11575665
252	0x3e11c0dd	0.14233728
253	0xbb9b6400	-0.0047421455
254	0xbd81e614	-0.06342712
255	0xbccc0a50	-0.024907261

encoder/encoder_dense_2/BiasAdd/ReadVariableOp:0 f4 [75]
0	0x3d7ec183	0.062196266
1	0x00000000	0.0
2	0xbbd44029	-0.006477375
3	0xbca38e52	-0.019965325
4	0xbd053dcb	-0.032529633
5	0x00000000	0.0
6	0x3d20cb7d	0.03925656
7	0xbcaf144d	-0.021371985
8	0xbd19b5d4	-0.03752692
9	0x00000000	0.0
10	0x3dace242	0.08441593
11	0x3c113b3d	0.008864221
12	0xbce21043	-0.027595645
13	0x00000000	0.0
14	0xbd50bbd4	-0.050960377
15	0xbcf947e0	-0.03042978
16	0xbc44c926	-0.012010848
17	0x3bebf0a2	0.0072003165
18	0x00000000	0.0
19	0xbabf5eec	-0.0014600432
20	0xbc361585	-0.011113529
21	0x00000000	0.0
22	0xbc518169	-0.012787201
23	0x3b47568f	0.0030416583
24	0x3d530443	0.051517736
25	0xbb3ed981	-0.0029121342
26	0x00000000	0.0
27	0x00000000	0.0
28	0x00000000	0.0
29	0xbc86898b	-0.016423007
30	0x00000000	0.0
31	0x3cb9026a	0.022584159
32	0xbbfa17d4	-0.007632235
33	0xbc0eb35b	-0.008709754
34	0x00000000	0.0
35	0x3e02d6a2	0.12777188
36	0x3d29fcbb	0.04150079
37	0x00000000	0.0
38	0xbcc35ce9	-0.023848014
39	0xbbd45097	-0.0064793336
40	0x3dc5fd59	0.09667463
41	0x3d7b7080	0.061386585
42	0x3e2a1edf	0.16613339
43	0xbc73e803	-0.014886859
44	0x3c908f43	0.017646438
45	0x00000000	0.0
46	0xbba5fb7a	-0.0050653787
47	0xbcd351ed	-0.025795901
48	0xbbc79746	-0.0060910312
49	0x3a834419	0.0010014802
50	0x00000000	0.0
51	0x00000000	0.0
52	0xbcc85a64	-0.024457164
53	0x3dee8b27	0.11647635
54	0x3cb4a6d1	0.0220522
55	0x00000000	0.0
56	0x00000000	0.0
57	0x3de1b6d7	0.11021202
58	0xbc49ef26	-0.012325084
59	0x00000000	0.0
60	0xbd7c43b9	-0.061588023
61	0xbbf1b0a3	-0.007375793
62	0xbc160213	-0.009155768
63	0x3d61499b	0.055001836
64	0x00000000	0.0
65	0xbc6f4473	-0.014603722
66	0xbcb41375	-0.021981934
67	0xbd2d6ddc	-0.0423411
68	0x3daae365	0.08344153
69	0xbbb8beb4	-0.005637968
70	0x3d2bd98e	0.041955523
71	0x3cc3690f	0.023853807
72	0x3d0c6ad9	0.034281585
73	0x3d3f9e57	0.046781864
74	0x3d806a37	0.06270259

encoder/encoder_dense_1/MatMul/ReadVariableOp:0 f4 [3, 75]
0	0xbe7c91fd	-0.24665065
1	0xbe415aaa	-0.18882242
2	0x3c9abba7	0.018888308
3	0xbd945294	-0.07242313
4	0x3e05f6df	0.13082455
5	0x3dca8960	0.098894835
6	0x3e9b9191	0.30384496
7	0x3dff7a2a	0.12474473
8	0xbd312b81	-0.04325438
9	0x3e6248de	0.22098109
10	0x3e69472b	0.22781055
11	0xbe8a7db5	-0.27049032
12	0xbe2260d1	-0.15857245
13	0xbd2d021d	-0.042238344
14	0x3e5ffd4f	0.21873973
15	0x3e978d79	0.29600123
16	0x3de7b106	0.113130614
17	0x3df7c3f1	0.1209792
18	0xbdc61214	-0.09671417
19	0x3dd8b05b	0.10580512
20	0x3dacca95	0.08437077
21	0x3d1f793b	0.038933974
22	0xbe445d84	-0.19176298
23	0xbe534484	-0.20631605
24	0x3e240518	0.16017568
25	0x3d78e3fe	0.060764305
26	0x3e8a72d5	0.27040735
27	0x3e56a0bf	0.20959757
28	0x3e08cca8	0.1335932
29	0x3d96b2f7	0.073583536
30	0xbcc75975	-0.024334649
31	0xbcc5d7a7	-0.024150683
32	0x3df98d6c	0.12185177
33	0x3e45994c	0.1929676
34	0xbd63f051	-0.055649105
35	0xbd8404d8	-0.06446236
36	0xbd87f09a	-0.06637688
37	0xbe41b2d6	-0.18915877
38	0xbe7975e8	-0.24361384
39	0xbe016b57	-0.12638603
40	0x3dc3a791	0.09553445
41	0x3e52b57b	0.20577042
42	0x3d2797cd	0.040916253
43	0xbe64cdd8	-0.22344148
44	0xbe439eaa	-0.19103494
45	0xbe0c6df2	-0.13713816
46	0x3e1af5e7	0.15132867
47	0xbde6c2ea	-0.11267646
48	0xbde5eadf	-0.11226439
49	0xbd1b6fb4	-0.037948325
50	0x3e87d67f	0.26530835
51	0xbe7549c9	-0.23953928
52	0x3e4b350c	0.19844455
53	0x3c6d8cdf	0.014498918
54	0x3e78d777	0.24300943
55	0xbe4dd71e	-0.20101592
56	0xbe6ca35d	-0.23109193
57	0xbe170acc	-0.14750212
58	0xbe374c77	-0.17900263
59	0x3e847919	0.2587364
60	0x3d4ff3a8	0.050769478
61	0xbdd98f44	-0.10623029
62	0x3e1d33ab	0.15351741
63	0xbe420302	-0.1894646
64	0xbe13184f	-0.14364742
65	0x3de1aeb0	0.11019647
66	0xbe622b35	-0.22086795
67	0x3e4cd5de	0.20003459
68	0xbcf566b8	-0.029956207
69	0x3e1577c9	0.14596476
70	0xbd4ab345	-0.04948737
71	0xbe549c89	-0.20762838
72	0x3e4b3b3b	0.19846813
73	0xbd9f385b	-0.07774421
74	0xbb996000	-0.0046806335
75	0xbe5932fe	-0.21210858
76	0x3e324a56	0.1741117
77	0xbd65e77f	-0.056128975
78	0xbe8d46c8	-0.27593064
79	0x3e51b392	0.20478657
80	0xbce68306	-0.028138649
81	0xbe1dcca8	-0.15410101
82	0x3dbc5abd	0.091969945
83	0xbd19acde	-0.037518375
84	0xbe68acc6	-0.22722158
85	0x3e50e929	0.20401444
86	0x3e13b29a	0.144236
87	0xbe16a38a	-0.14710823
88	0xbe704b09	-0.23466124
89	0xbd28803f	-0.04113793
90	0xbb909bd7	-0.004413109
91	0x3d42a461	0.047520045
92	0xbdafd5f0	-0.08585727
93	0xbdc9fcd8	-0.09862679
94	0x3e192c0f	0.14958213
95	0x3e4a24c2	0.19740584
96	0xbe561fd5	-0.2091058
97	0xbdca3c76	-0.09874813
98	0xbe584f0c	-0.21123904
99	0x3da05a94	0.078297764
100	0xbe37f269	-0.17963566
101	0xbd918862	-0.07106091
102	0x3dd81475	0.10550777
103	0x3d8e94d0	0.069619775
104	0xbd3bffa4	-0.045898095
105	0x3e0ec711	0.13943125
106	0x3da0908e	0.078400716
107	0x3d947d5d	0.07250474
108	0x3d23dd1e	0.040005796
109	0x3e5e0446	0.21681318
110	0xbe67c4ef	-0.22633718
111	0xbdaed892	-0.08537401
112	0xbe12a33b	-0.1432008
113	0x3d9d71b0	0.076877
114	0x3e6d3f5e	0.23168704
115	0x3e57cf18	0.21075094
116	0x3e075985	0.13217743
117	0xbe73016a	-0.23731008
118	0x3e96456b	0.29349837
119	0xbdabbbd6	-0.08385436
120	0x3e5bde62	0.21471551
121	0x3e0cba31	0.13742901
122	0xbe661126	-0.22467479
123	0x3e6b845d	0.22999711
124	0xbe3c0254	-0.18360263
125	0x3ddfca4c	0.10927257
126	0x3e38d52d	0.1805007
127	0xbe0b7362	-0.13618234
128	0xbdd9da0b	-0.106372915
129	0x3e27f93f	0.16403674
130	0xbe446758	-0.19180048
131	0xbc4b63c0	-0.012413919
132	0x3dfab10c	0.122408
133	0xbdd54774	-0.10414019
134	0x3e728249	0.23682512
135	0xbe754cf5	-0.23955138
136	0x3d4126b1	0.04715604
137	0xba14f11b	-0.00056816795
138	0x3bd1fdc0	0.006408423
139	0xbe52c9ee	-0.20584843
140	0xbd9c21cf	-0.07623636
141	0xbda23dde	-0.079219565
142	0x3e35f0c5	0.17767628
143	0xbdfcead4	-0.123494774
144	0x3e72ee1c	0.23723644
145	0x3e091dd9	0.13390292
146	0x3d9b4100	0.07580757
147	0x3e15479f	0.14578103
148	0x3e8e4596	0.27787465
149	0xbe22ec19	-0.15910377
150	0x3e8a453f	0.27005956
151	0x3c9f0b97	0.019414706
152	0x3e8af85c	0.27142608
153	0xbce42b08	-0.02785255
154	0xbd94f84f	-0.072739236
155	0x3bd4053a	0.0064703496
156	0xbe32ac76	-0.17448601
157	0xbe166263	-0.14685969
158	0x3db531a4	0.08847359
159	0x3e3032ce	0.1720688
160	0x3e6ff5cd	0.2343361
161	0x3e019864	0.12655789
162	0x3b77bc00	0.0037801266
163	0x3e9eaf92	0.30993325
164	0xbe95dd60	-0.29270458
165	0xbe96648c	-0.29373586
166	0x3e05318a	0.13007179
167	0x3e63e6a0	0.22255945
168	0x3de5f68c	0.11228666
169	0xbdc6e15e	-0.09710954
170	0x3e2d895a	0.16946927
171	0xbea67b83	-0.32516107
172	0xbe5e02b0	-0.21680713
173	0xbd297464	-0.041370764
174	0xbcfe9887	-0.03107859
175	0xbe8420f0	-0.2580638
176	0xbe33cf3a	-0.1755952
177	0xbd416d04	-0.047223106
178	0xbe8350f5	-0.25647703
179	0x3e0c7fb7	0.13720594
180	0xbe1f462f	-0.15554117
181	0x3e421a24	0.18955284
182	0xbdd73f73	-0.10510149
183	0x3b2b823d	0.0026170157
184	0x3d4bcfb3	0.049758624
185	0x3e857943	0.26069078
186	0x3e0ace67	0.13555299
187	0x3e3835fa	0.1798934
188	0xbdf1f81a	-0.118149
189	0xbe8a9d4f	-0.27073142
190	0x3df59e01	0.119930275
191	0xbe740ee5	-0.23833807
192	0xbd82cdf7	-0.06386941
193	0x3e1c5939	0.1526841
194	0x3d5274e8	0.05138102
195	0xbe840baa	-0.2579015
196	0x3e0199b8	0.12656295
197	0x3dc0fdf0	0.09423435
198	0x3e0b8e1b	0.13628428
199	0x3c6b03e0	0.014344186
200	0x3e178f59	0.14800777
201	0x3e8415f8	0.2579801
202	0x3e91e26c	0.2849306
203	0xbe531292	-0.20612553
204	0xbd063a8d	-0.032770682
205	0x3d93a608	0.07209402
206	0xbe841f2c	-0.25805032
207	0xbe14b1c8	-0.14520943
208	0x3cc46110	0.023972064
209	0xbe46bc38	-0.19407737
210	0xbddbf505	-0.10740093
211	0x3e4a01c3	0.19727235
212	0xbe0e2ae2	-0.13883546
213	0x3e01d5c6	0.12679204
214	0x3d9d0edc	0.0766885
215	0x3dd02f78	0.10165304
216	0x3e5741e4	0.21021229
217	0x3e1dc025	0.15405329
218	0x3d660f18	0.05616674
219	0xbe8d8e03	-0.2764741
220	0xbe7dbc67	-0.24778901
221	0x3e028832	0.12747267
222	0xbdfa231d	-0.122137286
223	0x3e670af6	0.22562775
224	0xbe6c6378	-0.2308482

encoder/encoder_dense_1/BiasAdd/ReadVariableOp:0 f4 [75]
0	0x00000000	0.0
1	0xbc141f7f	-0.009040712
2	0xbc52dc80	-0.012869954
3	0x00000000	0.0
4	0xbb954d79	-0.0045563546
5	0x3d6c6042	0.057708986
6	0x3be1df53	0.0068930774
7	0x3d1050fd	0.035233486
8	0x3dae934f	0.08524191
9	0x3cd6ddb6	0.026228767
10	0x3c12cd97	0.008960149
11	0x00000000	0.0
12	0x00000000	0.0
13	0x3d2ff8d0	0.042961895
14	0x3cf6c76f	0.030124394
15	0xbafd98cf	-0.0019347909
16	0xbc92d8c0	-0.01792562
17	0xbcccb10e	-0.02498677
18	0x00000000	0.0
19	0xbcb55b8e	-0.022138383
20	0xbd80aed9	-0.062833495
21	0x3e16d93a	0.14731303
22	0x00000000	0.0
23	0x00000000	0.0
24	0x3c309575	0.010777821
25	0x3e14ab5e	0.14518496
26	0xbc9ec46c	-0.01938077
27	0xbd817310	-0.063207746
28	0x3d06a204	0.032869354
29	0x3b48fee6	0.003066951
30	0x3d3b1e2d	0.045683075
31	0xbc68bbc0	-0.014204919
32	0xbd087e1e	-0.0333234
33	0xbc469251	-0.0121198455
34	0xbc74eff2	-0.014949786
35	0x00000000	0.0
36	0xbb8ab95f	-0.0042335237
37	0x00000000	0.0
38	0x00000000	0.0
39	0x00000000	0.0
40	0x3dbfd50d	0.09366808
41	0x3ae2a266	0.001729083
42	0xbba8815b	-0.0051423735
43	0x3d53a5f9	0.051671956
44	0x00000000	0.0
45	0x00000000	0.0
46	0x3c0d915c	0.008640613
47	0x00000000	0.0
48	0x3cd1d976	0.025616389
49	0x00000000	0.0
50	0x3b51bd45	0.0032003683
51	0x3d7ea772	0.062171407
52	0x3cf44410	0.029817611
53	0x3da68912	0.08131613
54	0x3d833dad	0.06408248
55	0x00000000	0.0
56	0x00000000	0.0
57	0x00000000	0.0
58	0x00000000	0.0
59	0xbd740995	-0.05957945
60	0xbb593545	-0.0033143323
61	0x3c831dd9	0.016005443
62	0xbc282689	-0.010263094
63	0x00000000	0.0
64	0x00000000	0.0
65	0x3c3da5f0	0.011575207
66	0x00000000	0.0
67	0x3bd55eb8	0.0065115355
68	0x00000000	0.0
69	0x3d42543a	0.047443606
70	0xbbdd839f	-0.006760075
71	0x00000000	0.0
72	0x3d338e53	0.043836903
73	0xbca08727	-0.019595696
74	0x00000000	0.0

encoder/decoder_output/MatMul/ReadVariableOp:0 f4 [75, 5]
0	0x3e2b225a	0.16712323
1	0x3f0c4b46	0.5480236
2	0x3d50d14c	0.05098085
3	0xbe79407e	-0.24341008
4	0xbd36eeeb	-0.044661444
5	0xbdeaefac	-0.11471495
6	0x3e27a7da	0.16372624
7	0x3d61f568	0.05516568
8	0x3e418212	0.18897274
9	0xbe7dcdc3	-0.24785523
10	0xbd5e9eac	-0.05435054
11	0xbcb3a6c4	-0.021930106
12	0x3e827be0	0.25485134
13	0x3df47164	0.1193569
14	0x3db39e81	0.087704666
15	0x3e2fa33a	0.1715211
16	0xbe409479	-0.18806638
17	0x3e39052a	0.18068376
18	0xbe5fc9ed	-0.21854372
19	0x3d84cc3f	0.06484269
20	0xbe47ba5a	-0.19504681
21	0x3d3ba867	0.045814898
22	0xbdc67c66	-0.09691696
23	0xbd81b87d	-0.063340165
24	0xbdd88013	-0.10571303
25	0x3e862366	0.26198882
26	0xbe153d54	-0.14574176
27	0xbc9790b0	-0.01850161
28	0x3e83670a	0.2566455
29	0xbe54fc28	-0.20799315
30	0x3c4ecbf9	0.012621873
31	0x3e9903cd	0.29885712
32	0x3da30609	0.079601355
33	0xbe7e99ce	-0.2486336
34	0xbd8e8c40	-0.06960344
35	0xbddbb45b	-0.107277595
36	0xbd076cce	-0.03306275
37	0x3d281768	0.041037947
38	0xbe5d7a5b	-0.21628706
39	0xbd924095	-0.07141224
40	0x3dc3b613	0.09556212
41	0xbca12ed9	-0.019675659
42	0xbe0a5589	-0.13509192
43	0xbe417c7c	-0.18895143
44	0x3dc13657	0.09434193
45	0xbe8a3de5	-0.27000347
46	0xbe2de510	-0.16981912
47	0xbe87ba0f	-0.2650914
48	0x3e485e16	0.19567141
49	0x3e80edcc	0.25181425
50	0xbde007e8	-0.10939008
51	0x3e82b953	0.25532016
52	0x3da890d7	0.08230751
53	0x3d978998	0.07399291
54	0x3e880aaf	0.2657065
55	0x3d90eb7d	0.07076166
56	0xbe83abab	-0.2571691
57	0x3e3dfb33	0.18552856
58	0xbe840389	-0.25783947
59	0x3d83c2ce	0.064336404
60	0xbe87962e	-0.26481766
61	0xbe19eb54	-0.15031177
62	0xbe837975	-0.25678602
63	0x3e050de3	0.12993579
64	0xbdb45ec2	-0.08807136
65	0x3c84fac0	0.016232848
66	0xbe1b7b1e	-0.15183684
67	0xbd9f9006	-0.07791142
68	0x3c254020	0.010086089
69	0xbe15cceb	-0.14628951
70	0xbe7af3e6	-0.24507102
71	0xbeacd962	-0.337596
72	0x3dc1de22	0.094661966
73	0x3cffc7c9	0.031223195
74	0xbe6c2b5b	-0.23063414
75	0xbddbad33	-0.107263945
76	0x3ddf8328	0.10913688
77	0xbe5c01ba	-0.21485034
78	0xbe483e73	-0.19555072
79	0xbc499b44	-0.012305085
80	0xbe715db2	-0.23570898
81	0xbdf7fa26	-0.12108259
82	0xbe1b0f8b	-0.15142648
83	0xbe7f928e	-0.2495825
84	0xbdc03451	-0.093849786
85	0x3e4aecc6	0.19816884
86	0xbea83ee7	-0.3286049
87	0x3e91b66c	0.2845949
88	0xbe8735fa	-0.26408368
89	0x3e5a4763	0.21316294
90	0x3d83f560	0.06443286
91	0xbccb4f10	-0.024817973
92	0x3d885b24	0.06658009
93	0xbcfd0098	-0.030884072
94	0xbd403fe4	-0.04693593
95	0xbe8f9c9c	-0.2804917
96	0x3d42c373	0.047549676
97	0xbe448944	-0.19192988
98	0x3e699b02	0.22813037
99	0x3e847f48	0.25878358
100	0xbe08de40	-0.13366032
101	0x3e18033e	0.14844987
102	0xbe80fcc7	-0.25192854
103	0x3d51da3e	0.051233523
104	0xbc9e11cd	-0.019295597
105	0x3e836a76	0.2566716
106	0x3e1bbef8	0.15209568
107	0x39cc3c00	0.00038954616
108	0x3df431bc	0.119235486
109	0x3e85cf86	0.2613489
110	0xbe8a413d	-0.27002898
111	0xbcc80f9c	-0.024421506
112	0x3dd27895	0.102769054
113	0x3e12239d	0.14271398
114	0xbe24cba2	-0.16093305
115	0xbd5ab254	-0.053392723
116	0xbcc51814	-0.024059333
117	0x3de50f7b	0.11184593
118	0x3e49c973	0.19705753
119	0xbe759188	-0.23981297
120	0xbd4543ac	-0.04816024
121	0x3e3f6aa3	0.18693022
122	0x3e6b419f	0.22974251
123	0xbded1d11	-0.115778096
124	0x3e1ea609	0.15493025
125	0xbce3bcd5	-0.027800003
126	0xbdf46dec	-0.119350284
127	0x3e6b7bc6	0.22996435
128	0xbb61b00b	-0.0034437205
129	0xbd92ddb4	-0.07171193
130	0x3e3d7b98	0.18504179
131	0x3cba57a0	0.022746861
132	0xbe20b262	-0.15693048
133	0x3c6899e0	0.014196843
134	0x3e79efa8	0.24407828
135	0xbd422e10	-0.04740721
136	0xbcec8090	-0.028869897
137	0xbd9c527e	-0.07632922
138	0x3d6d5640	0.057943583
139	0xbe4ae7b7	-0.19814955
140	0x3e8ace8c	0.27110708
141	0x3d0354b8	0.032063216
142	0xbd972952	-0.07380928
143	0xbdd7259c	-0.1050522
144	0xbd80cfea	-0.062896565
145	0xbdcfef4d	-0.10153065
146	0xbe0c6fa7	-0.13714467
147	0x3c8269ed	0.01591965
148	0xbe814482	-0.2524758
149	0x3de08eca	0.10964735
150	0x3e85990e	0.26093334
151	0x3e8bc954	0.2730204
152	0x3c73b260	0.014874071
153	0x3e71e700	0.23623276
154	0x3d2580a8	0.0404059
155	0x3e028449	0.12745775
156	0xbdecc0cc	-0.115602106
157	0x3e81fcbe	0.2538814
158	0x3e52016f	0.2050836
159	0xbe6f2e2a	-0.23357454
160	0xbdba12e6	-0.09085636
161	0x3d7ce2bb	0.061739665
162	0xbd8b6df0	-0.06808078
163	0x3d97dc9f	0.07415127
164	0x3d5ae3c9	0.05343989
165	0x3dd6a4e3	0.104806684
166	0xbe7e4cec	-0.24834031
167	0xbe04053b	-0.1289262
168	0xbe00cb13	-0.12577467
169	0x3e4a8eee	0.19781086
170	0x3e12c01a	0.14331093
171	0x3e1b969c	0.15194172
172	0x3e238d70	0.15971923
173	0x3e86c8f0	0.26325178
174	0xbddb41ec	-0.10705933
175	0x3e59cb92	0.21269062
176	0xbd6df3c6	-0.05809381
177	0x3e5c5ac9	0.21519007
178	0x3ded6498	0.11591452
179	0x3e7f1336	0.24909672
180	0x3e05c34d	0.13062783
181	0xbdd67ec3	-0.10473397
182	0x39f1fb8c	0.0004615452
183	0x3e93607d	0.28784552
184	0xbe0906c7	-0.13381492
185	0xbd264620	-0.04059422
186	0x3de3ba78	0.111195505
187	0xbe002f61	-0.12518074
188	0x3e3a76ea	0.18209425
189	0xbe0e701e	-0.13909957
190	0x3e898a80	0.2686348
191	0xbe8ba501	-0.27274325
192	0xbe657af9	-0.22410192
193	0x3ebd69c8	0.36994767
194	0xbd47a475	-0.048740823
195	0xbe360ea1	-0.17779018
196	0x3b98a8f3	0.004658812
197	0x3e1f7433	0.1557167
198	0xbe1a3cc3	-0.15062241
199	0x3b2b5478	0.0026142877
200	0x3e6f63d2	0.23377922
201	0x3dd49c98	0.103814304
202	0x3e559ead	0.20861311
203	0x3d67a14e	0.056550317
204	0x3dd35aa7	0.10320025
205	0x3e068334	0.13135988
206	0xbe81d9f9	-0.25361612
207	0x3e31ebfa	0.17375174
208	0x3e8f6fcc	0.28014982
209	0x3d9672f9	0.07346148
210	0x3ca654fa	0.020304192
211	0x3e91ffee	0.2851557
212	0x3e363fdf	0.17797802
213	0x3e2ecd1b	0.17070429
214	0x3e69b58a	0.22823158
215	0x3e3c3e85	0.18383224
216	0x3d70b923	0.05877031
217	0xbe841090	-0.25793886
218	0x3d80a41c	0.062813014
219	0x3e5cacd9	0.21550311
220	0xbded1e19	-0.11578006
221	0x3e84fb30	0.2597289
222	0xbe3d557b	-0.1848964
223	0x3d0aebfc	0.03391646
224	0xbe58fd78	-0.2119044
225	0xbdb9e9e0	-0.09077811
226	0xbe2b5007	-0.16729747
227	0xbe4e82e7	-0.20167123
228	0x3d133008	0.035934478
229	0x3e8271ee	0.25477546
230	0x3c529dbf	0.012854992
231	0xbe7b57bf	-0.24545191
232	0x3cfe15f2	0.031016324
233	0xbdb4381b	-0.08799764
234	0x3d470943	0.048592817
235	0xbe897604	-0.2684785
236	0x3c924beb	0.017858466
237	0xbe77662b	-0.24160068
238	0xbddc0b5f	-0.10744356
239	0xbdb4031b	-0.08789655
240	0xbde094dc	-0.10965893
241	0xbc8fde44	-0.01756204
242	0xbcdf70e6	-0.027275514
243	0xbe241295	-0.16022713
244	0xbe4ee07c	-0.20202821
245	0xbe7fa875	-0.24966605
246	0x3e8ac70a	0.2710498
247	0x3e0b1095	0.13580544
248	0xbe51a5b3	-0.20473365
249	0xbd1e1baf	-0.03860062
250	0xbe7d6302	-0.247448
251	0xbe034a3e	-0.1282129
252	0x3e36b49e	0.17842337
253	0xbe0fc10d	-0.14038487
254	0xbd98defc	-0.07464406
255	0xbdd05406	-0.10172276

encoder/decoder_output/BiasAdd/ReadVariableOp:0 f4 [5]
0	0x3d81c66c	0.06336674
1	0x3d8df17c	0.06930825
2	0x3d0b7643	0.03404833
3	0x3d632a46	0.055460237
4	0x3d0a1951	0.03371555
