onnx_inference/small_batch_size_encoder.onnx (onnx, 27151 bytes, 6 tensors)

encoder/encoder_dense_2/MatMul/ReadVariableOp:0 f4 [75, 75]
0	0x3c8f0100	0.017456532
1	0x3e39db81	0.1815014
2	0xbdf2bc80	-0.1185236
3	0xbdbfbe07	-0.09362417
4	0xbe33cfa0	-0.17559671
5	0xbdc1057a	-0.09424873
6	0xbe42cb5a	-0.19022885
7	0x3d873906	0.06602673
8	0xbe1fb8f6	-0.15597901
9	0x3d878882	0.06617834
10	0xbdf14c0d	-0.11782084
11	0x3e1e1173	0.15436344
12	0xbd57fb74	-0.05273004
13	0x3ddc3ea2	0.10754134
14	0x3e1a4be3	0.15068011
15	0xbd2d3b28	-0.042292744
16	0xbd517d68	-0.051144987
17	0x3de749ee	0.11293398
18	0x3ddebef2	0.10876264
19	0xbe2e7480	-0.17036629
20	0xbd9bed1a	-0.07613583
21	0x3d78900c	0.06068425
22	0xbdd02140	-0.10162592
23	0xbca9cad0	-0.020726591
24	0x3e2e59b1	0.17026402
25	0xbc8ba918	-0.017048404
26	0x3e06efdd	0.13177438
27	0x3d59b3b4	0.053149894
28	0xbe08e56a	-0.13368765
29	0xbdb7db47	-0.08977371
30	0xbe04fe26	-0.12987575
31	0x3d11b318	0.035571188
32	0xbd06dacc	-0.032923505
33	0xbd160bb4	-0.036632255
34	0xbe12bb83	-0.14329343
35	0x3e388d87	0.18022738
36	0x3e2461c9	0.16052927
37	0x3d8bab4e	0.06819783
38	0x3e2e5ec1	0.17028333
39	0xbc77b0d0	-0.015117839
40	0xbd8e9a5a	-0.06963034
41	0xbe069910	-0.13144326
42	0xbe2d123d	-0.16901489
43	0xbd9816e6	-0.074262425
44	0xbe4bf30a	-0.19916931
45	0xbe34ce7a	-0.1765689
46	0x3e254cfd	0.1614265
47	0xbd660374	-0.056155637
48	0xbe171580	-0.14754295
49	0xbe464ead	-0.1936595
50	0x3d2c1228	0.042009503
51	0xbe2740a0	-0.16333246
52	0xbe27195d	-0.16318269
53	0x3e0503d9	0.12989749
54	0xbe01e3d4	-0.12684566
55	0xbe0318f0	-0.12802482
56	0xbe4a7c9a	-0.19774094
57	0xbe3b5417	-0.18293796
58	0xbd87f100	-0.06637764
59	0xbdfca100	-0.12335396
60	0xbd01ca80	-0.03168726
61	0x3e3b4cfd	0.18291087
62	0x3d5292a4	0.05140938
63	0xbe0d5c16	-0.13804659
64	0x3ca191b0	0.01972279
65	0x3cbc5ce8	0.02299352
66	0xbd99f600	-0.07517624
67	0xbe2a9d40	-0.16661549
68	0xbe43f06d	-0.19134684
69	0x3db1b46e	0.08676992
70	0x3e2f5889	0.17123617
71	0xbdeb7fc0	-0.11498976
72	0x3ddede62	0.1088226
73	0x3dab4412	0.08362593
74	0x3d932626	0.071850106
75	0xbe366060	-0.17810202
76	0x3e170e79	0.14751615
77	0x3cd32418	0.025774047
78	0x3e0a1727	0.13485394
79	0x3dee2fe6	0.1163023
80	0x3cdc1730	0.026866525
81	0xbe37a1fa	-0.17932883
82	0x3df63c4e	0.12023221
83	0xbd660bcc	-0.056163594
84	0x3daeac4e	0.08528958
85	0xbe3417aa	-0.17587152
86	0x3de99ae6	0.11406498
87	0xbe1e63f0	-0.1546781
88	0x3e1b0333	0.15137939
89	0xbdca4787	-0.09876924
90	0x3dc49a62	0.09599759
91	0x3dba46ee	0.0909556
92	0x3dad9e86	0.084775016
93	0xbe09b304	-0.13447195
94	0xbdb6da87	-0.089283995
95	0x3d5c9874	0.053856328
96	0x3e4209b7	0.18949018
97	0xbd9d7a0d	-0.07689295
98	0x3d13d240	0.036089182
99	0xbdfddf87	-0.1239615
100	0xbe47bc17	-0.19505344
101	0xbe0e38e6	-0.13888893
102	0x3d3c5834	0.045982555
103	0x3deadfb2	0.11468448
104	0xbdb66a7a	-0.089070275
105	0x3e00fd03	0.12596516
106	0xbe33e33a	-0.17567149
107	0xbdae7ae0	-0.0851953
108	0x3d2842c0	0.041079283
109	0xbd86facc	-0.065908045
110	0xbd12020c	-0.035646483
111	0xbe396300	-0.18104172
112	0x3c73f500	0.0148899555
113	0xbda9dae7	-0.082937054
114	0x3c17af60	0.009258121
115	0xbe33c66a	-0.17556158
116	0xbe47d62d	-0.19515295
117	0xbe1d19c6	-0.15341863
118	0x3caa60b0	0.020798057
119	0xbdf4214d	-0.11920414
120	0x3e28c479	0.16481198
121	0x3e3d5469	0.18489231
122	0x3c67fe60	0.014159769
123	0x3daf41a2	0.0855744
124	0x3de4e35a	0.11176176
125	0x3e4acbc9	0.198043
126	0xbc151800	-0.00909996
127	0xbd0ba000	-0.034088135
128	0x3e07f1dd	0.13275857
129	0x3d9c0722	0.07618548
130	0xbd99f9ad	-0.07518325
131	0xbdcfb69a	-0.1014225
132	0x3e1850d9	0.14874591
133	0xbdc43dc0	-0.095820904
134	0xbe1e8aa3	-0.15482573
135	0x3e246443	0.16053872
136	0xbe08e094	-0.1336692
137	0x3e434b5d	0.19071718
138	0xbc254b60	-0.010088772
139	0x3e0ffff1	0.14062478
140	0x3d94f3ba	0.0727305
141	0x3dae0442	0.08496906
142	0x3df8f1a2	0.12155463
143	0x3df5b3da	0.119971946
144	0xbe4c664d	-0.199609
145	0xbe368123	-0.17822699
146	0xbda7947a	-0.081826165
147	0x3e3b2931	0.18277432
148	0xbc1f72a0	-0.009731919
149	0xbe00369a	-0.12520829
150	0x3db4df88	0.08831698
151	0x3ca9a021	0.020706238
152	0xbe68d479	-0.22737302
153	0xbebb4b75	-0.36581007
154	0xbda317db	-0.079635344
155	0x3e64f26a	0.22358099
156	0x3d8f00d9	0.069825836
157	0xbeb771f7	-0.35829136
158	0xbccad5ef	-0.024760215
159	0xbdeee0f2	-0.11663999
160	0xbdf67bed	-0.12035356
161	0xbdad84be	-0.08472584
162	0x3e817d82	0.25291067
163	0xbe3aa656	-0.18227515
164	0xbe4334ea	-0.19063154
165	0xbdacea0a	-0.08443077
166	0xbda950ce	-0.082673654
167	0xbf394fcd	-0.7238739
168	0x3eaf0bb2	0.3418861
169	0xbe178068	-0.14795077
170	0x3d90c89c	0.07069513
171	0x3d0e324c	0.034715936
172	0xbe0c7b45	-0.13718899
173	0xbe1c1936	-0.15243992
174	0xbe49ee4f	-0.19719814
175	0xbdc5b085	-0.09652809
176	0x3eaac64b	0.3335441
177	0x3d53169c	0.051535234
178	0x3c0df2d0	0.008663848
179	0xbcfe5137	-0.031044586
180	0xbdfa4e43	-0.122219585
181	0xbf5e046c	-0.867255
182	0x3e249279	0.160715
183	0x3ed93e09	0.42430142
184	0xbe474814	-0.1946109
185	0x3deb7ba8	0.11498195
186	0x3e374cef	0.17900442
187	0x3ae300c7	0.0017318957
188	0xbe4edace	-0.20200655
189	0xbdf52519	-0.119699664
190	0x3d0362fe	0.03207683
191	0x3c63c88c	0.013902795
192	0xbca93298	-0.020654008
193	0xbdcd42a8	-0.10022479
194	0x3e0c65a2	0.13710645
195	0x3e2f36c4	0.17110735
196	0xbd97c334	-0.07410279
197	0x3e040738	0.12893379
198	0xbda845be	-0.08216427
199	0x3ddb66ec	0.1071299
200	0x3e01bdee	0.12670109
201	0xbe04e5db	-0.12978308
202	0x3e22c10b	0.15893953
203	0x3dcc9aec	0.099904865
204	0x3dd67599	0.10471649
205	0xbe41e1fd	-0.18933864
206	0xbe4180d2	-0.18896797
207	0xbd98a81e	-0.07453941
208	0xbd8b94d8	-0.06815499
209	0x3e46ad33	0.19402008
210	0xbdc3be2a	-0.09557755
211	0x3d329407	0.0435982
212	0xbdd0e966	-0.10200767
213	0xbe08a9bd	-0.13346
214	0xbe22738c	-0.1586439
215	0xbb1e41f2	-0.0024148193
216	0xbe40376d	-0.18771143
217	0x3ca9e75b	0.020740202
218	0x3e47f7d3	0.19528131
219	0x3e673d63	0.22582011
220	0xbdf2a083	-0.118470214
221	0xbe04466d	-0.1291749
222	0xbe60400e	-0.21899435
223	0x3c8342d7	0.016023083
224	0x3e0786c9	0.1323501
225	0xbd5fedb5	-0.054670054
226	0x3b8e0069	0.004333545
227	0xbe381e6d	-0.17980357
228	0x3db7a82c	0.08967623
229	0xbcb7ed1e	-0.022451933
230	0x3d917a61	0.0710342
231	0xbc69ae3b	-0.014262731
232	0x3e4f1701	0.20223619
233	0xbda6f052	-0.08151306
234	0x3dc37bd0	0.095451
235	0xbe13a326	-0.14417705
236	0x3e4e0e0d	0.20122547
237	0xbd5c8993	-0.05384214
238	0xbdf9137e	-0.12161921
239	0xbe5eccb0	-0.2175777
240	0xbe1bbc5f	-0.15208577
241	0xbd0b986b	-0.034080904
242	0xbdf515e1	-0.11967064
243	0xbe4ed723	-0.20199256
244	0xbcdc6e28	-0.026907995
245	0xbd98007c	-0.074219674
246	0xbe163026	-0.14666805
247	0x3e0f6331	0.14002682
248	0x3d9e91d2	0.07742657
249	0x3e5170ad	0.20453139
250	0xbe236bee	-0.1595914
251	0x3e10b9ff	0.14133452
252	0x3c457616	0.01205208
253	0x3de7bfce	0.11315881
254	0x3e08b1e0	0.13349104
255	0x3c8c5be9	0.01713367

encoder/encoder_dense_2/BiasAdd/ReadVariableOp:0 f4 [75]
0	0xbd3fc6eb	-0.046820562
1	0x39c0a9a4	0.00036747486
2	0xbcb776d9	-0.022395538
3	0x3c1e6bd7	0.009669266
4	0xbc8898db	-0.01667445
5	0xbc49b6a2	-0.012311609
6	0xbd0a7b85	-0.033809204
7	0x3d142205	0.036165256
8	0x3bcfb0b3	0.006338203
9	0xbd438343	-0.047732603
10	0xbccfa1a4	-0.025345631
11	0xbcbd12fb	-0.02308034
12	0x3cba3393	0.02272967
13	0xbce2a958	-0.02766864
14	0xbd01e0eb	-0.03170864
15	0xbc65dea7	-0.014030135
16	0xbd1ea563	-0.038731944
17	0xbd7b0565	-0.06128444
18	0x3e30a886	0.17251787
19	0xbd00e67c	-0.031469807
20	0xbd6ee2bd	-0.058321703
21	0x00000000	0.0
22	0xbc24470f	-0.010026707
23	0x00000000	0.0
24	0xbc0cd42b	-0.008595507
25	0xbd3cc8c9	-0.04608992
26	0x3d115ed5	0.03549083
27	0xbd019f29	-0.031645928
28	0x00000000	0.0
29	0xbc16cf26	-0.0092046615
30	0xbcd208b8	-0.025638923
31	0xbd2d0867	-0.04224434
32	0xbd011d35	-0.031521995
33	0x3d2c62e8	0.04208651
34	0xbcd3f244	-0.025872357
35	0x3dd7009c	0.10498163
36	0x3ad5b39b	0.0016304137
37	0x3e25d597	0.1619476
38	0xbc9697a3	-0.018382853
39	0x3a8c95ca	0.0010725793
40	0xbd150d4d	-0.036389638
41	0xbc0c657d	-0.008569119
42	0xbd101f72	-0.03518624
43	0xbc71bc49	-0.014754363
44	0xbd302e3f	-0.043012854
45	0xbc305818	-0.010763191
46	0x00000000	0.0
47	0xbd112613	-0.0354367
48	0xbd0106a8	-0.03150049
49	0xbcafa6ae	-0.021441784
50	0xbcd2296a	-0.025654513
51	0xbd0207d0	-0.03174573
52	0xbcd8bdd1	-0.026457699
53	0x3e8d6ad6	0.27620572
54	0xbd7896ea	-0.060690798
55	0xbcf29dcf	-0.029616265
56	0xbd01f5fd	-0.031728733
57	0xbd98afc9	-0.07455403
58	0xbd292b79	-0.041301224
59	0x3e67643e	0.22596833
60	0x3dd617de	0.10453771
61	0xbd019fcb	-0.03164653
62	0x3cadeb88	0.021230474
63	0xbd01d982	-0.031701572
64	0xbccda554	-0.025103249
65	0x3bf11b5f	0.007357999
66	0x00000000	0.0
67	0xbcea14b7	-0.02857433
68	0x3dc26e69	0.09493715
69	0x3e540c46	0.20707807
70	0xbc83301e	-0.016014155
71	0xbccb14e9	-0.024790244
72	0xbd56936d	-0.05238669
73	0xbcb9ee3d	-0.022696609
74	0xbc1ae429	-0.009453812

encoder/encoder_dense_1/MatMul/ReadVariableOp:0 f4 [3, 75]
0	0xbe5ff39c	-0.21870273
1	0xbe7360e1	-0.23767425
2	0xbe0dd538	-0.13850868
3	0x3e553d9a	0.2082428
4	0xbea15808	-0.31512475
5	0xbdc070ba	-0.09396501
6	0xbcde4917	-0.027134461
7	0xbdf65ff2	-0.12030019
8	0x3db2a264	0.0872238
9	0x3dac31d0	0.084079385
10	0xbe55095a	-0.20804349
11	0xbcc3e6fa	-0.02391385
12	0xbdb2abdc	-0.08724186
13	0xbb632dec	-0.0034664823
14	0xbe847636	-0.25871438
15	0xbd15181d	-0.03639995
16	0xbe4f8b51	-0.20267989
17	0x3d9621b3	0.07330646
18	0xbe80ba08	-0.2514193
19	0xbc179520	-0.009251863
20	0xbe145a36	-0.14487538
21	0xbea49ecc	-0.32152402
22	0x3e2738e8	0.16330302
23	0xbe06c452	-0.13160828
24	0x3e449097	0.19195782
25	0xbdf08cd7	-0.11745613
26	0xbcd4b390	-0.025964528
27	0x3e875b8a	0.26437026
28	0xbd43833c	-0.047732577
29	0x3e0838c1	0.133029
30	0xbbb20a35	-0.0054333457
31	0xbe1533af	-0.14570497
32	0x3e7e2acc	0.24821013
33	0xbdd4b61e	-0.103862986
34	0xbd65f17a	-0.056138493
35	0xbcf1a1f8	-0.029496178
36	0xbd170334	-0.03686829
37	0xbdc66e06	-0.09688954
38	0x3e6f20af	0.23352312
39	0xbe28efb3	-0.16497688
40	0x3e1ddfd2	0.15417412
41	0x3e808952	0.25104767
42	0xbe9f8f2e	-0.31163925
43	0x3e7ab7eb	0.24484222
44	0x3d87d662	0.06632687
45	0xbddf6fef	-0.109100215
46	0xbdc2cfbe	-0.0951228
47	0x3cf77b81	0.030210258
48	0x3bd4d0d4	0.006494621
49	0x3e676919	0.22598685
50	0x3e48c56e	0.19606563
51	0x3eb3160d	0.3497776
52	0xbc921f50	-0.017837197
53	0xbe7e8894	-0.24856788
54	0x3d475329	0.048663292
55	0x3e34f4f7	0.17671572
56	0x3e1f1bdc	0.15537971
57	0x3d89bb91	0.067252286
58	0xbeb75d65	-0.35813442
59	0xbc5ecda0	-0.0135988295
60	0xbd3972c8	-0.04527548
61	0xbe0318ec	-0.12802476
62	0x3cc9a0f0	0.024612874
63	0x3e4b989b	0.19882433
64	0x3a9165b6	0.0011092934
65	0x3e244837	0.16043173
66	0xbde917a9	-0.11381466
67	0xb803bbb5	-3.140765e-05
68	0x3e354a3d	0.17704101
69	0x3ea16d65	0.31528774
70	0x3e3cc66d	0.18435068
71	0x3e11f54f	0.14253734
72	0xbd4959cc	-0.049157903
73	0xbd9c23aa	-0.0762399
74	0x3e38163f	0.17977236
75	0xbdc647fe	-0.096817
76	0x3e188398	0.14893949
77	0xbe3f40b6	-0.18677029
78	0x3e17f828	0.14840758
79	0xbdccaacb	-0.09993514
80	0xbe83b129	-0.257211
81	0x3ec62ace	0.38704532
82	0xbe4ef8f6	-0.20212159
83	0x3cd40809	0.025882738
84	0xbe39ea40	-0.18155766
85	0x3e4a4843	0.19754128
86	0x3e2ba945	0.1676379
87	0xbec623c7	-0.3869917
88	0x3e7db8d0	0.24777532
89	0x3b8f0600	0.004364729
90	0xbf0cc6e0	-0.5499096
91	0x3c45c020	0.012069732
92	0x3d254138	0.0403454
93	0x3d6d2f9d	0.057906736
94	0xbe4864d8	-0.19569719
95	0x3ea1ef1e	0.31627744
96	0x3e9728df	0.2952337
97	0xbdd8677d	-0.10566614
98	0x3e28437a	0.1643199
99	0x3e2e1661	0.17000724
100	0x3e818ad1	0.2530122
101	0xbe3a71a6	-0.18207416
102	0xbde2b72f	-0.11070096
103	0xbc562baa	-0.013071934
104	0x3d8b268b	0.06794461
105	0xbeff7c45	-0.49899498
106	0xbd5417ec	-0.051780626
107	0xbe7a5c30	-0.24449229
108	0xbd4b5cf8	-0.04964921
109	0xbe5914d1	-0.21199347
110	0x3e8bca94	0.27302992
111	0xbe84391d	-0.25824824
112	0xbcd66d00	-0.026175022
113	0xbd601ea1	-0.05471671
114	0x3e333174	0.17499334
115	0xbe83a266	-0.25709838
116	0xbd019fd7	-0.031646576
117	0x3e2e3f16	0.17016253
118	0x3c14205c	0.009040918
119	0xbe321c6e	-0.17393658
120	0xbdbb24dd	-0.091378905
121	0xbd27e590	-0.040990412
122	0x3e6c6f62	0.23089364
123	0x3e7aa475	0.24476798
124	0xbc1a5cab	-0.009421508
125	0xbeafad19	-0.3431175
126	0xbe67a8aa	-0.22622934
127	0x3cdfbac0	0.027310729
128	0x3e8d1b09	0.2755969
129	0x3e23cda0	0.15996408
130	0xbdabed6b	-0.08394893
131	0xbed35c5a	-0.41281396
132	0x3e4aad43	0.19792657
133	0x3e99c6ed	0.3003458
134	0xbdd6e768	-0.10493356
135	0xbe72bc4e	-0.23704645
136	0xbe19ac2c	-0.15007085
137	0xbe73d411	-0.23811366
138	0x3d3ea6c0	0.046545744
139	0xbdf3ca8b	-0.119038664
140	0xbeac5042	-0.33654982
141	0x3e95b064	0.29236138
142	0xbeba67f6	-0.3640744
143	0x3e4afdbf	0.19823359
144	0xbd97b7ba	-0.0740809
145	0x3e569879	0.20956601
146	0x3d808f51	0.062773354
147	0xbe7c0a7c	-0.24613374
148	0x3e058e8a	0.13042656
149	0x3e57fe8f	0.210932
150	0x3ce12990	0.027485639
151	0x3cf1ca00	0.029515266
152	0x3e5a57e0	0.21322584
153	0xbd91659f	-0.07099461
154	0x3ec57017	0.3856208
155	0xbe054288	-0.13013661
156	0xbf255e90	-0.64597416
157	0x3e8c32ed	0.27382603
158	0xbe2609ea	-0.1621472
159	0xbe87d4f6	-0.26529664
160	0x3d6c3718	0.05766973
161	0xbe7a78b1	-0.24460103
162	0x3ea22cb5	0.31674734
163	0x3e925b96	0.285855
164	0x3d593478	0.053028554
165	0xbf150869	-0.5821596
166	0xbb71d300	-0.0036899447
167	0x3e2fcedc	0.17168754
168	0x3e435861	0.19076683
169	0xbe13e15a	-0.14441434
170	0xbe59f2a8	-0.21283972
171	0x3e36b108	0.1784097
172	0xbee1c704	-0.4409715
173	0x3e90d56e	0.28287834
174	0x3d885cbe	0.06658314
175	0xbe188fbb	-0.14898579
176	0xbe87fca3	-0.26559934
177	0x3dbc612e	0.09198223
178	0xbf205c91	-0.62641245
179	0x3e788588	0.24269688
180	0x3ebf822d	0.37404004
181	0xbc787120	-0.01516369
182	0xbef8f3ae	-0.48623413
183	0xbe700346	-0.23438749
184	0x3e6f4790	0.23367143
185	0xbf115353	-0.5676777
186	0x3db73ae8	0.08946782
187	0xbe793cab	-0.24339549
188	0x3c0170da	0.007900441
189	0x3ea8b018	0.3294685
190	0x3e154923	0.1457868
191	0x3e81a309	0.25319698
192	0x3ee13277	0.43983814
193	0xbe81b971	-0.25336793
194	0xbc036453	-0.008019525
195	0x3e40e63a	0.18837824
196	0xbcb4b950	-0.02206102
197	0x3d79ddf3	0.061002683
198	0x3e57501f	0.21026658
199	0xbe3920bc	-0.18078893
200	0xbd742943	-0.059609663
201	0x3d4f51f0	0.05061525
202	0xbd8a35a0	-0.067485094
203	0xbd154134	-0.036439136
204	0x3d8bbcf5	0.0682315
205	0xbeda8a89	-0.4268382
206	0x3e07b720	0.1325345
207	0x3c990cb4	0.018682815
208	0xbedd3611	-0.43205312
209	0xbd918b40	-0.07106638
210	0xbe42a98a	-0.19009987
211	0xbe879d17	-0.26487038
212	0x3c09ee40	0.00841862
213	0xbebe253b	-0.3713778
214	0x3e102598	0.14076841
215	0xbdda890b	-0.1067067
216	0x3d133114	0.035935476
217	0x3ee26c59	0.44223288
218	0x3e7293ed	0.23689242
219	0xbe6f5019	-0.23370399
220	0xbeabf847	-0.33587858
221	0x3cc390a7	0.023872687
222	0xbda98e04	-0.082790405
223	0xbe46d72c	-0.19418019
224	0x3d7b66fa	0.061377503

encoder/encoder_dense_1/BiasAdd/ReadVariableOp:0 f4 [75]
0	0x00000000	0.0
1	0x00000000	0.0
2	0x3db36625	0.08759717
3	0xbcfc5c31	-0.030805679
4	0x3db2c18c	0.087283224
5	0x00000000	0.0
6	0x3d562cbe	0.052288763
7	0x00000000	0.0
8	0xbc396861	-0.01131639
9	0x00000000	0.0
10	0xbce248bf	-0.027622579
11	0x3d94c5c4	0.07264283
12	0x3e3bca35	0.18338855
13	0xbd05f0a5	-0.0327002
14	0x00000000	0.0
15	0x3e20ea0d	0.15714283
16	0x00000000	0.0
17	0xbca71d37	-0.020399673
18	0xbbbcce67	-0.0057619098
19	0x00000000	0.0
20	0x3d0948e7	0.03351679
21	0x3c36af6f	0.011150225
22	0x3d539290	0.051653445
23	0xbcf646a4	-0.030062981
24	0xbd1e720e	-0.03868299
25	0x3d297d2e	0.041379146
26	0x00000000	0.0
27	0xbccf6e82	-0.025321249
28	0x3e3a6479	0.1820239
29	0xbd036605	-0.032079715
30	0x3d8a857e	0.06763743
31	0x00000000	0.0
32	0x3e1d5f71	0.1536844
33	0x00000000	0.0
34	0x3d7b6349	0.061373983
35	0x3d4c5fd6	0.049896084
36	0x00000000	0.0
37	0x00000000	0.0
38	0xbcb80b90	-0.02246645
39	0xbd8c61f4	-0.068546206
40	0xbc4a7662	-0.012357326
41	0xbd1e32ca	-0.038622655
42	0x3b459bb6	0.0030152625
43	0xbc1eb192	-0.009685891
44	0xbc3c7ad5	-0.011503895
45	0xbba3ad30	-0.004995011
46	0x00000000	0.0
47	0xbcc239d7	-0.02370922
48	0xbd264921	-0.040597085
49	0xbc561bfa	-0.013068194
50	0x3d7e477b	0.062079888
51	0xbcc69f48	-0.024245873
52	0x00000000	0.0
53	0x00000000	0.0
54	0xbcb23465	-0.0217535
55	0x3d52b023	0.05143751
56	0x3dd196bd	0.10233829
57	0xbcc16888	-0.023609415
58	0x3e27f5dc	0.16402382
59	0x00000000	0.0
60	0x00000000	0.0
61	0x00000000	0.0
62	0x00000000	0.0
63	0xbae4cdd0	-0.0017456356
64	0xbcfbedd9	-0.030753063
65	0x3dda8929	0.106706925
66	0xbb92b70d	-0.0044773878
67	0x3c2d979a	0.010595227
68	0xbd416fd2	-0.04722578
69	0xbc65f8d4	-0.014036376
70	0xbc897705	-0.016780386
71	0xbd2d7aa4	-0.042353287
72	0x00000000	0.0
73	0x00000000	0.0
74	0xbd1d2626	-0.03836646

encoder/decoder_output/MatMul/ReadVariableOp:0 f4 [75, 5]
0	0xbdbedfbc	-0.09320018
1	0xbdcf3f4e	-0.10119496
2	0xbcc50abd	-0.024052972
3	0x3dde31dc	0.10849354
4	0xbeaec624	-0.34135544
5	0xbd7cd20c	-0.061723754
6	0xbc648166	-0.013946867
7	0x3ea496bb	0.32146248
8	0xbe6e3245	-0.23261364
9	0x3e6a76b4	0.22896844
10	0x3de9fa4f	0.11424696
11	0xbd946b6e	-0.07247053
12	0xbdede317	-0.116155796
13	0x3e79b4aa	0.24385324
14	0x3e0aa19c	0.13538212
15	0x3df03133	0.11728134
16	0xbe77c7cd	-0.24197312
17	0x3eaf2bed	0.342132
18	0x3e393ffa	0.18090811
19	0xbd6d7a89	-0.057978187
20	0xbd974319	-0.07385845
21	0x3b832f10	0.004003413
22	0x3e5db995	0.21652825
23	0xbdbc0cf2	-0.091821566
24	0xbe1a8d98	-0.15093076
25	0x3da862c2	0.082219616
26	0xbdb0a3a4	-0.08624962
27	0xbe819461	-0.25308517
28	0x3e95bb39	0.29244402
29	0xbe2aced1	-0.16680457
30	0x3d8fa314	0.070135266
31	0x3e199c9a	0.15001145
32	0xbe756e6a	-0.23967901
33	0xbe3c55a2	-0.18392041
34	0x3e2a6f12	0.16643932
35	0x3d6cab33	0.057780456
36	0xbdddf81d	-0.108383395
37	0x3e9a7295	0.30165544
38	0x3e2eb7bf	0.17062281
39	0x3ded0f45	0.11575178
40	0x3dcbd079	0.099518724
41	0xbe9b4353	-0.30324802
42	0xbd983d96	-0.074336216
43	0x3e8ae7e5	0.27130046
44	0x3dd91cd7	0.10601204
45	0x3e05e3ca	0.13075176
46	0xbbdcf42d	-0.006742975
47	0xbe43c8b2	-0.19119528
48	0xbe38820c	-0.18018359
49	0x3e20720b	0.15668504
50	0x3e5cf5ca	0.21578136
51	0x3e0ea3b0	0.1392963
52	0xbe529d8f	-0.20567916
53	0xbde18cf5	-0.110132135
54	0xbe9409ba	-0.2891367
55	0x3d703a83	0.05864955
56	0xbe8d2a65	-0.27571407
57	0xbd3cd06e	-0.04609721
58	0x3eaac526	0.33353537
59	0xbe3c6d44	-0.18401057
60	0xbe2801a1	-0.16406871
61	0x3e829e8a	0.2551158
62	0x3da25838	0.07926983
63	0x3e985a77	0.2975652
64	0xbea520fb	-0.32251725
65	0xbc8d395c	-0.017239265
66	0xbe7fc9bd	-0.24979301
67	0xbce11ff3	-0.027481055
68	0xbd4055e5	-0.046956915
69	0xbd848c14	-0.0647203
70	0x3dc629fa	0.09675975
71	0xbe5a7861	-0.21334983
72	0x3d74254b	0.059605878
73	0x3e17c16b	0.14819877
74	0x3ccc7ee4	0.02496285
75	0xbdf12709	-0.117750235
76	0xbd987f68	-0.07446176
77	0xbe09931d	-0.13435026
78	0xbbce9a08	-0.006304983
79	0xbe032b41	-0.12809469
80	0x3daf3da1	0.08556677
81	0x3e6469f1	0.22306038
82	0x3e849a40	0.25898933
83	0xbc705a5d	-0.014669982
84	0xbc1dcf1f	-0.009631901
85	0x3d965a9a	0.073414996
86	0xbe3bdc20	-0.1834569
87	0x3d166b28	0.036723286
88	0x3e0eff9b	0.13964693
89	0x3e80e875	0.2517735
90	0x3d002a79	0.031290505
91	0x3e888b10	0.26668596
92	0x3e5f9c4d	0.21836968
93	0x3e663791	0.22482134
94	0x3e589a35	0.21152575
95	0x3e042491	0.12904574
96	0x3bddba87	0.0067666206
97	0x3dd4fe6b	0.10400089
98	0x3cccb545	0.02498878
99	0x3e8a0fe9	0.26965263
100	0xbe25f4cf	-0.16206668
101	0x3e3e64d7	0.18593155
102	0xbe40457f	-0.1877651
103	0x3e8ad843	0.2711812
104	0x3ddeef04	0.10885432
105	0x3dcba3dc	0.09943363
106	0x3e3c1820	0.18368578
107	0x3d6fa070	0.058502614
108	0x3cd7a6e0	0.02632469
109	0x3d63e7b0	0.055640876
110	0x3df534f0	0.11972988
111	0xbe79334c	-0.24335974
112	0x3ec7d956	0.39033002
113	0x3e8213bb	0.25405678
114	0xbe173dd2	-0.14769676
115	0x3d743540	0.059621096
116	0x3d154f28	0.036452442
117	0xbd90740a	-0.07053383
118	0xbe848b9a	-0.25887758
119	0x3d322a70	0.043497503
120	0xbe06596e	-0.13120052
121	0xbe575420	-0.21028185
122	0xbd521d01	-0.05129719
123	0x3d132573	0.035924386
124	0x3e46655a	0.193746
125	0xbe418440	-0.18898106
126	0xbd1c7f3a	-0.03820727
127	0x3d28948f	0.0411573
128	0x3ba561c0	0.005047053
129	0xbdc5a485	-0.0965052
130	0xbd38b63a	-0.04509566
131	0x3e8efeec	0.27928865
132	0xbe4d5fe7	-0.20056115
133	0x3ea50d5d	0.32236758
134	0x3dc00fef	0.09378039
135	0xbc47a35a	-0.012184942
136	0x3d463e46	0.048399232
137	0xbe1c745c	-0.15278763
138	0x3dae8cf4	0.085229784
139	0x3dcf2a58	0.10115498
140	0x3e6470fa	0.22308722
141	0xbdfb33b2	-0.122657195
142	0xbd8540ac	-0.06506476
143	0xbd8225f6	-0.06354897
144	0x3e0eaccc	0.13933104
145	0xbe61b53a	-0.22041789
146	0xbd8faf54	-0.07015863
147	0xbd2857e2	-0.041099437
148	0x3e724ca1	0.23662044
149	0x3d3f7826	0.04674544
150	0xbd921cf6	-0.0713443
151	0x3e4dbe2d	0.20092078
152	0xbdd950f0	-0.10611141
153	0x3dcc77a3	0.099837564
154	0x3e498a77	0.19681726
155	0x3d76b915	0.0602351
156	0xbde5378a	-0.11192234
157	0x3ed14e62	0.40880114
158	0x3d38a814	0.045082167
159	0xbd601a99	-0.054712866
160	0xbe594bac	-0.21220273
161	0xbe3a5dd0	-0.18199849
162	0xbe7a6a0f	-0.2445452
163	0x3d0eb954	0.03484471
164	0x3dc73fdf	0.09728979
165	0xbe27c498	-0.16383588
166	0x3edbd363	0.42934713
167	0x3ebee916	0.37287205
168	0x3da3e1af	0.0800203
169	0xbe2054c3	-0.15657334
170	0xbda93c3f	-0.08263444
171	0x3e8866ca	0.26640922
172	0xbdb79a23	-0.08964946
173	0x3b256f81	0.0025243463
174	0x3ddfffae	0.10937439
175	0x3e415c4c	0.18882865
176	0xbcfce144	-0.030869134
177	0x3e99fdbe	0.30076402
178	0x3eb03dbd	0.34422103
179	0x3e485387	0.19563113
180	0x3add7b5a	0.0016897724
181	0x3dadaf30	0.0848068
182	0x3e034336	0.12818608
183	0x3e859e0c	0.26097143
184	0xbe8acc45	-0.2710897
185	0x3f0cc00e	0.5498055
186	0xbf089577	-0.53353065
187	0xbf0757ef	-0.5286855
188	0xbc200557	-0.009766898
189	0x3d4c6f88	0.049911052
190	0xbc028f24	-0.007968698
191	0xbec2e636	-0.38066262
192	0xbb022097	-0.001985585
193	0xbe138e5e	-0.14409778
194	0xbe4aa8c5	-0.19790943
195	0xbe3a589a	-0.18197861
196	0x3dfb42fa	0.12268634
197	0xbe208877	-0.15677057
198	0xbd9d2cba	-0.076745465
199	0xbda33308	-0.07968718
200	0xbc4220d2	-0.011848645
201	0xbe771212	-0.24127987
202	0x3e532261	0.20618583
203	0x3de3f2f2	0.111303225
204	0x3decaa14	0.11555877
205	0x3c8d6cf8	0.017263874
206	0x3e12d960	0.14340734
207	0x3df7cc6b	0.120995365
208	0xbe4b96fe	-0.19881818
209	0xbc88ba5a	-0.016690422
210	0x3df5f351	0.120092995
211	0xbd865fcd	-0.06561241
212	0x3e70d490	0.23518586
213	0xbded7425	-0.115944184
214	0x3c3595e9	0.011083105
215	0xbdf31b23	-0.1187041
216	0x3e589e9a	0.21154252
217	0x3e714665	0.2356201
218	0xbe85f49e	-0.2616319
219	0x3e74295a	0.238439
220	0x3d1972f9	0.037463162
221	0x3d292163	0.041291606
222	0x3e878f96	0.26476735
223	0xbe7a57dc	-0.24447578
224	0xbcd6f20c	-0.026238464
225	0xbe525cc1	-0.20543195
226	0xbaa31971	-0.0012443495
227	0xbe01eea1	-0.12688686
228	0xbe7dad0f	-0.24773048
229	0xbdc1fbec	-0.094718784
230	0xbd93369a	-0.07188149
231	0x3cd5d130	0.026100725
232	0xbe146ceb	-0.14494674
233	0x3e4da982	0.20084193
234	0x3a9d7400	0.001201272
235	0xbd1ee0c4	-0.038788572
236	0xbe05b587	-0.13057528
237	0xbe04eaf0	-0.12980247
238	0xbe55b9b6	-0.20871624
239	0x3e02fa2f	0.1279075
240	0x3d24a31a	0.04019461
241	0x3c88bf68	0.016692832
242	0xbe663c9d	-0.2248406
243	0x3e28eba9	0.16496147
244	0x3a743b76	0.00093167217
245	0xbcad2c68	-0.021139339
246	0x3e8880e7	0.26660845
247	0x3e09b279	0.13446988
248	0xbe1a8539	-0.15089883
249	0xbe24e904	-0.16104513
250	0x3d8f5481	0.0699854
251	0x3e2d33e2	0.16914323
252	0x3dd1c9d9	0.102435775
253	0x3df2448c	0.118294805
254	0x3e699249	0.2280971
255	0xbe078f22	-0.13238195

encoder/decoder_output/BiasAdd/ReadVariableOp:0 f4 [5]
0	0x3d8db36d	0.069189884
1	0x3df45d87	0.119319014
2	0x3e47fb65	0.19529493
3	0x3d70c366	0.058780096
4	0x3c21de66	0.009879684
