onnx_inference/small_batch_size_decoder.onnx (onnx, 27145 bytes, 6 tensors)

decoder/encoder_output/MatMul/ReadVariableOp:0 f4 [75, 3]
000000 24 a2 60 bd be 2d 86 3e f9 da ab 3d 98 9d 9b 3d
       -0.05484213 0.26206774 0.08391375 0.07598418
000010 a1 df 58 be bc b0 a9 3d 89 20 27 be dd 5c 3d be
       -0.21179058 0.082856625 -0.16321005 -0.18492456
000020 4d 3b 32 be fa 32 da 3d 43 8d 10 bd 60 7c 21 3d
       -0.17405434 0.10654254 -0.035290968 0.039425254
000030 78 ed 0f bf f0 7f 9a 3e 62 fa 33 3d 71 38 05 3e
       -0.56221724 0.30175734 0.043939956 0.13009812
000040 71 8e f5 3d 2b b5 c8 3d fa 4b a3 be 8b 0b 77 be
       0.11990059 0.0980018 -0.31893903 -0.24125497
000050 05 28 e2 3d 85 77 4b 3e b7 75 3c 3e 1a 03 c8 bc
       0.11042789 0.19869812 0.1840428 -0.024415541
000060 91 9e 39 be 56 41 18 3d 2e 03 26 be df 39 e0 3d
       -0.18126895 0.037171684 -0.1621215 0.10948538
000070 2b 47 09 3d e7 81 0f 3e 88 77 35 bd 07 22 56 be
       0.033515137 0.14014398 -0.044303447 -0.20911418
000080 78 73 3a bd d6 c8 46 3e 93 2f f8 3d 36 f2 00 3e
       -0.045520276 0.1941255 0.12118449 0.12592396
000090 e3 02 ab bd b0 6c 60 3d 18 68 9a bd 23 15 25 3e
       -0.0835016 0.054791152 -0.075393856 0.16121344
0000a0 1e 12 8e bd 15 14 7a 3c 80 ef 31 be 8e 0b e6 3d
       -0.06937049 0.015263577 -0.17376518 0.11232673
0000b0 7a 42 8b bd 17 f0 fb be e7 26 30 bf 0e 4a 7f be
       -0.06799789 -0.49206612 -0.6880936 -0.24930593
0000c0 b5 20 74 3e c8 89 52 3d 2f ce 19 be dd 4f 76 3e
       0.23840602 0.05140093 -0.15020059 0.24053903
0000d0 6e 1a 18 3e 12 93 a4 3d 0c 3c 29 be e6 33 a6 3c
       0.14853832 0.08035864 -0.16526812 0.020288419
0000e0 bc fb 01 be 03 29 ad 3d da 09 2a be 14 3f b2 3d
       -0.12693685 0.08455088 -0.1660532 0.087034374
0000f0 52 07 c2 bd a7 21 0f 3e 1b ab 76 3e ec c2 92 be
       -0.094740525 0.13977681 0.24088709 -0.2866434
000100 00 79 38 be 7d 13 d9 be a2 88 4b bd 39 49 82 be
       -0.18014908 -0.4239768 -0.04969085 -0.2544649
000110 8e 2b 48 bc 34 8d 82 3d db a4 46 3b c5 f7 39 3d
       -0.0122174155 0.063745886 0.0030310664 0.045402307
000120 fe 9c 5e be d6 dd 38 be 8e 92 69 3e ea c5 d0 bd
       -0.21739575 -0.18053374 0.22809812 -0.10193999
000130 ec 94 02 3e 8b ad 7c 3d 65 6e c3 be 3a 44 71 be
       0.12752122 0.06168894 -0.38170162 -0.23561183
000140 ea a9 ce bd 0a f9 d5 bb 27 07 00 be 8b 24 17 3e
       -0.10091002 -0.006529932 -0.12502728 0.14760034
000150 9f 65 05 3e c2 a4 23 be db 73 4a be b6 35 8f 3d
       0.13027047 -0.15980819 -0.19770758 0.069926664
000160 4a fa d1 bd d5 e4 0a be 1f 2f 51 be d8 e8 07 bf
       -0.10252817 -0.13563855 -0.20428132 -0.53089666
000170 29 70 b6 be fb e0 bb bb 01 04 3b 3e 72 b6 cf bb
       -0.35632446 -0.005733607 0.18263246 -0.006338888
000180 f1 59 88 3e 8b 91 3a 3d 78 c9 39 be e2 e1 c6 be
       0.2663112 0.045548957 -0.1814326 -0.3884421
000190 75 a3 8b be 7f 88 9c bd 4f cd 91 3e 75 50 8d bd
       -0.27273145 -0.07643222 0.2847695 -0.069001116
0001a0 b8 ef 78 3e 09 5b 99 bd e5 f6 b5 3d 89 86 9b bd
       0.24310195 -0.07488067 0.08884982 -0.0759402
0001b0 d0 a9 28 be 48 7c 1b bc 5a 13 d3 bd 48 73 91 bd
       -0.16471028 -0.00949008 -0.103064254 -0.07102066
0001c0 87 1b 34 be ac ba 2b bd 26 99 3e bd a9 ee 6f 3e
       -0.17588626 -0.04192607 -0.046532772 0.23430885
0001d0 67 c8 78 bd 26 e3 53 be b2 b7 cb be 29 48 ae be
       -0.060737994 -0.20692119 -0.39788586 -0.3403943
0001e0 2c 65 72 3e 0d cd 26 3d 64 a6 ef 3d 1f 86 88 3f
       0.23671407 0.040722895 0.11701658 1.066593
0001f0 90 6d 82 3d 4a 4f fd 3e 74 32 c7 bd 44 d7 2d 3e
       0.06368554 0.49474555 -0.0972642 0.16976649
000200 fc 62 27 3e 28 0c 1a 3e 9d 97 41 3d b8 b1 2d be
       0.16346353 0.150437 0.04726373 -0.16962326
000210 ac 9d 93 be 28 f0 fb bd bd ba ff bb 07 f7 98 bc
       -0.28831232 -0.123016655 -0.0078042434 -0.01867248
000220 bb d9 66 3e 2e 68 ed bd df 7a ca bc 28 ea 26 bd
       0.22543995 -0.11592136 -0.024716793 -0.040750653
000230 3e 35 20 be 08 91 c5 be d4 b6 20 3f e4 3b bb be
       -0.1564531 -0.38587213 0.62778974 -0.3656913
000240 9f 5d 0e 3e 61 9d 00 3d aa f6 74 3e 80 55 66 3e
       0.13902901 0.03140009 0.2392222 0.22493553
000250 55 32 d1 bd 72 ee 0e be d2 6b 55 be 61 19 e9 bd
       -0.10214678 -0.13958147 -0.20841911 -0.11381794
000260 94 48 35 be 5c ad 4e 3b 42 53 3c 3e d5 30 ba 3d
       -0.17703468 0.0031536436 0.18391135 0.09091345
000270 cf 5e 24 be d4 26 89 3d 50 90 fb bd 22 1a 07 3d
       -0.16051792 0.06696859 -0.12283385 0.032983907
000280 db 6b a6 3d f7 c2 81 be de 63 cc be 32 f6 23 bf
       0.081260405 -0.2534406 -0.39919943 -0.6404754
000290 c4 8c 69 bf f5 c9 d8 3e e9 ad 3d 3f d5 2d f9 3e
       -0.91230416 0.4234158 0.7409349 0.4866778
0002a0 b6 7e 7e be 4e ec e3 3b fc b1 1d 3e 5b db 52 be
       -0.24853024 0.00695566 0.15399927 -0.2059149
0002b0 c9 c2 33 be f2 ad 37 bd 14 3c a3 3e f4 ff 56 3e
       -0.17554773 -0.04484362 0.31881773 0.20996076
0002c0 13 aa 15 3e 99 ef cf 3c 0b 00 9c be d7 94 2f bd
       0.1461566 0.025382804 -0.30468783 -0.042866554
0002d0 3d 88 7a 3e ce 10 1c be da 18 4a 3e ac 22 4d 3e
       0.24466033 -0.15240785 0.19736043 0.20032758
0002e0 ad 3d ba 3c 97 0e 04 be f2 5b c2 3d 37 d0 0a 3e
       0.022734487 -0.1289619 0.094901934 0.1355599
0002f0 62 9d 6d 3e cb 0f 0d 3e f3 3c 65 bd bf 8c c8 bd
       0.23204568 0.13775556 -0.05596633 -0.0979247
000300 db ce 17 bc bc 70 9f 3e b5 11 02 3f 1a 9e 81 3d
       -0.009265627 0.31140697 0.5080827 0.063289836
000310 f6 91 30 be cc 6a 2a 3d b8 88 46 3e 04 d1 39 bd
       -0.1724318 0.041605756 0.19388092 -0.04536535
000320 de 76 a5 bc 5f df 20 be 50 75 fa bc 96 28 e9 3d
       -0.020198282 -0.1571021 -0.030573517 0.11384694
000330 48 80 20 bc fe 6f 51 3e eb ec 89 3e 8c 18 7a be
       -0.00979621 0.20452878 0.26938567 -0.24423426
000340 37 db 0a be 1f a3 21 3e a5 88 ad 3d 3d 68 55 bd
       -0.13560186 0.15784882 0.084733285 -0.052101362
000350 68 11 2f be 7c d6 16 3e ba dc 53 be 04 a4 15 be
       -0.17096484 0.14730257 -0.20689669 -0.14613348
000360 c5 ab a2 3d 2c 3f 11 3e c1 c8 f1 bd a3 f8 30 bf
       0.07942919 0.14184254 -0.11805869 -0.6912939
000370 32 cf 2f bf d8 b4 5e be b4 30 82 3e 25 b9 b9 3d
       -0.6867553 -0.21748674 0.25427783 0.09068517
000380 33 10 8e bd
       -0.069366835

decoder/encoder_output/BiasAdd/ReadVariableOp:0 f4 [3]
000000 be 6b b6 3d 90 8d c9 3d 93 bf bb 3c
       0.08907269 0.09841454 0.022918498

decoder/decoder_dense_2/MatMul/ReadVariableOp:0 f4 [75, 75]
000000 63 c1 09 38 a7 06 4f 3a 75 14 27 3f 2b 38 40 3b
       3.284345e-05 0.00078974146 0.6526559 0.0029330354
000010 11 f1 b3 3e db 06 9c 3d 5d 19 93 be 10 14 e6 3e
       0.35144857 0.07618495 -0.28730288 0.4493718
000020 93 ac cc 3d d2 66 11 be f4 08 2f bc 48 fa 36 3e
       0.099938534 -0.14199379 -0.010683287 0.17868912
000030 e5 5d c4 3b ed 94 6f bd 26 3b f3 3d 37 a6 0a 3f
       0.0059926384 -0.058491636 0.11876516 0.54159874
000040 5b b5 87 3d 07 e8 7b bc 54 97 0e be 42 9a f6 3d
       0.06626388 -0.015375144 -0.13924915 0.12041141
000050 c9 76 90 3d e8 c7 94 3e fc 69 8f bc 02 16 d4 3d
       0.070539065 0.29058766 -0.017506592 0.1035576
000060 07 bf 93 3d 41 18 3f be d0 e0 9a 3e f6 f1 71 3f
       0.0721417 -0.18661596 0.30249643 0.9450983
000070 88 55 3d bd fb 83 24 be 4e 7a 35 3e 30 54 9e bd
       -0.046224147 -0.16065972 0.17722437 -0.07730901
000080 fa 5d 97 3d 97 12 3b be f8 56 48 3d ca 81 0f 3e
       0.073909715 -0.1826881 0.048911065 0.14014354
000090 cd b1 e6 bd 02 6d 2e be a7 31 5b 3e be e6 82 bf
       -0.112643816 -0.1703377 0.2140566 -1.0226667
0000a0 bd 44 a2 bd 65 56 da 3e d4 a3 d2 bd ef e8 80 be
       -0.07923267 0.4264404 -0.10285154 -0.25177714
0000b0 4a 8b 98 bf 11 24 35 bb d1 c6 9b 3e be 81 1d 3e
       -1.1917508 -0.0027639905 0.30425122 0.15381524
0000c0 01 c6 a6 bb 9c b1 70 3d cc 08 0c 3f b7 de fe be
       -0.005089522 0.05876313 0.5470092 -0.49779293
0000d0 4c 0d 47 3d 52 1b 0a be f0 46 c7 3e 65 58 d1 3f
       0.048596665 -0.13486984 0.3892131 1.6355101
0000e0 40 9e 1f be 35 8b 37 bd ed fe 28 be d4 92 8b 3e
       -0.15587711 -0.044810493 -0.16503496 0.27260458
0000f0 37 07 38 be fd 57 8d bf da a8 4b 3e 8f cc 46 3e
       -0.17971502 -1.1042477 0.1988863 0.1941397
000100 75 88 2e bf 67 d4 62 3d 51 51 75 bc 4b fb 56 3d
       -0.68176967 0.055378344 -0.014973001 0.052485745
000110 6a fe c6 3d aa 09 13 3e 2a 2c b7 3d 34 5b 6c 3d
       0.097164944 0.14359155 0.089439705 0.057704166
000120 24 4c e0 3e c8 cb 53 3e 22 49 d5 3d 4f 71 45 3e
       0.4380809 0.20683205 0.104143396 0.19281505
000130 6e ec f8 bd f7 dc 35 c0 ad 54 53 bd 73 cf ab be
       -0.121544704 -2.8416116 -0.051594425 -0.3355671
000140 e4 89 4b 3d d7 5c 45 3d 32 dd 3e 3d 16 b7 05 be
       0.04969205 0.048184242 0.046597667 -0.13058123
000150 64 dc ec 3d 78 a7 38 bd f1 8d aa 3d dc 13 90 bd
       0.11565474 -0.045081586 0.083278544 -0.07035038
000160 64 a6 53 bd 7a 43 bb 3d e3 4d 32 c0 e3 54 ff 3d
       -0.051672354 0.091437295 -2.7860038 0.12467363
000170 5c a9 15 3e 02 28 12 be 82 f8 eb 3d 45 b0 62 3d
       0.14615387 -0.14273074 0.115220085 0.055343885
000180 45 8e 96 bf 36 22 1c 3e 4d 61 45 3e d9 b9 58 be
       -1.1762167 0.15247425 0.19275399 -0.21164645
000190 0d f9 13 3e 9f 6c 8c bd 4d 94 42 bd c9 ae ee bd
       0.14450474 -0.06856655 -0.047504712 -0.116544314
0001a0 de 74 82 bd 1d 9e 01 c0 f8 d1 53 3e f6 19 a0 bd
       -0.06369947 -2.0252755 0.20685565 -0.07817452
0001b0 28 fe b5 3e 54 e1 b7 bc d2 c2 4b 3c 35 72 1f be
       0.35545468 -0.022446312 0.0124365855 -0.1557091
0001c0 b3 c4 06 3e 6d e6 7a bb f6 7c 1e c0 14 25 aa 3d
       0.13160972 -0.0038284317 -2.476377 0.08307853
0001d0 eb 2e 79 bf 8f 52 3d 3d 35 b2 ab bd ac dd f5 bf
       -0.97337216 0.046221312 -0.083836 -1.9208274
0001e0 0c 87 a5 3d 68 fb 58 3c 02 bb 87 be a1 e7 f2 bd
       0.08082399 0.013243534 -0.26509863 -0.11860586
0001f0 c7 5a aa bd 34 63 8f 3e 16 6a 9b 3c 53 8b e1 bd
       -0.08318096 0.28005373 0.018971484 -0.11012902
000200 d2 94 20 bc 81 21 26 c0 fe 5e e7 be 73 b9 3e be
       -0.0098011065 -2.595795 -0.4518966 -0.18625431
000210 a7 a3 17 3e 8f 31 37 bf 1c 5b 12 c0 31 e1 2c 3e
       0.14808522 -0.71559995 -2.2868109 0.16882779
000220 e9 ae 77 c0 66 3e 34 3e 4e cc 0a bc 82 78 4b 3e
       -3.8700507 0.17601928 -0.008471562 0.19870189
000230 70 7f 9e 3e 95 ce 30 3e c5 f1 8f bd af 28 f3 bd
       0.30956602 0.17266305 -0.07028536 -0.11872994
000240 c4 db 24 3e f3 e5 4f be 1a 3a 20 be 7e 19 e2 bd
       0.16099459 -0.20302562 -0.15647164 -0.110400185
000250 44 19 95 bf 06 a2 19 be 7c 12 e2 3c 0e 4a 04 3e
       -1.1648335 -0.15003213 0.027596705 0.12918875
000260 37 54 55 3e 94 37 c5 bc b8 70 43 3c e8 99 30 3e
       0.20832907 -0.024074353 0.01192873 0.1724621
000270 a0 de 7b 3d ac 4c 41 be 20 cd 60 3d c8 4e 1c 3d
       0.06149161 -0.18876904 0.054883122 0.03816107
000280 90 2c 0b 3d bf 4f 03 3e ab a7 30 be 6a 6c 15 bc
       0.033978045 0.1282339 -0.1725146 -0.009120086
000290 00 19 b1 bd 64 52 f6 bd 7e 17 5c 3e de 62 b4 bd
       -0.086473465 -0.120274335 0.21493337 -0.0880792
0002a0 f2 3e a6 3d 9a 9e ed bd ad 69 e3 bd e5 c8 ae 3c
       0.081174746 -0.116025165 -0.111041404 0.021336028
0002b0 bc 61 d5 3c 48 f5 00 3e 6c 8c 5a be 34 3f 72 be
       0.02604758 0.12593567 -0.21342629 -0.23656923
0002c0 8f 58 e3 3c e4 71 19 bd 34 88 d9 bc a8 f6 4f be
       0.027752189 -0.03746213 -0.026554205 -0.20308936
0002d0 8b 2e 1a be 03 ff fd bd aa dd f7 3c 55 1e 21 3c
       -0.15056817 -0.12402155 0.030257065 0.009833892
0002e0 41 86 d7 bc 16 a8 47 be 78 98 57 3d c2 84 bb 3c
       -0.026309134 -0.19497713 0.05263564 0.022890452
0002f0 bd b1 94 bc ee 04 12 be 3e 01 b6 3d 58 cb df bd
       -0.018151158 -0.14259693 0.08886956 -0.109274566
000300 aa 47 2f 3d 90 b5 d3 3d 06 ce 5b be 80 7f 22 be
       0.042792954 0.10337365 -0.2146531 -0.1586895
000310 ef 3e b9 3c f6 d1 85 bd f8 27 fb 3d 3a 1f 9d bd
       0.022613017 -0.065341875 0.12263483 -0.076719716
000320 7c c9 27 3e 10 b4 34 be 06 83 fd 3d 0e c8 e1 3d
       0.16385454 -0.17646813 0.12378506 0.110244855
000330 55 82 78 bd 09 b8 b0 bd 52 b4 69 bd dc 55 9d 3c
       -0.06067117 -0.08628852 -0.057056732 0.01920598
000340 71 ab 5d be 34 c6 16 bd da d5 60 be 9c 8b 1a 3d
       -0.21647431 -0.036810115 -0.21956578 0.037730798
000350 50 06 d8 bd 1e 38 42 3e 74 66 ab 3d eb d6 88 3e
       -0.10548079 0.1896672 0.08369151 0.2672647
000360 68 d3 e7 bc 6d 7e b1 3d 15 37 23 3e 75 59 01 bd
       -0.028299049 0.08666692 0.15938981 -0.031579453
000370 1a 28 3d bb f1 1a 66 3c b3 4b b1 3b cb af 2d be
       -0.0028863014 0.014044509 0.0054106354 -0.16961591
000380 64 7c 23 3d 4c 91 a0 3d ae b6 cd bc e2 93 7d ba
       0.03991355 0.07840213 -0.025111523 -0.00096732203
000390 60 42 15 3e d1 0f 80 bd 45 ed 72 bd 59 8a 4e 3e
       0.14576101 -0.06253017 -0.05930831 0.20169963
0003a0 60 77 69 be cd de 0b be 44 e5 17 3e 1b 3a 8e bd
       -0.22799444 -0.1365921 0.14833552 -0.069446765
0003b0 ef c2 b4 3d 3d 60 23 be 11 ed 59 bb 6e 37 d5 3d
       0.08826243 -0.1595468 -0.0033252875 0.10410963
0003c0 89 d1 d3 bd 60 19 1d bd 01 c8 20 3e 5b b9 72 bd
       -0.103427 -0.038354278 0.15701295 -0.0592588
0003d0 d3 5c 41 be c9 b3 81 bd 7a 93 d3 3d 69 44 f6 3d
       -0.18883066 -0.063331194 0.10330863 0.12024767
0003e0 f3 7b 32 3d 4a 78 29 3c 88 ed 21 bd 0f 80 e2 bd
       0.04357524 0.010343621 -0.039533168 -0.110595815
0003f0 8a 23 29 bd e1 f0 da 3d 22 88 71 be 2f 5f 3f bb
       -0.04129366 0.10690475 -0.23587087 -0.002920102

decoder/decoder_dense_2/BiasAdd/ReadVariableOp:0 f4 [75]
000000 ff ba 48 3d a4 c2 44 bd 6b 2e cc bc e5 15 d7 3c
       0.04900646 -0.048037186 -0.024924478 0.026255557
000010 30 6f 2d be 4e e4 80 3d 92 e3 02 bc e5 69 3a 3d
       -0.16936946 0.06293546 -0.007988827 0.045511145
000020 ec 2d 11 bd 5c da ee 3c 2b fb 69 bd e0 06 c1 3d
       -0.035444185 0.029156856 -0.057124298 0.094251394
000030 ab b3 c9 bc b8 81 11 3d 99 40 5a bd 88 03 1b bd
       -0.024621805 0.0355241 -0.05328426 -0.037845165
000040 10 81 a3 3d 2b 93 9b 3d de ef 12 bd a8 ca 85 bd
       0.07983601 0.075964294 -0.035873286 -0.06532794
000050 9b e5 ae 3b 0c 33 de bd 12 55 6e bd f6 a2 48 bc
       0.0053374297 -0.1084958 -0.058186598 -0.012245884
000060 88 33 38 bd f9 46 b7 bc 53 e6 6f bd e3 98 9e bc
       -0.04497102 -0.02237271 -0.058569264 -0.019360011
000070 8f be eb bc 0d e0 2b bd 91 e9 33 3d be b8 80 3d
       -0.028777389 -0.04196172 0.04392392 0.06285237
000080 40 ff 90 3d 4c a1 dd 3c fe e3 20 3d 49 ec 6b bc
       0.07079935 0.027054451 0.03927993 -0.0143995965
000090 3a a6 80 bd b8 4d 04 bd d9 37 5d 3d cb ab 78 bd
       -0.06281705 -0.03230068 0.05400834 -0.06071071
0000a0 46 33 9a 3d 22 45 81 bc fb 43 80 3c 12 ca 69 3d
       0.07529311 -0.015780035 0.015657416 0.057077475
0000b0 03 8a a6 bc 92 1a 12 3d e5 22 35 bd 4a 5c ec bd
       -0.020329481 0.03566987 -0.04422273 -0.1154104
0000c0 cf 38 15 3d 6e cd 00 bd 66 4a e2 bc 70 47 18 bd
       0.03643113 -0.031445913 -0.027623367 -0.037177503
0000d0 ac 73 2a bd 53 3c 3c bd 30 55 3f bd 80 11 93 3d
       -0.04161422 -0.045955967 -0.0467121 0.07181072
0000e0 e5 0b 2f bd b7 b3 8a bd 18 8d fd 3c 68 0b 90 bd
       -0.042735953 -0.06772559 0.030951068 -0.070334256
0000f0 f0 a8 01 bd 2c b2 94 3c 3b bc 77 3d c7 62 cc 3c
       -0.031655252 0.018151365 0.060482245 0.024949444
000100 78 2c c1 bd 40 59 49 bd 36 86 45 3d ca 59 bc bc
       -0.0943231 -0.04915738 0.048223697 -0.022992034
000110 2e 43 35 3d 13 3d 2b bd 80 ca 13 bd 76 90 86 bc
       0.04425352 -0.04180629 -0.03608179 -0.016426306
000120 72 38 81 3d 83 6f f1 bb c5 26 ce bc
       0.06309594 -0.0073680296 -0.025164971

decoder/decoder_dense_1/MatMul/ReadVariableOp:0 f4 [5, 75]
000000 a1 d6 e3 be 73 a6 98 be a3 ca 03 bc ed 47 21 3b
       -0.44499686 -0.2981449 -0.008043918 0.0024609521
000010 4e 51 e1 bd 74 13 60 3d 4c 05 d6 bb 45 78 87 bf
       -0.11001836 0.054706052 -0.006531393 -1.0583578
000020 9e 00 27 3d c6 7b 4d be d0 22 7a 3c 33 16 10 3d
       0.040772073 -0.20066747 0.015267089 0.03517742
000030 2c 3d b8 bf 43 97 49 be 92 21 8e be 8b 4f 33 3e
       -1.4393668 -0.19686608 -0.27759987 0.17510812
000040 56 ee 23 be 15 f7 d2 bd 65 2a 0d bd 02 76 9d bf
       -0.16008887 -0.103010334 -0.03446426 -1.2301638
000050 33 22 31 3e f6 2f 65 bd 90 30 fa 3d 61 09 19 be
       0.17298202 -0.055953942 0.12216294 -0.14944984
000060 3d 13 f1 be de f9 58 bf ff 26 37 3c 7b cd df 3d
       -0.4708499 -0.8475627 0.011178731 0.10927864
000070 c5 b2 61 be 1e 14 c6 be eb 2a 13 be 1d 85 3f 3d
       -0.22040851 -0.38687223 -0.1437184 0.046757806
000080 94 2c 75 3e a2 e3 77 3e e9 0b 33 be a6 4e bf be
       0.23942786 0.24207929 -0.17485012 -0.37364691
000090 41 6e 28 be fd 01 33 bf 50 a7 8e bb 26 cd 29 bb
       -0.16448309 -0.6992491 -0.0043534413 -0.0025909632
0000a0 37 a5 3a bf 9f 4c 10 bf 92 7f 21 3e 32 ee 4d 3e
       -0.7290835 -0.56366915 0.1577132 0.20110396
0000b0 59 a8 23 bd a4 ad 13 bf b2 29 87 3d 84 a1 a2 bd
       -0.03995547 -0.5768683 0.065997496 -0.07940963
0000c0 2a 96 a9 be 73 8b 8b 3c ec b4 2b 3d 9c f4 18 bc
       -0.3312238 0.017034268 0.041920587 -0.009335663
0000d0 4a b1 0c 3e 03 45 e8 bc f3 2a 39 3d 16 ce b3 3d
       0.13739505 -0.02835322 0.045206975 0.08779542
0000e0 be e7 83 3d ab d5 81 be 49 ad cd 3d a2 e0 34 be
       0.06440686 -0.25358328 0.10042817 -0.17663816
0000f0 75 59 82 be d9 9a 3e be dd a4 81 be 5e 0c 8a bd
       -0.25458875 -0.18613757 -0.25321093 -0.0674064
000100 87 04 1b bf c8 91 8c be f9 c9 27 be fe ef 44 3e
       -0.60553783 -0.27454972 -0.1638564 0.19232175
000110 9e b3 9c be 4e e5 52 be 48 11 a6 be f5 20 0d bf
       -0.30605787 -0.20595285 -0.3243506 -0.55128413
000120 d5 3c ff 3d 58 ad 0e 3e 19 a7 20 be 4d ec f3 be
       0.12462775 0.13933313 -0.15688743 -0.4764122
000130 d1 13 fa bf af 5c 69 3d 2c eb 28 bd 31 2b a2 be
       -1.9537297 0.056973156 -0.041239902 -0.31673577
000140 d6 f6 41 3c 53 6e 9b 3d af 77 55 bd 08 6c 68 bd
       0.011838635 0.07589402 -0.052116092 -0.05674365
000150 66 4d 20 bd c0 24 9a be 0f 8b 00 3e 9f 1b 30 bc
       -0.039136313 -0.30106163 0.12553047 -0.010748773
000160 93 7d 98 bf 0c 1f 49 be d5 70 9e bd ea d6 34 38
       -1.1913322 -0.1964075 -0.07736365 4.31155e-05
000170 4b ee 0d bf 56 f8 6c be 47 3a 36 3b 05 2e d1 3e
       -0.5544173 -0.23141608 0.0027805732 0.40855423
000180 e7 22 26 3e 5a 84 ef bd fb 77 1a 3e e7 94 44 be
       0.16224252 -0.11695166 0.15084831 -0.19197427
000190 12 94 06 3d 6a 47 6d 3e bd 16 18 3d f5 08 8d be
       0.032856055 0.23171774 0.03713106 -0.27545896
0001a0 6f 2e 4b be 19 fc 7b be 7a ac 22 3e d3 7c 9f 3e
       -0.19841932 -0.24607886 0.15886107 0.3114992
0001b0 8d 61 cb 3d 6a 99 95 3d 83 ef 54 3e e0 9b 33 3e
       0.09930716 0.07304652 0.20794491 0.1753993
0001c0 6d 8f 54 bd 7e 32 5c be 7c 5f 48 3c 4c 8e f4 bc
       -0.051894594 -0.21503636 0.0122297965 -0.029853009
0001d0 60 8f 50 be 27 b5 6c be 8d d0 48 3e c8 2d b4 3e
       -0.20367193 -0.23115979 0.19610806 0.35191178
0001e0 68 4d b1 ba 3f 44 e6 be 18 e2 d7 3d 8f 9f 77 3e
       -0.0013527097 -0.44973943 0.10541171 0.2418196
0001f0 c0 87 13 3e 17 d0 f7 3d e0 05 03 bd 5e b2 9a bd
       0.14407253 0.12100237 -0.031988025 -0.07553552
000200 38 0f 94 bd 13 5e 30 3e 58 61 2d be 10 f7 8d 3e
       -0.07229465 0.17223386 -0.16931665 0.27727556
000210 79 60 5c bd 47 09 e2 be 96 de 98 be 0d c4 3f 3d
       -0.05380294 -0.44147703 -0.2985732 0.046817828
000220 19 0f 59 bd 57 05 f2 3d 18 29 d9 bd 1f a8 a5 3d
       -0.052992914 0.11817425 -0.10603541 0.08088707
000230 75 02 4c be f8 d6 8c bd 33 09 e4 3d 9c 55 32 3d
       -0.19922812 -0.068769395 0.11134567 0.043538675
000240 0e 15 4a be e9 b4 1a be 23 ed 4b bf 62 6c 26 3e
       -0.19734594 -0.15108074 -0.79658717 0.16252282
000250 58 e8 1c 3e e0 27 85 3e 5d 70 bd be c5 d8 ed bb
       0.15323007 0.26006985 -0.3699979 -0.007258507
000260 ee 1e e3 bd db 92 a1 bd e0 30 9b bc 95 bb 85 bb
       -0.11089884 -0.078893386 -0.018944204 -0.0040811994
000270 ed c4 5a 3e 24 b4 20 bd 76 25 8a 3d f0 b1 04 bd
       0.21364184 -0.039234295 0.06745426 -0.032396257
000280 04 0a 5f bc da 42 82 bd 44 4a 0e bc c5 0a 29 bc
       -0.013613228 -0.06360407 -0.0086846985 -0.010317509
000290 2e d2 9c 3e 32 28 55 bf 2e a6 38 bd f6 65 84 3e
       0.30629104 -0.8326446 -0.045080356 0.2585904
0002a0 49 f1 11 3e 76 3f f9 3d 9f c0 2a be de 4b 86 bd
       0.14252199 0.12170307 -0.16675042 -0.06557439
0002b0 fe ba 34 3d 26 0a 58 bd 47 ef 64 3e 56 b8 40 3a
       0.044123642 -0.052744053 0.22356902 0.0007351687
0002c0 67 8c 76 bd 23 19 12 bd 72 c1 8e 3d c2 73 e4 3d
       -0.06019249 -0.035668503 0.069704905 0.111548916
0002d0 9c 1d a4 3e ec 4e 49 bd 88 dd 01 bd df f9 25 bd
       0.3205384 -0.04914753 -0.03170541 -0.0405215
0002e0 b7 b9 67 be 43 69 3b bf e7 5b 06 bf 3b 0e 59 3e
       -0.22629438 -0.7320749 -0.5248398 0.21196835
0002f0 a3 7c 7c bd 03 8a 55 be 23 ef f0 3c b5 28 a1 3e
       -0.0616423 -0.20853429 0.029410904 0.3147637
000300 3f 75 77 3d dc a5 61 bd bc 9d db be 59 4b 1a bc
       0.06041455 -0.055089816 -0.4289378 -0.009417378
000310 74 bf e2 3d 21 b8 16 be ef a3 27 bf 59 9f b9 bd
       0.11071673 -0.14718677 -0.6548452 -0.09063596
000320 67 ed 17 3c d5 25 b5 bd 63 d9 d3 3c 9e ec 24 be
       0.00927291 -0.088451065 0.025860494 -0.16105887
000330 4c 81 da 3d 57 fa 4c bd 62 3b 06 bf 5f b1 48 3e
       0.10669193 -0.05004343 -0.5243436 0.19598912
000340 94 4f 8b 3d 84 f1 0d be 68 c5 e9 bb 4c 74 54 be
       0.06802288 -0.13861662 -0.0071341284 -0.20747489
000350 50 b1 f1 3d 8a c5 c0 bd f2 38 9e 3c 4b 9c 64 3e
       0.11801398 -0.094126776 0.019314263 0.22325246
000360 87 ab 1a 3e 25 85 2d 3e dc 20 3d bf e5 07 e5 3d
       0.15104495 0.16945322 -0.73878264 0.111831464
000370 a4 cb 58 3e 37 b3 54 bf e0 be 3a 3e d8 1c ab be
       0.21171433 -0.8308596 0.18236876 -0.33420444
000380 99 9d 99 be e7 3c cb 3b 9a d5 fe 3a 71 90 73 3e
       -0.3000305 0.0062023285 0.001944232 0.23785569
000390 2f e0 01 3e 9e 8b 2d 3c 7a 94 f0 3d 6c 4e 16 bd
       0.12683176 0.010592369 0.1174707 -0.036695883
0003a0 05 37 31 3d 84 70 f9 be f8 09 94 bc 18 01 34 be
       0.04326536 -0.48718655 -0.01807116 -0.17578542
0003b0 45 66 cb 3e b9 a0 26 3a 99 a0 68 bb 83 7c 87 be
       0.39726463 0.0006356347 -0.0035496114 -0.26462182
0003c0 10 d8 ae 3c 66 80 20 3d 40 93 55 bd a0 0f 16 3e
       0.021343261 0.03918495 -0.05214238 0.14654398
0003d0 5c 48 21 3c 1b 88 14 be 0e c6 5b 3e 67 45 d1 3d
       0.009843912 -0.14505045 0.2146227 0.102183156
0003e0 ff 3d 98 3d 42 35 8c 3c 8f ee 1a bd 07 16 4b 3d
       0.074337 0.017115239 -0.037825163 0.049581554
0003f0 41 24 87 be c1 95 96 3d ba af c9 3d 6a b5 dd 3c
       -0.26394847 0.07352782 0.0984797 0.027064044

decoder/decoder_dense_1/BiasAdd/ReadVariableOp:0 f4 [75]
000000 40 2f 3f 3e 0a dd 3e 3d e2 08 5a bd 0a d2 cb bc
       0.18670368 0.046597518 -0.053231128 -0.024880428
000010 e4 5b ec 3d 87 95 a9 bb 09 63 2b bd ec b7 ff 3d
       0.11540964 -0.0051752958 -0.041842494 0.12486252
000020 c2 b9 9b 3e 0a f4 be bb 29 73 d0 bb 26 88 e4 be
       0.3041516 -0.0058274316 -0.0063613844 -0.44635123
000030 73 09 28 3c 8f 4f e7 3d e8 9f 18 3e e2 73 a3 bd
       0.010256159 0.112944715 0.1490475 -0.07981087
000040 f9 47 e4 3d 5e c9 4d 3d 56 8e 0a be 93 18 a3 bd
       0.1114654 0.050240867 -0.1353086 -0.079636715
000050 7c 5c 54 bd b6 70 86 bd 35 44 13 bd 51 7f cd 3d
       -0.051846012 -0.06564467 -0.03595372 0.10034049
000060 ec 32 6c bd 47 b7 db 3d 11 05 c5 bc 39 67 82 bc
       -0.05766575 0.10728317 -0.024050267 -0.015918361
000070 97 3e 77 3d ea 51 27 bd 6a 87 61 be 61 2f 8d bd
       0.060362425 -0.040849604 -0.22024313 -0.068938024
000080 09 95 82 bd 45 c4 2f 3a 05 5d d8 3b be 47 ab 3e
       -0.063760825 0.00067049667 0.0066028857 0.33453172
000090 04 ec b9 3d da 33 8d 3d f5 8b 94 38 bb 64 fc bc
       0.090782195 0.068946555 7.083259e-05 -0.03080975
0000a0 09 49 ba 3d 15 58 bb 3c 2c 6c 4d be ca 1c 42 bd
       0.090959616 0.02286915 -0.20060796 -0.047390737
0000b0 1e f8 85 bb 6f 9b af 3b d1 92 e2 3d 9d 1d 0e 3e
       -0.0040884158 0.0053591053 0.11063159 0.13878484
0000c0 bc 0a 05 3e bf 58 e9 bd 99 b4 60 bc 74 df 9a bd
       0.12992376 -0.1139388 -0.013714933 -0.075621516
0000d0 75 42 51 3e e2 2c 07 bc 5c 18 06 be 1d 82 9f 3d
       0.20435508 -0.008250447 -0.1309523 0.07788489
0000e0 18 fe 96 3d 9d c8 34 3d d5 8e b8 bd c0 02 84 3c
       0.07372683 0.044136632 -0.09011618 0.016114593
0000f0 a7 aa 12 3d 0e a7 e1 bb 9d ce 28 3e d0 16 a1 3b
       0.035807278 -0.0068863695 0.16485067 0.0049160495
000100 56 10 1b be 71 cf 11 3d 13 94 1c bd d0 2e 0b be
       -0.1514295 0.035598222 -0.038227152 -0.13592076
000110 71 3e 90 3d 09 1f d8 3d 4a 0c 4e 3e 7a 2f a3 3b
       0.0704316 0.105527945 0.20121875 0.004980025
000120 50 89 3d 3b ee 3c 85 bd 20 8f 10 bd
       0.0028920956 -0.06505762 -0.035292745
